my_gtn/experiment_logs/model_exp_025.pt (torch, 46105 bytes, 4 tensors)

conv1.bias f4 [32]
0	0x3e008760	0.12551641
1	0xbbf0b75a	-0.007346076
2	0xbc3e41a2	-0.011612328
3	0x3e7bcb5a	0.24589291
4	0x3c91f17f	0.01781535
5	0x3dc9bbf4	0.09850302
6	0x3b362f95	0.0027799357
7	0x3c63de9f	0.0139080575
8	0x3ded6297	0.1159107
9	0x3e010bcf	0.12602161
10	0x3e3a3ee6	0.18188056
11	0x3df8d8dc	0.12150738
12	0x3df2639e	0.11835407
13	0x3e5fb25f	0.21845387
14	0x3dd426fc	0.10358998
15	0xbde19861	-0.11015392
16	0x3de0a7c0	0.10969496
17	0x3c69b311	0.014263884
18	0x3d8e7650	0.0695616
19	0x3de5fac8	0.11229473
20	0x3e5b2a5e	0.2140288
21	0x3e4c4706	0.19948968
22	0xbbc44777	-0.0059899646
23	0x3e74efd2	0.23919609
24	0x3d63320b	0.055467647
25	0x3c3de54b	0.011590312
26	0x3db88a8a	0.09010799
27	0x3d371808	0.044700652
28	0x3dd50814	0.104019314
29	0x3e15172e	0.14559624
30	0x3df15671	0.117840655
31	0x3e21844d	0.15773125

conv1.lin.weight f4 [32, 334]
0	0x3eba3ecb	0.36376032
1	0x3e47e463	0.19520716
2	0x3d54bf20	0.051940084
3	0x3dad1e63	0.084530614
4	0xbdd12055	-0.10211245
5	0xbe1cea4c	-0.15323752
6	0x3e6bb045	0.2301646
7	0xbd7fb25d	-0.06242596
8	0xbcb5bb9c	-0.022184186
9	0xbd547a2b	-0.05187432
10	0xbdf855b3	-0.12125721
11	0x3d8073cc	0.062720865
12	0x3ea9a57e	0.33134073
13	0xbd521cd4	-0.051297024
14	0xbd81dda7	-0.06341105
15	0x3dc17565	0.09446219
16	0xbe085694	-0.13314277
17	0xbd8fa34f	-0.070135705
18	0x3e716532	0.23573759
19	0xbe127a58	-0.14304483
20	0x3b7878a1	0.0037913697
21	0x3eacff00	0.337883
22	0x3e04d07d	0.12970157
23	0x3e46bc6c	0.19407815
24	0xbdc7f9de	-0.09764455
25	0x3da7d5f3	0.081951044
26	0xbd12647d	-0.035740364
27	0x3da4ad7d	0.08040903
28	0xbd6f8dcc	-0.058484837
29	0x3eb2ede3	0.34947118
30	0xbdb732c2	-0.08945228
31	0x3d546f77	0.051864114
32	0x3e85f7bf	0.26165578
33	0xbd9c9470	-0.076455
34	0xbe3a13b7	-0.18171583
35	0xbca5eb75	-0.020253876
36	0xbdf01266	-0.11722259
37	0xbcce4490	-0.025179178
38	0x3d06f3c1	0.032947306
39	0xbde3442f	-0.11096989
40	0x3eb4eb37	0.35335705
41	0x3e4a1edd	0.19738336
42	0x3ded5116	0.115877315
43	0xbdbf802a	-0.09350617
44	0xbc73f8f3	-0.014890897
45	0x3d810d6e	0.0630139
46	0xbca3e6cd	-0.020007515
47	0x3d81e88a	0.063431814
48	0xbd79c2ea	-0.0609769
49	0x3e278b44	0.1636172
50	0x3e7f45c7	0.24928962
51	0xbb7c7911	-0.003852431
52	0x3e442ea7	0.19158421
53	0xbe064b75	-0.13114722
54	0x3d35e127	0.044404175
55	0xbdfafba6	-0.122550294
56	0xbc485515	-0.012227316
57	0x3e5ebe49	0.21752276
58	0x3e16145e	0.14656207
59	0xbe0368e0	-0.12832975
60	0x3e0f674c	0.14004248
61	0xbd0a816b	-0.03381483
62	0xbd1191b1	-0.035539333
63	0xbe0f6159	-0.14001979
64	0xbdf5e880	-0.120072365
65	0xbd0722b9	-0.0329921
66	0xbe0ac44e	-0.13551447
67	0x3d08b04b	0.03337125
68	0xbdc2723c	-0.09494445
69	0x3c9fae08	0.019492164
70	0xbc25103f	-0.010074674
71	0x3db9110c	0.090364546
72	0x3e50c4a1	0.20387508
73	0xbd17e139	-0.037080023
74	0xbe3539fa	-0.17697898
75	0x3e1ab65b	0.15108626
76	0xbd72893d	-0.059212912
77	0xbdcf83c9	-0.10132558
78	0xbe56981e	-0.20956466
79	0xbdcbf7b8	-0.09959358
80	0x3dfa4fcb	0.122222506
81	0x3e9533f5	0.29141203
82	0x3e34cfe9	0.17657436
83	0x3e5ad52c	0.21370381
84	0x3e114592	0.14186695
85	0xbe0bf755	-0.13668568
86	0x3ca70569	0.020388322
87	0xbdb5507a	-0.0885324
88	0xbe342bc6	-0.17594823
89	0x3e52adc7	0.20574103
90	0xbc95ea5d	-0.01830023
91	0x3d84aa96	0.06477849
92	0xbe2d2298	-0.16907728
93	0x3e6cb29d	0.2311501
94	0x3ea27fc8	0.31738114
95	0xba52b790	-0.0008038217
96	0x3cd38f6d	0.025825227
97	0x3e5a5a74	0.21323568
98	0x3e1cb928	0.15305007
99	0x3e1c6fe6	0.15277061
100	0x3e86a10d	0.26294747
101	0x3ec12457	0.37723038
102	0xbe35d8e2	-0.17758515
103	0xbe273843	-0.16330056
104	0x3ea9caa3	0.33162412
105	0x3e981d9c	0.2971009
106	0x3e2b1114	0.16705734
107	0xbdda9473	-0.10672846
108	0x3e58bfd3	0.21166925
109	0xbbbaa3fb	-0.0056958175
110	0x3cddcfdf	0.02707666
111	0xbd952aff	-0.072835915
112	0x3cde5e34	0.027144529
113	0xbdad59a5	-0.08464364
114	0x3e73c682	0.23806193
115	0x3e1f2d60	0.15544653
116	0x3e11c137	0.14233862
117	0xbdaa4c6a	-0.08315356
118	0x3e48514d	0.19562264
119	0x3c83536d	0.016030991
120	0xbe27ff61	-0.16406013
121	0xbd5f87ee	-0.054572992
122	0xbd8ea17d	-0.06964395
123	0xbdeac868	-0.11464006
124	0xbdd7d072	-0.10537805
125	0x3e4a4bdc	0.197555
126	0x3dd50453	0.104012154
127	0x3e9ca7c2	0.3059674
128	0x3e193ad4	0.14963847
129	0x3c5d7bb9	0.013518267
130	0xbdbc02dc	-0.09180233
131	0xbd9ec2e7	-0.077520184
132	0xbde70f5f	-0.11282229
133	0xbe025cb2	-0.12730673
134	0x3dd33dd9	0.10314531
135	0x3e92689a	0.2859543
136	0x3ce129e4	0.027485795
137	0x3d5a4cbf	0.053295847
138	0x3de952e0	0.1139276
139	0x3e2b3561	0.16719581
140	0x3b4f59ce	0.003163922
141	0x3d8f2e79	0.06991286
142	0x3ebe24bf	0.3713741
143	0x3d6799c4	0.056543127
144	0xbe1067eb	-0.14102142
145	0xbda0a790	-0.0784446
146	0xbd888531	-0.06666029
147	0xbdb837f3	-0.089950465
148	0x3e4519be	0.19248101
149	0x3e9ee0bc	0.31030834
150	0x3decd4e6	0.11564045
151	0xbe38e769	-0.18057026
152	0xbd50f410	-0.051014006
153	0x3c50fb31	0.012755201
154	0x3e079a32	0.13242415
155	0x3e8ec7f4	0.27886927
156	0x3caaae4d	0.020835066
157	0x3e7bfb38	0.24607551
158	0x3d99ce7b	0.07510086
159	0xbc81e61d	-0.015856797
160	0xbd8b5076	-0.06802456
161	0xbcb69143	-0.022286063
162	0xbddbbdbc	-0.10729548
163	0x3e35d0a3	0.1775537
164	0x3dfdbad2	0.12389149
165	0x3d6c389b	0.05767117
166	0x3d514c05	0.05109789
167	0x3d743dff	0.059629437
168	0xbdc42060	-0.095764875
169	0xbd6fe7e9	-0.058570776
170	0xbe5e75d2	-0.21724632
171	0x3e8265c5	0.2546827
172	0x3e69db96	0.22837672
173	0x3d358c21	0.04432309
174	0x3dffea39	0.12495846
175	0xbd1cd68e	-0.038290553
176	0xbcf39459	-0.029733824
177	0x3b0eef93	0.0021810278
178	0xbe027605	-0.12740333
179	0x3da061a5	0.07831124
180	0x3ca2b15d	0.019859964
181	0x3e849733	0.25896606
182	0xbdc95232	-0.09830131
183	0xbda67449	-0.081276484
184	0xbddaee74	-0.106900126
185	0xbd966271	-0.07342995
186	0x3e671877	0.22567926
187	0x3dc1d3ee	0.094642505
188	0x3e85c9fe	0.2613067
189	0xbd8fbaa4	-0.07018021
190	0xbdf8d8b4	-0.12150708
191	0x3e122e61	0.14275505
192	0x3c5eb849	0.013593742
193	0xbda6b948	-0.08140808
194	0x3d860d2e	0.065454826
195	0x3df0c7b4	0.1175684
196	0x3e11f057	0.14251839
197	0x3dcf4145	0.10119871
198	0x3d88ccf7	0.06679719
199	0x3e3b450b	0.18288057
200	0x3e0c6db4	0.13713723
201	0xbd50fd10	-0.05102259
202	0xbd9dbf9e	-0.07702564
203	0xbd7828ec	-0.0605859
204	0xbe6b3a94	-0.22971565
205	0x3e7ebee9	0.24877514
206	0x3d8aa3bd	0.06769512
207	0x3dab65c7	0.08369022
208	0xbe28c9d3	-0.1648324
209	0xbdd4b0ac	-0.1038526
210	0xbe67ec72	-0.2264879
211	0x3eb3a8ee	0.3508982
212	0x3e284450	0.16432309
213	0x3e0bfafe	0.13669965
214	0xbda8ed0f	-0.0824834
215	0x3cc0d82d	0.02354058
216	0x3e270b91	0.16313006
217	0x3e290a45	0.16507824
218	0x3d3b2611	0.0456906
219	0x3e5209f1	0.20511605
220	0xbd873fea	-0.066039875
221	0x3e2ea723	0.17055945
222	0x3e41aa64	0.18912655
223	0xbc408c88	-0.011752255
224	0x3ebd32f6	0.36952943
225	0xbd0bc3e1	-0.03412235
226	0xbde177e2	-0.11009194
227	0x3e80f013	0.25183162
228	0x3ea6a58e	0.32548183
229	0x3e141aca	0.14463344
230	0x3e19ec0e	0.15031454
231	0x3e255561	0.1614585
232	0x3e01c2a3	0.12671904
233	0x3e11cce5	0.14238317
234	0xbd1b09e4	-0.03785123
235	0xbae98b3a	-0.0017817982
236	0x3e86f820	0.2636118
237	0x3e6113e7	0.21980248
238	0x3e28a24a	0.16468158
239	0x3e962c84	0.29330838
240	0xbcfd37e1	-0.030910434
241	0x3e8daa8b	0.27669176
242	0x3e9978f7	0.299751
243	0x3e469f27	0.1939665
244	0xbe64a2d9	-0.22327746
245	0xbe210d1d	-0.15727659
246	0xbdcefe52	-0.101071015
247	0x3c879a84	0.016553171
248	0xbe2992f7	-0.16559969
249	0xbd2d5dac	-0.04232566
250	0x3de9b22c	0.11410937
251	0xbaf3802c	-0.0018577627
252	0xbb01d265	-0.0019809243
253	0x3eb45fda	0.3522938
254	0x3e3f8cd4	0.18706065
255	0x3ddddc21	0.10833002

conv2.bias f4 [4]
0	0xbdb462e6	-0.08807926
1	0xbe4c7f3f	-0.19970416
2	0x3d795a2f	0.06087702
3	0x3e843543	0.25821885

conv2.lin.weight f4 [4, 32]
0	0x3de89dce	0.11358224
1	0x3e02bd96	0.12767634
2	0xbd52dee7	-0.051482107
3	0x3e525dad	0.20543547
4	0xbe6f6417	-0.23378025
5	0xba5c3039	-0.000839952
6	0x3e82bd83	0.2553521
7	0x3ebc9061	0.36828902
8	0x3efb40a0	0.49072742
9	0xbc80b5e6	-0.015711736
10	0xbf089214	-0.533479
11	0x3ec4984b	0.3839744
12	0x3ea698d0	0.32538462
13	0xbc837d5c	-0.016050987
14	0x3ee923a8	0.45535016
15	0xbda7d898	-0.08195609
16	0xbefd3ae8	-0.49459004
17	0x3d3bf5c4	0.045888677
18	0xbea3c80a	-0.31988555
19	0xbf1eb0a2	-0.6198827
20	0xbe693d8d	-0.22777386
21	0x3e29a5f1	0.16567208
22	0xbeb0c83c	-0.34527767
23	0xbe202c29	-0.15641846
24	0x3c1a6bd7	0.009425125
25	0x3cc23934	0.023708917
26	0x3df8f628	0.121563256
27	0xbe84d212	-0.2594152
28	0xbe4fd281	-0.20295145
29	0xbee425d8	-0.44560122
30	0xbe0ec4b0	-0.13942218
31	0x3eea001f	0.45703217
32	0xbdebafc7	-0.11508136
33	0x3cdaf402	0.02672768
34	0x3ed4aa3b	0.41536126
35	0x3e77a30d	0.24183293
36	0x3efab096	0.4896285
37	0x3ef34581	0.47513965
38	0x3e4bd575	0.19905646
39	0x39905dff	0.00027535853
40	0xbf00e790	-0.50353336
41	0xbd963490	-0.07334244
42	0x3ed5f7ed	0.41790715
43	0xbe10462e	-0.14089271
44	0x3edb9f41	0.4289494
45	0xbf0cfbaa	-0.5507151
46	0xbdfccdd2	-0.123439446
47	0x3e9f6597	0.31132194
48	0xbe8fb98a	-0.28071243
49	0xbd4df412	-0.05028159
50	0x3e6dd248	0.23224747
51	0xbebb985a	-0.36639673
52	0xbeccf46d	-0.40030232
53	0xbed6afae	-0.41930908
54	0x3f056b4b	0.5211684
55	0xbe9beb24	-0.30452836
56	0x3e58f8ad	0.21188612
57	0x3edc5036	0.43029946
58	0x3e84ed08	0.2596209
59	0xbd8dd1c2	-0.06924774
60	0x3ee29eda	0.4426182
61	0xbe824456	-0.2544276
62	0x3eca47ac	0.39507806
63	0xbebec8fa	-0.37262708
64	0x3eb86bb7	0.3601968
65	0xbec2d4c4	-0.38052952
66	0x3e930a4f	0.28718802
67	0x3f223e53	0.6337635
68	0xbe6a5b40	-0.22886372
69	0xbd96e767	-0.07368355
70	0xbe8b0a19	-0.2715614
71	0x3d465f52	0.04843075
72	0xbed50174	-0.4160267
73	0x3edc46ab	0.43022665
74	0xbec21963	-0.37909994
75	0xbe914d9a	-0.28379518
76	0xbe6f1fbd	-0.23351951
77	0x3f0f629a	0.5600983
78	0x3e6b4558	0.22975671
79	0x3de28100	0.11059761
80	0x3e16a32d	0.14710684
81	0xbed0a4b6	-0.40750664
82	0x3dd0d7b0	0.10197389
83	0x3e9ff349	0.312403
84	0xbe5ff7ca	-0.21871868
85	0xbeb939c7	-0.36176893
86	0xbec0ab65	-0.37630764
87	0x3f17aed0	0.5925112
88	0x3e2f8075	0.17138846
89	0xbe3275f6	-0.17427811
90	0xbe4c992f	-0.1998031
91	0x3e8591af	0.2608771
92	0xbdae17ac	-0.08500609
93	0x3eb57774	0.35442698
94	0x3ecfd099	0.40588835
95	0xbefaaaae	-0.48958343
96	0x3f18495a	0.59486926
97	0xbeacc20b	-0.33741793
98	0xbdf648c9	-0.120256014
99	0xbdd8080f	-0.10548412
100	0xbeb60de8	-0.35557485
101	0xbe9f8b6d	-0.3116106
102	0xbef72024	-0.4826671
103	0xbe36e99a	-0.1786255
104	0xbd91efdd	-0.071258284
105	0xbeb6886b	-0.35650954
106	0x3e8b8ee7	0.27257463
107	0xbe8087b5	-0.25103536
108	0xbd9ea978	-0.07747167
109	0x3e526741	0.205472
110	0xbe96b8ea	-0.29437953
111	0xbe9a6096	-0.30151814
112	0x3e9d23ef	0.30691478
113	0xbf18b75c	-0.59654784
114	0x3d9c2ff0	0.07626331
115	0x3efa4dad	0.48887387
116	0x3f036c76	0.51337373
117	0xbef95714	-0.48699248
118	0x3e8b18d5	0.27167383
119	0xbeff6de5	-0.4988853
120	0xbeba078d	-0.36333886
121	0x3c9eae0e	0.019370105
122	0xbee76a81	-0.45198444
123	0xbf0cb30c	-0.54960704
124	0x3e252d9b	0.16130678
125	0x3f1330cb	0.5749633
126	0x3eefc69f	0.46831223
127	0x3ed662d4	0.41872275
