my_gtn/experiment_logs/model_exp_158.pt (torch, 89497 bytes, 4 tensors)

conv1.bias f4 [64]
00000000: 7ea6 053e ffbb 803e 7240 9b3d ef8e 603c
00000010: 1b2d b83d 2e07 9e3e 16c8 573e 1c7d f13d
00000020: 13ed 223e 51aa 303e c076 b53e 2b51 1b3e
00000030: 7191 913e 4bc4 783e f05c be3d 4c9b a73d
00000040: 20a1 3b3e 5326 e73d af4d cb3d b04c d73d
00000050: 00b7 c73e 4d79 bc3d 15a3 8b3d fa6d c9bd
00000060: e766 e43d fe42 823d 23d7 133d eaa1 933c
00000070: f528 2d3d a65e 053e 528a 8a3d 206c 683d
00000080: ddbc 8e3d 7b1b 0f3e ee54 383e aed0 363e
00000090: d3ba 5c3e b9a3 6f3d 5a44 9c3d ea90 2a3d
000000a0: 91e3 a83e 3761 053e 6936 743d 26f1 943e
000000b0: d196 4b3e 6d79 43bd ee35 0b3d 5720 b13c
000000c0: b20d 583e e79d b23d 0190 443d 4e6f 3c3e
000000d0: 5211 6b3e e920 293e f443 f13d 5815 a23e
000000e0: 8b97 8d3e bdb2 cc3c 26ec 253e b8dc 803d
000000f0: 92cd 313e 96c1 0a3e 8edb 713c 8d54 5f3e
0.13051793 0.2514343 0.07580651 0.013705953 0.08992978 0.30864853 0.2107242 0.11791441
0.15910749 0.1725247 0.35442162 0.15167682 0.28431275 0.2429363 0.0929507 0.081839174
0.18323183 0.11286607 0.09926926 0.10512674 0.39006805 0.09202824 0.06818215 -0.098354295
0.111524396 0.06360434 0.036093842 0.018021543 0.042275388 0.13024387 0.06764664 0.05674374
0.069696166 0.13975327 0.18001148 0.17853042 0.21555643 0.058505747 0.076302245 0.041642107
0.3298612 0.13025366 0.059622202 0.29090232 0.1988175 -0.047723223 0.03398698 0.021621866
0.21098974 0.08721524 0.047988895 0.18401834 0.22955826 0.1651646 0.11780539 0.3165691
0.2765468 0.024987573 0.16203365 0.06292099 0.17363575 0.1355041 0.014761819 0.21809597

conv1.lin.weight f4 [64, 334]
00000000: 33f2 6abd 7dd9 ccbd bd11 f1bd da4f bd3c
00000010: 4cc0 46bd 06b9 8bbd 65be ed3a 62ee 1c3d
00000020: 27a4 853d 7850 60bd feb5 1fbb 5e3a 17bd
00000030: fed3 8e3d 1dbc 983c 6fa9 41bd efe7 d8bc
00000040: 1ae7 843d ff04 4ebe cbe4 0abd 41ea 7ebc
00000050: 8b81 e93d 3734 7dbd 8fbf 1fbd ccdf aebd
00000060: f075 16bc ce6c 263e b3a8 673d b7d2 b1bc
00000070: ccbe 6e3c 6c63 c43a 9924 d2bd f720 dd3d
00000080: 1db5 043e 3390 013d 4a39 4fbd 619a 923d
00000090: b8cc b33d 8bc3 b7bc e9d2 833e a4c7 993d
000000a0: cfe3 993e 1bc1 0f3d 3582 07bd 3911 29bd
000000b0: 7f21 04bc 3f5b fd3b 0c5e 0bbc 2ac8 03be
000000c0: 924e 52bc 4520 9d3d 400f 8ebb 198f d6bc
000000d0: c4e0 b43d 3177 82bd 8f9e 84bc 1cc2 25be
000000e0: 564d 3cbd 3d6d 4a3b daa3 1d3d d9dc a33b
000000f0: 5522 5bbd dc49 943c 82da 8f3d f044 88be
00000100: 70ac 19be d612 d9bd 74ab 90bd 21c3 73bd
00000110: 0ded 35bd 5bda b83d aee6 733b a2fa 1abd
00000120: a1ae 13be 2018 cc3b 353e babd bd23 35bc
00000130: d7cb cb3d 59cf 3fbe 8735 473d fb02 2f3d
00000140: cb5c 3bbd 760f 183e 8dfc 9c3d 9950 0c3d
00000150: 8cbd 7ebd 1246 523c ac29 abbe f8ca 033e
00000160: f828 1ebe a70d 9b3d 6d52 b1bd 4b2d 87bc
00000170: 77a9 2ebe e614 93bc 1dda 59bd 2534 fe3c
00000180: 45ce 92bd 0db7 6e3d bad5 ad3d fd96 b93d
00000190: 1597 b3bc ea89 da3d febe 85bd 8c28 56be
000001a0: 99f1 e53d 2361 dd3d 07f3 2e3e 2669 f93d
000001b0: 3386 d3bd f3da b23d a322 bebd 26eb 2bbd
000001c0: dbb9 493d 3bc2 4bbe 57c1 45be 00bb eebd
000001d0: d77f e2bc 163f cdbd ebc5 303b 11c7 7b3d
000001e0: 5a95 5bbd a704 ed3c c86b 07be 3970 123e
000001f0: dd6c 45bd 0c4b 923d fd46 323d 7f0a 193e
00000200: 6c01 f2bd c137 70bd 11ef d2bd 65b9 c93d
00000210: f62e a23d 966a 003d 3525 53be 4481 5c3e
00000220: 2515 d2bb 5c6e 9ebd 3432 50bd f1af 2a3d
00000230: aaea 18bd 370d 05be 5ab6 893d eb65 e23b
00000240: 064e 11bc 27db 9bbd 6da4 adbb 057b 053e
00000250: 5feb 253e 5101 193e 9f54 4abb a081 f1bb
00000260: df6f ad3d 2d1e d0bd 21fb edbd 8092 453c
00000270: 6d84 33be 4622 95bd 098f a4bc 3a57 f3bc
00000280: 3b24 3ebe f9a1 ba3c 335f 00be 92ae 1c3e
00000290: 7a88 80bc 5472 0ebe b7be 6abc 645f 37be
000002a0: 0a5c 653d 111a 14bc 38dc a6be e9cf 0ebe
000002b0: 8f38 5b3d 976b 4bbd 5989 033e 11fe 9fbd
000002c0: c123 d4bd bf80 083b 1b45 67bd d985 393d
000002d0: 2d86 c8bc d263 9f3e 35a0 b7bd 8fb5 b5bd
000002e0: f856 e5bd 9585 18bd bc4f 933d 2248 ddbc
000002f0: 819a 483c b1e2 a6bd 3ee3 883d f7d9 b4bc
00000300: 667d 10be 6476 d13b c22d 02be 023b 17bc
00000310: 6f8a b0bd 373e 7ebd d9be 6e3d 4cc7 38bd
00000320: 6308 cdbd 6d07 f1bd beb3 5abd ad27 843d
00000330: b66f 173c 17d0 c43d e606 17be 3829 fabb
00000340: 4303 c23d 9150 7cbe f7fd a0bd 76b3 a8bd
00000350: 3116 283d 9445 1dbe 3bec b6bc 2695 aa3c
00000360: 8b1c 62bc 3bc0 d1bc 8c06 3bbd a499 f7bb
00000370: 965a 81bc b559 bd3c 033e 7a3d f9b9 feba
00000380: c6a5 a93d 87c8 2b3b 827d d23d 0f27 36be
00000390: 8764 bd3d 6a37 b13e 89cf 8db9 f458 c63d
000003a0: 87bb bd3d 3772 313e c609 12be 8ada b3bd
000003b0: 98a8 283e c2e4 313d 7552 883d b744 563c
000003c0: 91d9 d3bc 41e2 683d 0dda c23e 797f 9bbd
000003d0: 7ed3 2a3d dde9 0abe aa32 acbe b7d4 933d
000003e0: 1b86 22be 4462 283d 4e39 ce3c c150 16bd
000003f0: 680f b0bc fcc0 403e 567f 9f3e f94e d33d
-0.057359885 -0.1000242 -0.117709614 0.023109365 -0.048523232 -0.068224 0.0018138407 0.038313277
0.0652545 -0.05476424 -0.002436995 -0.036920898 0.06974028 0.018644387 -0.047280725 -0.026477782
0.064893916 -0.20119093 -0.0339096 -0.01555878 0.114016615 -0.061817374 -0.039001044 -0.085387796
-0.009183392 0.16252443 0.05655737 -0.021706922 0.014571857 0.0014983243 -0.10260887 0.10797303
0.12959714 0.03163166 -0.050591744 0.07158352 0.087792814 -0.02243211 0.2574685 0.075087816
0.30056617 0.03509627 -0.03308316 -0.04127619 -0.008064627 0.0077318246 -0.008506309 -0.12869325
-0.012836115 0.076721705 -0.004335314 -0.026191281 0.08831933 -0.0637039 -0.016188888 -0.16187328
-0.04597219 0.0030887865 0.03848634 0.0050006923 -0.05349954 0.018101625 0.07024099 -0.26615095
-0.15007186 -0.10599296 -0.07063952 -0.05951226 -0.044415522 0.09026023 0.0037216353 -0.03783668
-0.14422084 0.006228462 -0.09093896 -0.011055884 0.09950989 -0.1873144 0.048635032 0.04272745
-0.04574279 0.14849648 0.07665358 0.03425655 -0.062192485 0.012834089 -0.3343023 0.12870395
-0.15445316 0.07570963 -0.086582996 -0.01650109 -0.17056833 -0.017954301 -0.053186525 0.031030724
-0.07168249 0.05828004 0.08488031 0.09062002 -0.021922627 0.10670836 -0.065305695 -0.20913905
0.11227722 0.10809543 0.17084895 0.121782586 -0.10328331 0.087331675 -0.0928395 -0.041972302
0.04924951 -0.19898312 -0.19312035 -0.11656761 -0.02764885 -0.10021798 0.0026973437 0.06146914
-0.05360923 0.028932882 -0.13224709 0.14300622 -0.048199523 0.0714322 0.04352473 0.1494541
-0.118166775 -0.05864692 -0.102995045 0.09849814 0.07919113 0.03135165 -0.20619662 0.21533686
-0.006411212 -0.07735893 -0.050829127 0.041671697 -0.037333168 -0.12993322 0.06724234 0.006909122
-0.0088687 -0.07610159 -0.005299142 0.1303521 0.16203068 0.14941908 -0.0030873192 -0.007370189
0.08468603 -0.101620056 -0.11620165 0.012058854 -0.17530985 -0.07281928 -0.020087736 -0.029704679
-0.18568508 0.022782313 -0.12536316 0.15300968 -0.015690077 -0.139108 -0.0143276965 -0.17907482
0.05599598 -0.009039418 -0.3258989 -0.13946499 0.053520735 -0.049663153 0.12845363 -0.07812131
-0.10358382 0.0020828692 -0.05646239 0.045293663 -0.024478042 0.31130844 -0.08966104 -0.0887252
-0.111982286 -0.03723677 0.071929425 -0.027011935 0.012243868 -0.08148707 0.06683968 -0.02207659
-0.14110336 0.006392287 -0.12712768 -0.009230377 -0.08620154 -0.06207105 0.058287475 -0.04511194
-0.10011365 -0.117689945 -0.05339407 0.0645288 0.009242943 0.096100025 -0.14748725 -0.007634308
0.094732784 -0.24640109 -0.0786094 -0.082373545 0.04103679 -0.15358573 -0.02232944 0.020823073
-0.0138007505 -0.025604358 -0.04566054 -0.007556157 -0.015790265 0.023114065 0.061094295 -0.0019434086
0.08283572 0.0026212053 0.10277845 -0.17788337 0.0924769 0.3461259 -0.00027048241 0.09684935
0.092642836 0.17328726 -0.14261541 -0.087819174 0.16470563 0.04343105 0.066563524 0.013077906
-0.02586058 0.056856398 0.38056985 -0.07592673 0.0417056 -0.13565774 -0.33632404 0.072183065
-0.1587147 0.04110934 0.02517381 -0.036698107 -0.021491721 0.18823618 0.31151837 0.10317797

conv2.bias f4 [4]
00000000: bdd0 2fbf b2b9 cebc 4404 03bd 6169 403f
-0.68677884 -0.02523503 -0.03198649 0.75160795

conv2.lin.weight f4 [4, 64]
00000000: 6be9 24bf 5b55 343f a17b 033d b45f ffbe
00000010: c256 fcbe 7ff7 ca3e 0a17 65bf c8af 043f
00000020: 0fd3 7dbe cf38 c03e 6233 cd3e 9d97 f9be
00000030: de61 a03e 10f2 73bf b415 b3bd 5869 be3c
00000040: 9932 903e 3ea1 cfbe ec7c eabe c1a4 ff3e
00000050: 5c6a 373f 5417 56bf b6fe 9d3e b29b ae3e
00000060: 7a68 003f 8efc 33be b31d ea3e b6c9 eabd
00000070: 11e8 013e e36a 2c3f 2e63 be3e 97a1 d03e
00000080: cde6 1abf cd9d 323f 6df0 6dbf 6471 af3d
00000090: a264 a23e 60e8 71bf 96ba fdbc b147 373f
000000a0: 07ad 6b3f 61d6 bf3e bb5a f1be e0d7 453f
000000b0: 43bf 27bf 8c9a f7be e556 ba3e d048 273f
000000c0: 4ee5 35bf aeab a13e 5c0e 00be adbd 27bf
000000d0: 01fb ba3e 7034 4dbf 2647 323f 1f6b 0d3f
000000e0: 6ac4 83bf a66b 613e 6c39 213e 269d 2abf
000000f0: bab2 77be 522e b4be 506a 353f b438 22bf
00000100: e0b1 18bf 2895 47bf 11c0 0d3f af9e 14bf
00000110: b6b0 243f 87d5 9cbf 5af4 0dbf 0c9d 1fbf
00000120: 2a16 a93e 52a7 1abf 729f 9dbf 743c c23e
00000130: 413f 72bf e57b ca3e 025e f53e 3964 433e
00000140: 7157 253f 807c fd3e 9d26 893f 1dcf b73e
00000150: 45d4 07bf fc1b 413f 863c debe 8402 6abd
00000160: 8d93 1ebf 503f 47bc 94e2 9f3c 4ef9 e83e
00000170: 48de ba3e b30c 3fbf b73f 063f 2c7a 133f
00000180: 28c9 2c3f 37aa 68bf a175 d83e 8177 07bd
00000190: b258 953e 9bad 8e3f acb8 413f de65 4d3e
000001a0: 6d18 86bf a7e1 d93e 50e6 aa3d 3583 5fbf
000001b0: 85e9 1ebf 574c 2f3f 87b8 df3e 2449 aabd
000001c0: 9b2e 4b3e bfb0 063e c392 acbe f60b 1cbf
000001d0: efab 9d3e 1172 6d3b 042f 83be 630f 88bf
000001e0: c34f 6ebb fdef 0d3d ebc8 7dbf aa95 033f
000001f0: e79e ac3c 5a71 003f fa68 a5be 4fc3 b03e
00000200: 552a 1e3e 55f2 243f 8783 38bf df17 f63c
00000210: 9389 083f b5ee 043f 7e1e 5c3f 562b 6abf
00000220: d2ae 223f f4a5 d3be 3e91 173f b1c9 62bf
00000230: c90b 8e3f 9bea c03e ce76 3cbf 3701 81bf
00000240: ce76 dfbd 9ed5 053f 8d29 c8be 8335 d2be
00000250: 4611 1d3f 6693 90bf cf54 e7be 9711 d4bd
00000260: 92cf 7cbf 338d 5dbf 614a 81be 208b 47be
00000270: 0dda 37bf b4a1 4ebf 1e11 94bf 3a13 6ebf
00000280: 2bd3 97bf 6256 54bf 5e9e a73e ead7 333f
00000290: 0bd5 07be 2a69 11bf 17c2 6fbf 37c5 48bf
000002a0: cdaf 0b3f 411c debe e5d9 583f f25b 483f
000002b0: af28 fe3e e530 edbd 4686 4dbf 1b50 50bf
000002c0: 3938 2d3f 6d5c 73bf 2f85 a1be 527e 543f
000002d0: e868 d33e 2e68 213f 73d9 b5be a898 723e
000002e0: 368f fe3e 113a 2dbf de48 ffbe 445b b53e
000002f0: a723 283f ce3e 0e3f f85b a1be 3521 033f
00000300: bf09 293f 59ee 7fbf 325e 38bf ce25 7b3f
00000310: fd1e 28bf 64a5 ab3e 3f7b 453e b3d5 343f
00000320: c8c4 58bf 4535 263f df8c c03e ce58 da3e
00000330: c1e5 49bf fb12 9f3e 4a74 a43d 773a 173f
00000340: e4c3 89bf 5b54 4abf 478f b8be 5f85 7dbf
00000350: 83f4 75bf 3a59 373f cf2e 823e bcce 0fbe
00000360: 2690 d63e d103 3f3f 71aa 93be 0094 4ebe
00000370: ceb3 17bf 7ea2 9d3e 84ce 783e a323 efbe
00000380: 0fb8 423f 6fcb 153f b8d8 d53e 60c5 46bf
00000390: a5f7 75bf ae22 5d3e cf3f 4bbf 30da 02bf
000003a0: 1d89 50bf 448f 6cbf 3b31 e4be fbd2 35bf
000003b0: c1e5 0a3f 1175 fdbe 4e3e 90be 024d 50bf
000003c0: 9fb0 65bf f6c2 1c3f a999 603f 8188 f83e
000003d0: e998 7dbf 49d3 d43c 003d 38bf 9bed bd3e
000003e0: c592 013f a71f 843e 520f 123f 916c 29bf
000003f0: 9721 87bf b780 3fbf 4a61 4fbe 7bcc 7f3d
-0.6441867 0.7044274 0.032100324 -0.49877703 -0.4928494 0.3964195 -0.8948828 0.5183072
-0.24787544 0.37543342 0.40078264 -0.48748484 0.31324667 -0.95291233 -0.08744374 0.023243591
0.28163603 -0.40552706 -0.45798433 0.49930385 0.71646667 -0.83629346 0.30858392 0.3410316
0.5015942 -0.1757681 0.45725784 -0.114642546 0.12686183 0.67350596 0.37185043 0.40748283
-0.60508424 0.69772035 -0.92944986 0.085665494 0.31717402 -0.944952 -0.03097276 0.7159377
0.92060894 0.37468246 -0.47139534 0.77282524 -0.6552622 -0.48360097 0.3639442 0.6534548
-0.71053016 0.31576294 -0.12505478 -0.655238 0.36519626 -0.8015814 0.69639814 0.5524158
-1.0294316 0.22013721 0.15744561 -0.6664604 -0.24189273 -0.3519159 0.70865345 -0.6336777
-0.59646416 -0.7796197 0.55371195 -0.5805463 0.6433214 -1.2252663 -0.55450976 -0.6234901
0.33024722 -0.6041156 -1.2314284 0.37936747 -0.9462777 0.3954765 0.47923285 0.190812
0.6458655 0.49509048 1.0714909 0.35900202 -0.5305827 0.75433326 -0.4340555 -0.057131305
-0.61943895 -0.012161091 0.01951722 0.45502704 0.36497712 -0.7462875 0.5244097 0.57608294
0.6749444 -0.9088473 0.42277244 -0.033072952 0.29169232 1.114673 0.7567241 0.2005839
-1.0476204 0.42554972 0.0834471 -0.8730958 -0.6207507 0.6847586 0.4369547 -0.08314732
0.19841997 0.13153361 -0.3370572 -0.6095575 0.30795237 0.003623132 -0.25621808 -1.0629696
-0.003636346 0.0346527 -0.991347 0.51400244 0.021071864 0.5017296 -0.32306653 0.3452401
0.15445836 0.6443227 -0.72075695 0.03004068 0.5333492 0.5192674 0.8598403 -0.91472375
0.63548005 -0.4133755 0.59205997 -0.88589007 1.1097347 0.3767899 -0.7361878 -1.0078496
-0.10911332 0.5227908 -0.390942 -0.4105645 0.6135448 -1.1294982 -0.4518189 -0.103549175
-0.9875423 -0.8654358 -0.2525206 -0.19486666 -0.71817094 -0.8071549 -1.1567724 -0.9299809
-1.1861318 -0.8294431 0.32738012 0.70251334 -0.13264863 -0.5680109 -0.9365553 -0.78425926
0.54565126 -0.4338093 0.8470748 0.782653 0.49640414 -0.115815915 -0.8028301 -0.8137223
0.67663914 -0.95062906 -0.31546924 0.8300525 0.41290975 0.6304959 -0.35517463 0.23691046
0.49718636 -0.6766673 -0.4986028 0.35421193 0.656794 0.5556458 -0.3151548 0.51222545
0.66030496 -0.99973065 -0.7201873 0.9810456 -0.65672284 0.3352462 0.19285296 0.7063858
-0.84675264 0.6492503 0.37607476 0.42645878 -0.788662 0.31069168 0.08029993 0.59073585
-1.0762906 -0.79034966 -0.36046812 -0.99031633 -0.9607622 0.71620524 0.25426337 -0.14043707
0.41906852 0.746152 -0.28840974 -0.20173645 -0.59258735 0.30788034 0.2429753 -0.46706876
0.760621 0.5851354 0.41766906 -0.7764492 -0.96081 0.2159526 -0.7939424 -0.5111418
-0.8145922 -0.92406106 -0.4456881 -0.71025056 0.54256827 -0.49503377 -0.28172535 -0.81367505
-0.8972263 0.61234987 0.87734467 0.48541644 -0.9906145 0.025979655 -0.7196808 0.3709534
0.5061458 0.258054 0.57054627 -0.66181284 -1.0557126 -0.7480578 -0.20251957 0.062450867
