my_gtn/experiment_logs/model_exp_177.pt (torch, 176281 bytes, 4 tensors)

conv1.bias f4 [128]
000000 fc 80 a0 3d 0f 2c 73 bc ee fe 5d 3d 1e ce 81 3d
       0.07837102 -0.014842047 0.054198198 0.06338142
000010 8b 70 8d 3d 17 46 cf 3d ca cc 7a 3d 8f ab 87 3d
       0.069062315 0.101207905 0.06123046 0.06624519
000020 74 f4 8e 3d 31 c6 cd 3d ea 59 c1 3d f7 c9 cf 3d
       0.069802195 0.10047568 0.09440978 0.101459436
000030 76 74 54 3d 42 96 d4 3d f9 ff b4 3d 7a fc a1 3c
       0.05186888 0.10380222 0.088378854 0.01977371
000040 2a e5 ee 3c d4 76 2b 3d b3 9a 8e 3d 10 a0 db 3d
       0.029162008 0.04186137 0.069631 0.10723889
000050 9b a2 38 3d 27 f3 42 bd 53 42 7c 3d 4f 24 13 bd
       0.045076948 -0.04759517 0.06158669 -0.0359233
000060 3e a1 87 3c 1b 9c 83 3d cd 2d 1f 3d 20 0d 4c 3c
       0.016556378 0.06426259 0.03886204 0.012454301
000070 7a f2 bf 3d 08 a0 9a 3c 02 82 cf 3d ee c5 87 3d
       0.093724206 0.018875137 0.10132219 0.06629549
000080 bc b9 42 3d e3 e7 88 3d 98 02 c7 3d ab 3d c1 3d
       0.04754041 0.06684854 0.097172916 0.0943559
000090 e5 ef c8 3d c8 0e 8d 3d 48 18 6f 3c 57 72 c1 3d
       0.09811381 0.06887585 0.014593191 0.09445637
0000a0 6b d7 3d bd 03 12 1c 3d 08 00 c9 3d 12 35 97 3d
       -0.046348017 0.038103115 0.09814459 0.07383169
0000b0 0f 23 70 3c 07 18 43 3d 5a ea bd 3c 6c a7 ca 3d
       0.014656796 0.047630336 0.023183037 0.098952144
0000c0 72 99 46 3d 35 9b cb 3c 32 7a 4d 3d dc d4 44 3d
       0.04848618 0.024854282 0.050165363 0.04805456
0000d0 0d a1 56 3d bb b3 9e bc c3 0d e4 3d fc 25 86 3d
       0.052399684 -0.019372812 0.11135437 0.06550214
0000e0 ec d6 c4 3d 02 28 93 3d 24 5a 7a 3d 47 49 81 3d
       0.096113056 0.07185365 0.06112112 0.06312805
0000f0 9c a1 72 3d 70 aa 49 3d a3 5f 51 3d 89 44 01 3c
       0.059236154 0.049234807 0.051116597 0.007889875
000100 fe 69 23 3d e5 80 64 3d 38 1c de 3d 19 a8 8d 3d
       0.039896004 0.055786986 0.10845226 0.06916828
000110 c0 0b 94 3d ae 6a c6 3d 58 ad 8e 3d ce 1f b1 39
       0.07228804 0.09688316 0.069666564 0.00033783767
000120 78 55 c8 3d 88 6e dd 3d 6f 98 b4 bb 8e b5 70 3d
       0.09781927 0.10812098 -0.0055113356 0.058766894
000130 2f 25 9f 3d 11 54 90 3d c0 48 7c 3d e6 a9 cc 3d
       0.07770764 0.070472844 0.061592817 0.09993343
000140 03 13 5f 3d ad 76 d1 3d 4b d4 99 3d 94 55 cd 3d
       0.05446149 0.10227714 0.07511195 0.10026088
000150 ce 92 96 3d d3 58 c4 3d 3b 2c d3 3d a9 40 9d 3d
       0.073522195 0.095872544 0.10311171 0.076783486
000160 cf 49 ce 3d e9 fa 31 3c b9 ff c3 3d ad e5 cd 3d
       0.100726716 0.010863044 0.095702596 0.10053573
000170 41 ba 02 3c 25 cc a7 3d df 93 d6 3d 77 e7 c4 3d
       0.007978977 0.08193234 0.10477423 0.09614461
000180 13 f4 c4 3d 20 b5 c8 3d 71 45 a5 3b 2b be c8 3b
       0.09616866 0.09800172 0.0050436785 0.0061261854
000190 5b b0 d5 3d 79 25 22 3d 51 cd d8 3d 1f 29 d4 3c
       0.10434028 0.039586518 0.10586036 0.025898514
0001a0 9f 71 9f 3d 4b f7 61 3d 08 0b 72 3d 53 eb e0 3d
       0.077853434 0.055167478 0.05909255 0.109823845
0001b0 34 e7 83 3d bf 45 e3 3d 94 0b ca 3d 24 f4 c6 3d
       0.06440583 0.110972874 0.098654896 0.09714535
0001c0 c5 d4 8d 3d 09 12 c6 3d dc af c4 3d 3d 0f 8d 3d
       0.06925348 0.09671409 0.09603855 0.06887672
0001d0 ef a9 cf 3d 54 ca c6 3d a4 a5 2d 3d f2 61 91 3d
       0.10139834 0.0970656 0.042394295 0.0709876
0001e0 04 41 cc 3d 77 07 6e 3d bf 48 7c 3d 63 2d 8c 3d
       0.09973338 0.058112588 0.061592814 0.06844594
0001f0 d0 8e 97 3d d2 f2 c5 3d bf 1f 10 3d 78 a9 94 3d
       0.07400286 0.09665455 0.035186525 0.07258886

conv1.lin.weight f4 [128, 334]
000000 42 b6 85 bd 40 71 79 bc 62 c8 b5 3c ea ca 16 3e
       -0.065289035 -0.015224755 0.022190277 0.14725843
000010 b8 ed 01 3d 80 e8 96 3d af 1b a5 3d 16 9b fc 3d
       0.031720847 0.073685646 0.08061921 0.12334268
000020 58 4b 97 3a ac 58 52 3b 38 9b 64 3c 7c 8d 18 bd
       0.001154284 0.003209631 0.013953023 -0.037244305
000030 c8 8f 6c bd c2 d8 0d 3d 6c c2 5b ba 9f bc 06 3d
       -0.057754308 0.034630544 -0.0008383158 0.032894727
000040 07 17 c4 3c 0e 4f eb 3c 34 bd 78 3d 43 61 1b be
       0.023936762 0.02872422 0.060727313 -0.15173821
000050 17 fe 03 3d f8 7d 29 bd aa 40 c8 bd dc 1e 9d 3d
       0.03222474 -0.0413799 -0.09777959 0.076719016
000060 be 6e 47 bd b5 3d c1 3d 55 15 de 3c 09 0d a1 39
       -0.048689596 0.09435598 0.027109781 0.00030718025
000070 68 5d c4 3c bf 3d 37 3e 08 1b 23 bd b9 2c 81 3b
       0.02397032 0.17894648 -0.0398207 0.003942099
000080 d2 0f fd 3b d3 b2 f6 3d e5 96 f0 3a 9d 34 aa 3b
       0.007722833 0.12045827 0.0018355517 0.0051942603
000090 65 a5 b9 bd b2 ac 1a 3e 2e 93 15 be 87 4c a5 bc
       -0.0906475 0.1510494 -0.14606926 -0.020178093
0000a0 15 a4 51 bd a8 10 d2 bd 97 65 f0 3c 50 83 20 bd
       -0.05118187 -0.10257083 0.029345317 -0.03918773
0000b0 b7 84 b8 bd 31 c2 de 3d 24 2c c9 bd 13 e9 69 3d
       -0.09009688 0.10876883 -0.09822872 0.057107043
0000c0 6c c6 98 3d 8b 78 2f 3e 98 ae ea bb f9 b1 9f bd
       0.07459721 0.17135827 -0.0071619265 -0.077976175
0000d0 ea fb 9a bd b9 8d cb 3d 7d 9e cf 3c b3 b6 a4 3c
       -0.0756758 0.09939141 0.025344128 0.020106649
0000e0 dc f9 0c bd d7 2d 27 bd bc 36 a3 3c 77 c0 02 3e
       -0.034417972 -0.0408152 0.01992356 0.12768732
0000f0 08 d9 84 3d f9 75 19 3d 6e 4a 03 3b a7 95 c9 bd
       0.06486708 0.037466023 0.0020033377 -0.09842997
000100 cc 0a fa bd ff c7 0c 3b 30 fa 0c 3b 70 4e 50 bd
       -0.122090906 0.0021481512 0.0021511428 -0.050856054
000110 a2 f4 05 3e 77 ef 39 bc 5b cb 52 3d b1 54 8a 3d
       0.13081601 -0.011348597 0.051463466 0.06754435
000120 08 cf 83 3d 33 f1 bb 3d a5 c3 8b bd 6a 14 8b 3d
       0.064359725 0.091768645 -0.068244256 0.06791003
000130 ee 12 3d 3c 02 07 cf bd 4a c7 e1 bd 91 70 fd bd
       0.011540158 -0.101087585 -0.110243395 -0.12374986
000140 c7 dd 69 3d e6 27 e2 3c 5f 10 f6 bd 41 3f 50 3e
       0.05709627 0.027606916 -0.12014841 0.2033663
000150 14 42 03 3d 31 03 c7 3d 81 e9 e2 3c 4d cc 13 3d
       0.03204544 0.097174056 0.027699234 0.03608351
000160 89 c1 90 bd af 7c f3 bd 38 52 7b 3d d6 7d d5 3d
       -0.07068164 -0.11889016 0.061357707 0.10424392
000170 e5 ce 89 bd b0 3b 0f bd da 2d 2a bd c6 86 84 bd
       -0.06728915 -0.03496903 -0.041547634 -0.064710185
000180 51 2d 07 be 6d 03 58 3d 08 d3 8c 3d 67 41 91 3d
       -0.1320088 0.052737642 0.068761885 0.07092553
000190 64 76 18 3c 79 a4 81 bd 5f 1f df bd 09 c1 9c bd
       0.00930557 -0.06330199 -0.108946554 -0.07654006
0001a0 3f 5b 3f 3e ec aa db bd 21 15 3f be 23 43 8a 3c
       0.18687151 -0.1072596 -0.18660404 0.016877716
0001b0 4b de c6 3d 55 03 5b bd cb ec ca bc e2 49 9e bd
       0.09710368 -0.053469975 -0.024771115 -0.07728936
0001c0 5e 04 90 3c 10 ae 50 bd 2d 8d 4a 3e c5 85 3a 3d
       0.017580207 -0.05094725 0.19780417 0.04553773
0001d0 3b f0 4b 3c 0c 1e c7 3d 5e 2a ea 3c 37 17 04 3e
       0.012447412 0.09722528 0.028584655 0.12899481
0001e0 bb c2 69 bd 14 15 dd bd 05 ba e5 bd 68 4f 9a 3c
       -0.057070475 -0.10795036 -0.11217121 0.018836692
0001f0 13 28 59 bc 62 38 2b bc 79 9c 26 3d 20 fa 5d 3e
       -0.013254183 -0.010450454 0.040676568 0.21677446
000200 3f 6f 82 3c 7b b1 19 bd ee d7 4e ba 73 b7 3b bd
       0.015922187 -0.037522774 -0.00078904524 -0.045829248
000210 4e 46 12 3d 48 87 9c 3d 37 27 1b 3e 13 46 6c bd
       0.03571158 0.0764299 0.15151678 -0.057684015
000220 c4 80 23 bd e7 34 19 bd e5 86 51 3e 68 b6 27 3d
       -0.039917722 -0.037403967 0.20461614 0.04094544
000230 7a 01 f1 3b bc 5f 92 bd 43 29 0e 3c e1 8b cd 3d
       0.0073549123 -0.07147166 0.00867683 0.100364454
000240 0f 91 c9 bc 3a 1a 7f bd 80 ce b0 bd 08 11 a8 3d
       -0.024605302 -0.06228087 -0.08633137 0.082063735
000250 c9 f0 98 3d 6b 24 0e 3e 5b 51 0a bb 74 69 27 3d
       0.07467801 0.1388108 -0.002110562 0.040872052
000260 af 2d 0d 3e a2 7e 1d 3e 08 f0 3c 3e 2f d1 e3 3d
       0.13786958 0.15380338 0.1845094 0.11123883
000270 35 09 80 3d e0 89 0f 3e 96 b6 eb bb 46 e8 e3 3d
       0.06251756 0.14017439 -0.007193397 0.11128287
000280 f3 2b e3 3c b9 17 40 3d ed e3 f8 bc 26 64 ae 3c
       0.027730918 0.046897624 -0.030382121 0.021287989
000290 1f 98 8b 3d c3 16 4c bc 53 9a c0 3a c0 b7 a7 3d
       0.06816124 -0.012456599 0.001469443 0.081893444
0002a0 14 bb 9e bd a1 7b 89 bd 3e 9a 8c bc ba 0a df 3d
       -0.07750526 -0.067130335 -0.017163392 0.10890718
0002b0 63 ff ac 3c ce 7d cd 3c 1b d6 05 3c a2 2d d3 bc
       0.021117872 0.025084402 0.0081687225 -0.025778595
0002c0 4b 52 1b 3e 4b c0 59 3c c8 3c 1f bd 6c cc 61 3c
       0.15168111 0.013290475 -0.038876325 0.013781648
0002d0 26 fb 3f 3d 09 e7 b1 3d 13 64 0b bb 1b 24 90 bd
       0.046870373 0.086866446 -0.0021269366 -0.070381366
0002e0 ee 80 6c 3d 29 c6 22 be 20 cf c6 3c 98 83 40 bd
       0.057740144 -0.15895905 0.024268687 -0.047000498
0002f0 0b 0e 9b 3d 75 ad 94 bd 91 cb 2a 3e 34 33 26 3d
       0.07571038 -0.07259647 0.16679217 0.040576175
000300 4e e4 2f 3a c2 dd 0e 3d da 1f e5 bd 63 49 37 bd
       0.000670974 0.034879453 -0.11187716 -0.04474772
000310 82 61 a6 3b 82 73 24 bd 16 15 a8 3b bc 29 1b 3d
       0.005077542 -0.04014922 0.0051294668 0.037881598
000320 0c 2b 1f 3c 0c af 5a 3d b9 9e de 3c 84 e5 e1 bc
       0.009714853 0.053389594 0.027175294 -0.027575262
000330 13 b2 e4 bd 20 58 44 3c e4 7f 09 bc 14 83 a8 3d
       -0.111667775 0.011983901 -0.008392308 0.08228126
000340 77 e3 1e 3d c8 e2 79 bd 1d ff 54 bd a7 e0 c4 3d
       0.038791146 -0.06100729 -0.052001107 0.096131615
000350 58 83 ca 3c 71 a6 1c 3d bc 0d a8 3d 2f cf 60 bd
       0.024720833 0.03824467 0.082057446 -0.054885086
000360 da b1 75 bb a4 9a 17 3e cf a3 35 3e 7b e3 40 3e
       -0.003749004 0.14805084 0.1773827 0.18836777
000370 65 0b 09 be 0e 0e 2b 3d 1f ab b2 bd 78 bb e9 3c
       -0.13383253 0.04176145 -0.08724045 0.028531775
000380 42 1d 92 bc 5d b3 cb b9 53 cb a0 bd 5e 9a 5f bd
       -0.017836217 -0.00038852813 -0.07851281 -0.054590575
000390 65 55 d4 3d 0e ef 32 3d 72 15 58 3d 7c fc 45 3d
       0.1036785 0.04368501 0.052754827 0.04833649
0003a0 4f 5f 33 3e 21 e4 fb 3d 35 e3 f0 ba 70 06 c0 3c
       0.17516826 0.122993715 -0.001837826 0.02344057
0003b0 12 d3 d3 3c 71 30 07 3e 55 c9 54 bc 64 90 d4 3d
       0.025857482 0.13202073 -0.012987454 0.10379103
0003c0 e4 f5 96 bd fc 1e dc 3d df a8 e3 bc 80 7f 45 3e
       -0.07371119 0.10748097 -0.027790485 0.19286919
0003d0 c8 c8 d7 3d 6c 2a ce bb f9 55 db bc 22 a2 22 3c
       0.10536343 -0.006291678 -0.026774393 0.009926351
0003e0 0d 35 88 bd 11 94 02 3d 3d dd 4f 3d 0b fb 29 bd
       -0.06650744 0.03187949 0.0507481 -0.04149918
0003f0 c9 53 84 bd e4 cc c7 bc a1 c1 11 3e de 9f 3b 3e
       -0.06461293 -0.024389692 0.1423402 0.18322703

conv2.bias f4 [4]
000000 00 43 56 bd 2b fa a3 bd 75 14 7c 3d 0d c7 53 3d
       -0.05230999 -0.080067 0.061542947 0.0517035

conv2.lin.weight f4 [4, 128]
000000 2c ff 3c be 3f cd b6 3c e5 af 7e 3e 8f 11 4f 3e
       -0.18456715 0.022314666 0.24871786 0.20221542
000010 4b f3 4b be 4e 65 25 3e 60 95 d2 3c ed cf 61 be
       -0.19917028 0.16151926 0.025705993 -0.22051974
000020 e5 da 64 bd 3d f1 31 be 4b ab 9b be 2a 74 a3 3d
       -0.055872817 -0.17377181 -0.30404124 0.07981141
000030 3a 4d 7e be 3e 6d 92 3e 0d d2 90 be 4b 5b 07 3d
       -0.24834147 0.2859897 -0.28285256 0.033046048
000040 a3 f5 3c 3e ad e9 6b 3e d9 8b 93 be d9 ad dd bd
       0.18453078 0.23038359 -0.28817633 -0.108241744
000050 ac f6 37 be 0c b0 8e 3d af 8d 8d 3d 27 0a a2 bd
       -0.17965192 0.06967172 0.069117896 -0.07912093
000060 fe b5 88 bd 8d 3b 0a 3e a2 1d 1d be 9d cc a8 3c
       -0.06675337 0.1349928 -0.15343335 0.02060538
000070 a0 79 16 3e 54 d8 87 be 6a 52 ad b9 c6 dc 9e 3e
       0.14694834 -0.26532233 -0.00033058535 0.31027812
000080 38 6a 8f 3e 00 0b 79 be 72 2b 42 3e 96 9c e4 3c
       0.28010726 -0.24320602 0.18961886 0.027906697
000090 95 3e 13 3e 76 87 1e be b7 e2 a6 bb 1d 11 8a bd
       0.14379342 -0.15481362 -0.0050929445 -0.06741545
0000a0 bb 1a 03 3e b6 77 0f be ee 22 56 bb 69 07 05 3e
       0.12803166 -0.1401051 -0.0032674628 0.12991108
0000b0 c9 e9 53 3e f0 00 d7 3d 59 84 1a be 7c 90 60 be
       0.2069465 0.10498226 -0.15089549 -0.21930116
0000c0 05 7d be bd 8f 4c 2a 3b 1d 9b 2f be ab 75 41 be
       -0.09301189 0.0025985574 -0.17149015 -0.18892543
0000d0 ca ec 26 3e 90 2e 51 3e 0b 66 22 be 55 99 7b be
       0.16301265 0.20427918 -0.15859239 -0.2457021
0000e0 f4 09 17 3e eb f3 3d be cc b7 82 3e a4 56 92 3e
       0.1474989 -0.18550079 0.2553085 0.28581727
0000f0 bf a6 90 3e e4 92 06 3e 5e 02 34 be 8f 16 ea 3d
       0.28252217 0.13141972 -0.17579028 0.11430084
000100 a5 35 3a 3e 32 1b a3 3c 5d de cd 3d e7 b7 88 3d
       0.18184526 0.019910429 0.10052178 0.066757016
000110 93 ac 09 3e 33 c5 3e 3e ce db 42 be 95 dc 9b bd
       0.13444738 0.18629913 -0.19029161 -0.07610432
000120 0f c4 41 bd 1e f0 a0 3e b6 21 19 be 5c c2 44 be
       -0.047306117 0.31433195 -0.14954266 -0.19214767
000130 94 e4 43 bd 60 01 17 be 2a d0 9d 3e f8 1c 90 3e
       -0.04782541 -0.14746618 0.3082288 0.281471
000140 1e 3e 64 be 41 88 12 3e 90 a1 82 be 93 99 4a be
       -0.22289321 0.14309789 -0.25513887 -0.19785146
000150 f4 e7 89 3e 59 82 86 be 7f 36 2d 3e dd 0a d7 bd
       0.2693478 -0.26271322 0.1691532 -0.10500119
000160 aa ed 9e 3e ff 8f 4c bc 88 d4 55 be e0 58 25 be
       0.31040698 -0.012485503 -0.20881855 -0.16147184
000170 1d 5e 15 3c 04 a5 04 3e ea 56 7e 3e 18 06 c4 bc
       0.009116677 0.12953573 0.24837843 -0.023928687
000180 59 74 39 3e b6 0f 72 3e d1 ca 0e 3e c8 9c 8b 3e
       0.1811079 0.23638806 0.13944556 0.27268052
000190 23 ed 00 3e 5f 08 89 3e 07 6f 80 be 0b 52 23 be
       0.1259046 0.267642 -0.25084707 -0.15949266
0001a0 11 5b 82 bd b3 40 19 be eb eb 35 be ab 16 89 bd
       -0.06365026 -0.14966087 -0.17765777 -0.06693777
0001b0 29 c0 36 be 53 56 8a 3d c5 2e 03 3d ed a4 a2 bd
       -0.17846741 0.06754746 0.032027025 -0.07941613
0001c0 93 f1 4e 3e 23 67 92 3e 5a 5e 26 be f9 8d 53 3e
       0.20209341 0.28594312 -0.1624693 0.20659627
0001d0 12 53 8a be cc 7f 87 be b7 1a 4b be b8 c8 09 be
       -0.27016503 -0.2646469 -0.1983441 -0.13455474
0001e0 79 1c 3b be a4 8a bc bc 0b 97 22 3e 4e 8e bf bd
       -0.1827258 -0.023015328 0.15877931 -0.09353314
0001f0 53 1e 07 bd ec 96 61 3e bd 2c 51 be 03 30 61 be
       -0.032987904 0.22030228 -0.20427223 -0.21990971
000200 cd bc 5e be 96 6f 3b be 6e 75 8f 3e 5c 18 79 3e
       -0.2175171 -0.18304285 0.2801928 0.24325699
000210 10 17 1f 3e bc 4e 86 be 70 4b 7d be a2 90 37 3e
       0.15536141 -0.26231945 -0.24735808 0.17926267
000220 92 4c 5c 3e 64 fc 72 bd 6e 7d 3e be ce 56 8b be
       0.21513584 -0.05932273 -0.18602535 -0.27214664
000230 55 a7 bf bd 1b 42 45 be b7 31 79 3e 99 d8 2a 3e
       -0.09358088 -0.19263498 0.24335371 0.16684188
000240 5d d5 52 3e ac b7 f3 3b 76 f1 41 3e 96 fa 88 3e
       0.20589204 0.007437667 0.18939766 0.26753682
000250 a2 a7 aa 3d 30 36 1c 3d d0 62 0e be 28 58 11 3e
       0.08332755 0.038137615 -0.13904881 0.14193785
000260 f1 e6 dc 3c e8 28 3e 3e b7 e3 d8 bc 5f 91 41 3e
       0.02696559 0.18570292 -0.02647577 0.18903111
000270 c4 3d 7a be bb 35 59 3d ab 18 ef bd 24 29 7f 3e
       -0.24437624 0.053029757 -0.11674627 0.24918038
000280 4f 0e c5 3d fc b8 91 3e 29 fe 6a be df 86 9a be
       0.0962187 0.28461444 -0.22948517 -0.30181023
000290 c6 14 7f be e8 06 7e be a4 a0 5e be 8f 08 6e be
       -0.24910268 -0.24807322 -0.21740967 -0.23245452
0002a0 55 7d 12 3e 87 d3 e5 bc 0e 9f a0 be f1 3f 95 be
       0.14305623 -0.028054966 -0.3137135 -0.29150346
0002b0 b6 2e 00 3e 19 c4 77 3e b7 cf a2 bc 80 4a e4 3d
       0.12517819 0.24195899 -0.019874437 0.11147022
0002c0 73 aa d5 bd a0 be a0 3e 07 07 09 bd 1c 7f d8 3d
       -0.10432901 0.31395435 -0.033453967 0.10571119
0002d0 73 d0 1f be 99 a1 2d bd 96 61 97 3e 9b 86 97 be
       -0.15606861 -0.04239044 0.2956664 -0.29594883
0002e0 8c 3b 9e be 6b c3 6d be 27 c8 83 3e ff 28 6b 3e
       -0.30904806 -0.23219077 0.25738642 0.22964858
0002f0 1c 25 52 3e 2c ef 1e 3e 30 25 08 be be 81 89 3e
       0.20521969 0.15520924 -0.13295436 0.26856798
000300 7b 5b a3 3e f6 d3 ae 3c 42 89 95 be 4f 58 3f ba
       0.31905732 0.021341305 -0.29206282 -0.0007299231
000310 8b e2 75 3e 8a ed 7e be 55 7d 49 bd 1c 09 11 be
       0.240122 -0.24895301 -0.04919179 -0.14163631
000320 e0 87 98 be 76 61 36 be 20 cf 20 3e 64 46 c7 3d
       -0.29791164 -0.17810616 0.15704012 0.09730223
000330 19 dd d7 bd 4f 28 84 be 76 1c 7c 3c 1a 46 5c bd
       -0.10540218 -0.25812003 0.015387645 -0.05377779
000340 2b 06 18 3e 54 93 d2 3d c9 4c 12 3e 68 56 12 3e
       0.14846103 0.10282007 0.14287104 0.14290774
000350 35 62 3f 3e 03 d4 40 be 51 a4 88 be 71 18 8d 3e
       0.18689807 -0.18830876 -0.26687863 0.2755771
000360 23 23 10 bd 99 87 84 bd d6 5a a5 3e 26 60 8a 3e
       -0.03518976 -0.06471176 0.32295865 0.2702648
000370 45 b5 f6 3d 23 1e 23 be 21 5e a3 bc 4f f0 44 be
       0.12046293 -0.15929465 -0.019942345 -0.19232295
000380 da 4d 8b 3e be 6a a0 be 9e 32 4c be 8f b7 55 3d
       0.27207834 -0.31331438 -0.19941184 0.05217701
000390 96 7c be bd e6 7b 4e 3d 27 de e1 3d 18 41 91 3e
       -0.09301107 0.050411128 0.110287 0.28369975
0003a0 00 35 03 be 1c 9f 93 3d f2 47 b4 bc 44 18 1e 3e
       -0.12813187 0.07208082 -0.022006962 0.15438944
0003b0 75 19 65 3e 98 6b 78 be be f2 d7 bd 71 76 8d be
       0.22372992 -0.24259794 -0.10544346 -0.27629426
0003c0 be 7b 37 3e 10 af 87 be 29 6d 80 3e a3 fa 87 bd
       0.17918298 -0.2650075 0.25083283 -0.06639602
0003d0 1e d0 85 3e e7 cc 9a be b6 5e 86 3e c8 7e 20 be
       0.26135343 -0.30234453 0.26244134 -0.15673363
0003e0 a9 62 c2 bd f6 e1 03 be 0d 71 e5 bd b8 80 b6 bd
       -0.09491474 -0.12879166 -0.11203203 -0.0891127
0003f0 69 a9 2d 3e b0 5e 3c be c1 0e bf bd c7 e8 8a 3d
       0.16959156 -0.18395495 -0.09328986 0.0678268
