my_gtn/experiment_logs/model_exp_193.pt (torch, 176281 bytes, 4 tensors)

conv1.bias f4 [128]
0	0x3d7ef33c	0.062243685
1	0x3bf3d199	0.0074407575
2	0x3d18bfef	0.037292417
3	0x3d67ffc5	0.056640405
4	0x3d5cae4b	0.053877156
5	0x3d81c53b	0.06336447
6	0x3d5767f7	0.052589383
7	0x3d43574f	0.047690686
8	0x3d5e56a5	0.05428185
9	0x3d78947e	0.06068849
10	0x3d74be3a	0.059751727
11	0x3d7b7047	0.061386373
12	0x3d1d759d	0.038442243
13	0x3d6d3ab4	0.05791731
14	0x3d66c613	0.056341242
15	0x3c8554aa	0.016275723
16	0x3d1f6da7	0.038922932
17	0x3d141010	0.03614813
18	0x3d5ff8cd	0.054680634
19	0x3d726d68	0.05918637
20	0x3d1dddd0	0.038541615
21	0xb9c52844	-0.00037604768
22	0x3d4e0684	0.050299183
23	0xbc6ca5d7	-0.014443836
24	0x3ca6333c	0.020288102
25	0x3d41b397	0.04729041
26	0x3d0d6533	0.03452034
27	0x3baa023e	0.0051882556
28	0x3d7e6ee4	0.062117472
29	0x3cae0068	0.021240428
30	0x3d857731	0.065168746
31	0x3d6024c3	0.05472256
32	0x3d37fbfb	0.04491804
33	0x3d3dabb9	0.046306346
34	0x3d86f1c3	0.06589081
35	0x3d821e49	0.06353433
36	0x3d827313	0.06369605
37	0x3d5d4cd2	0.05402834
38	0x3cfc2b34	0.03078232
39	0x3d5d4017	0.0540162
40	0xbbc49147	-0.0059987637
41	0x3d3637b8	0.04448673
42	0x3d792081	0.060822014
43	0x3d6673e3	0.056262862
44	0x3cbde5c7	0.023180855
45	0x3cdc35ea	0.026881177
46	0x3d22c58e	0.039739184
47	0x3d736bd5	0.05942901
48	0x3d28a4b4	0.0411727
49	0x3ca30eeb	0.019904574
50	0x3d1e1c64	0.038601294
51	0x3d219e90	0.039457858
52	0x3d5a0c3c	0.053234324
53	0xbad8adf5	-0.0016531335
54	0x3d6952a6	0.056963585
55	0x3d51b0bd	0.05119394
56	0x3d71eeba	0.059065558
57	0x3d586751	0.052832905
58	0x3d29e0fc	0.041474327
59	0x3d68596b	0.0567259
60	0x3d76f22d	0.06028955
61	0x3d77b310	0.0604735
62	0x3d2603ac	0.040530846
63	0x3c4d665c	0.012536611
64	0x3ca6fd22	0.020384375
65	0x3d14c2f2	0.036318727
66	0x3d872777	0.06599324
67	0x3d49f11f	0.049302217
68	0x3d492d83	0.04911567
69	0x3d6eccc0	0.058300734
70	0x3d58b65c	0.052908286
71	0x3c77efeb	0.0151328845
72	0x3d66a63a	0.05631087
73	0x3d8122ac	0.06305441
74	0x3c5ac272	0.013352023
75	0x3d34d809	0.04415134
76	0x3d8af1f7	0.067844324
77	0x3d7447a0	0.05963862
78	0x3d367ac0	0.044550657
79	0x3d7feac0	0.062479734
80	0x3d403204	0.0469227
81	0x3d857068	0.065155804
82	0x3d62949c	0.055317506
83	0x3d694d72	0.056958623
84	0x3d5ad396	0.05342444
85	0x3d838f71	0.06423844
86	0x3d712dfa	0.058881737
87	0x3d607963	0.054803263
88	0x3d83138b	0.06400212
89	0x3cad7d4d	0.021177912
90	0x3d14b6e6	0.036307238
91	0x3d715e48	0.058927804
92	0x3c30cec0	0.010791481
93	0x3d7dbb28	0.061946064
94	0x3d899c09	0.067192145
95	0x3d767ad8	0.060175747
96	0x3d6fc013	0.058532786
97	0x3d765dd0	0.06014806
98	0x3cacfa2c	0.021115385
99	0x3b56a829	0.003275404
100	0x3d893401	0.06699372
101	0x3d518561	0.05115259
102	0x3d79b665	0.06096496
103	0x3cbbd941	0.022930743
104	0x3d7cb82f	0.06169909
105	0x3d20766c	0.039175436
106	0x3d2493f7	0.040180173
107	0x3d734d6f	0.05940002
108	0x3d13b2de	0.036059253
109	0x3d902894	0.0703899
110	0x3d8269fd	0.06367872
111	0x3d8482f9	0.064702936
112	0x3d677f4e	0.05651789
113	0x3d6540ef	0.05597013
114	0x3d8038e4	0.06260851
115	0x3d5a6426	0.053318165
116	0x3d807f1e	0.06274246
117	0x3d758de6	0.059949778
118	0x3d1ae72f	0.03781813
119	0x3d64e3b0	0.055881202
120	0x3d8290c6	0.063752696
121	0x3d12553b	0.035725813
122	0x3d50d3a0	0.05098307
123	0x3d5c1a1f	0.05373585
124	0x3d4c8a0b	0.049936336
125	0x3d737655	0.059439022
126	0x3d297ce3	0.041378867
127	0x3d412cc0	0.047161818

conv1.lin.weight f4 [128, 334]
0	0xbd0ce14a	-0.03439454
1	0xbc25ac76	-0.010111919
2	0x3d88f812	0.06687941
3	0x3dd02714	0.101637036
4	0x3ce347d1	0.027744206
5	0x3d9cd6e5	0.076581754
6	0x3d0f1039	0.03492758
7	0x3d979e62	0.07403256
8	0xbc317221	-0.010830433
9	0xbd172f78	-0.036910504
10	0xbad47deb	-0.0016211843
11	0xbd139398	-0.03602943
12	0xbd06ca37	-0.03290769
13	0x3d9a3d0a	0.075311735
14	0xb9c25de4	-0.00037072517
15	0x3c87c492	0.016573224
16	0x3a3784ec	0.0007000703
17	0x3d1a4978	0.03766772
18	0x3ca05958	0.019573852
19	0xbe02db9c	-0.12779087
20	0xbb02c008	-0.0019950885
21	0xbd90322f	-0.07040822
22	0xbdad6b40	-0.08467722
23	0x3cfce228	0.030869558
24	0xbda4d384	-0.08048156
25	0x3dacb816	0.08433549
26	0x3d65f970	0.056146085
27	0xbd2e5f9f	-0.04257166
28	0x3c7d25f0	0.01545094
29	0x3e0773a8	0.13227713
30	0xbdb363e5	-0.08759288
31	0xbd08de63	-0.03341521
32	0x3daf9438	0.08573192
33	0x3db109b5	0.086444296
34	0x3d3aac10	0.045574248
35	0x3dd83f1f	0.105589144
36	0xbd4ba907	-0.049721744
37	0x3de1098c	0.10988149
38	0xbde001e2	-0.10937859
39	0x3b5abfe6	0.003337854
40	0x3a200f2b	0.0006105776
41	0xbd9a4125	-0.075319566
42	0x3d3fc15f	0.046815272
43	0xbcc0d773	-0.023540234
44	0xbdbceb84	-0.092246085
45	0x3d974fe5	0.073882855
46	0xbd8783e4	-0.06616953
47	0x3d6447c9	0.055732522
48	0x3ddff781	0.109358795
49	0x3e0eb455	0.13935979
50	0xbd75e5b0	-0.0600335
51	0xbde915a9	-0.113810845
52	0xbd3cfcee	-0.04613965
53	0x3dd4a954	0.10383859
54	0x3c77ae93	0.015117305
55	0x3cabed32	0.020987127
56	0xbc8df91f	-0.017330704
57	0xbc824099	-0.015899943
58	0x3dd93aaa	0.106068924
59	0x3e1e9c00	0.15489197
60	0x3d406401	0.04697037
61	0x3d948ca5	0.07253388
62	0x3d1cd372	0.038287587
63	0xbd881a19	-0.06645603
64	0xbe2496c3	-0.16073136
65	0x3d10cbf5	0.03535076
66	0x3c9d1c24	0.019178458
67	0xbd3b9caa	-0.045803703
68	0x3dba80d7	0.091066055
69	0xbcc4dd04	-0.02403117
70	0x3bc45bac	0.0059923735
71	0x3d202f8b	0.03910784
72	0x3d1e2b7b	0.038615685
73	0x3d46e8d2	0.04856188
74	0xbcef9e45	-0.029250273
75	0x3d01b5c6	0.031667493
76	0x3d05d0d4	0.032669857
77	0xbdfb0145	-0.122561015
78	0xbd9befdd	-0.0761411
79	0xbdee6326	-0.11640005
80	0x3d97791b	0.07396146
81	0x3d045428	0.03230682
82	0xbdce9607	-0.10087209
83	0x3e1bb709	0.15206541
84	0x3ca66eb1	0.020316454
85	0x3de90aa9	0.113789864
86	0x3dc2c7c7	0.09510761
87	0x3d211419	0.039325807
88	0xbd3449ea	-0.044015802
89	0xbdf1981d	-0.117965914
90	0x3cd66561	0.026171388
91	0x3da56deb	0.08077606
92	0xbd86e3aa	-0.06586392
93	0xbd15984e	-0.036522202
94	0xbd4b718a	-0.049668826
95	0xbd17a07f	-0.037018295
96	0xbdd64af6	-0.104635164
97	0x3bcd845e	0.006271883
98	0x3ca72bb7	0.020406587
99	0x3d73e330	0.059542835
100	0x3d8699bd	0.06572292
101	0xbd961b07	-0.07329374
102	0xbdb8356c	-0.089945644
103	0xbcf8c68d	-0.030368114
104	0x3e176941	0.14786245
105	0xbd6693bb	-0.05629323
106	0xbde6a000	-0.11260986
107	0x3d0646f3	0.032782506
108	0x3da3d970	0.08000457
109	0xbc9d093c	-0.019169442
110	0xbc9f0f27	-0.019416405
111	0xbd37b7b5	-0.04485293
112	0x3d3153a4	0.043292657
113	0xbdb7e100	-0.08978462
114	0x3e232c2f	0.15934823
115	0x3d4b7a07	0.04967692
116	0x3c3b89e1	0.011446447
117	0x3ddbd28a	0.107335165
118	0x3cae801a	0.021301318
119	0x3ddbf2bd	0.10739658
120	0xbc75f415	-0.015011807
121	0xbd460b1b	-0.048350435
122	0xbe03ef99	-0.12884368
123	0x3cc7eb5f	0.024404226
124	0xb881666b	-6.170276e-05
125	0xbd48340e	-0.04887777
126	0x3d316136	0.0433056
127	0x3e2c8c17	0.16850315
128	0x3d1f396e	0.03887313
129	0x3c1e32d2	0.009655671
130	0x3d88c0c5	0.06677393
131	0xbd0d4fd8	-0.034499973
132	0x3bddeb15	0.0067724087
133	0x3d34d485	0.044147987
134	0x3dd9e645	0.106396236
135	0xbd817c69	-0.063225575
136	0xbd53e5fe	-0.05173301
137	0xbcb7a764	-0.022418685
138	0x3e2154de	0.1575503
139	0xbb8dbe09	-0.0043256325
140	0x3d115d4d	0.03548937
141	0xbdb1afb7	-0.08676093
142	0xbcb73233	-0.022362804
143	0x3d9ecf96	0.077544376
144	0xbc2ee26e	-0.010674102
145	0xbd1df471	-0.038563196
146	0xbd844197	-0.06457823
147	0x3dfd29d9	0.123614974
148	0x3d4a4778	0.049384564
149	0x3db9eec9	0.09078748
150	0x3bb58975	0.005540068
151	0x3d884640	0.06654024
152	0x3dc70e8c	0.097195715
153	0x3dd57042	0.10421802
154	0x3e0b182c	0.1358344
155	0x3ded0f8b	0.1157523
156	0x3d9bb901	0.07603646
157	0x3dc2c784	0.09510711
158	0xbc9ccb8d	-0.01914003
159	0x3d808597	0.0627548
160	0xbcb3bd51	-0.021940859
161	0x3c34cf01	0.011035682
162	0xbb64809b	-0.0034866694
163	0x3d7fcaff	0.06244945
164	0x3da3764f	0.0798155
165	0x3c4abc7e	0.012374042
166	0xbccd4d07	-0.025061144
167	0x3d06d9f3	0.032922696
168	0xbd5db74f	-0.054129895
169	0xbd33832b	-0.043826263
170	0x3c925e82	0.01786733
171	0x3db5c9f8	0.08876413
172	0xbca14aa1	-0.019688906
173	0xbc1c9c99	-0.00955882
174	0xbc07bdaf	-0.00828497
175	0x3cc0429f	0.023469267
176	0x3defaf20	0.11703324
177	0xbba81042	-0.005128891
178	0xbd13c38c	-0.03607516
179	0x3d2ff8b7	0.042961802
180	0x3d8bae6a	0.06820376
181	0x3d4f8c74	0.050671056
182	0x3d1ee3ef	0.038791593
183	0xbcf5ecf4	-0.030020215
184	0x3d46e019	0.04855356
185	0xbdb41ec2	-0.08794929
186	0x3cab31f5	0.020897845
187	0xbd38f768	-0.04515782
188	0x3d0eee28	0.034895092
189	0xbd47df71	-0.048797075
190	0x3e11c637	0.14235769
191	0x3ce00c2b	0.027349552
192	0xbd3390dc	-0.04383932
193	0x3c861478	0.016367182
194	0xbdb17600	-0.08665085
195	0xbd2239b1	-0.0396058
196	0xbb901539	-0.004397061
197	0xbd492b64	-0.049113646
198	0x3c9b9f4f	0.018996863
199	0xbc3d9a7b	-0.011572476
200	0x3ce05b56	0.027387302
201	0x3d48e68f	0.049048003
202	0x3d277f9a	0.040893175
203	0xbc809b08	-0.015698925
204	0xbd98114e	-0.074251756
205	0x3cf8149c	0.030283265
206	0x3cc3580e	0.023845699
207	0x3d267668	0.040640265
208	0x3de0ac49	0.10970361
209	0xbd4e36aa	-0.0503451
210	0xbc603555	-0.01368459
211	0x3d93a588	0.07209307
212	0x3d0326bb	0.032019358
213	0xbc0d1bcd	-0.008612585
214	0x3d9697ba	0.07353158
215	0xbd61da4c	-0.055139825
216	0xbd2458b1	-0.040123645
217	0x3e03e754	0.12881213
218	0x3e069b24	0.13145119
219	0x3e15273d	0.1456575
220	0xbde4d6d2	-0.11173786
221	0x3d500a2d	0.050790954
222	0xbd59cdf0	-0.053174913
223	0x3ca69cdc	0.020338468
224	0x3d9e7c3e	0.07738541
225	0xbcad54f8	-0.02115868
226	0xbd575d6d	-0.052579332
227	0xbc6374d6	-0.013882836
228	0x3d73a263	0.059481036
229	0x3a8a4fe3	0.0010552373
230	0x3d382df7	0.04496571
231	0x3b956530	0.0045591816
232	0x3e002bc9	0.12516703
233	0x3d98f4b1	0.07468546
234	0xbba677d3	-0.005080202
235	0x3c4aada9	0.012370505
236	0x3d6a5bee	0.057216577
237	0x3db4fdbd	0.08837459
238	0x3cf61160	0.030037582
239	0x3d63149c	0.055439577
240	0xbd825e00	-0.06365585
241	0x3deae2b3	0.11469021
242	0x3d96c948	0.0736261
243	0x3e190b25	0.14945658
244	0x3dd09f69	0.10186655
245	0xbd54562d	-0.051839996
246	0xba37b9a5	-0.0007008559
247	0x3bd53d0a	0.0065075206
248	0xbd8f4cdc	-0.06997082
249	0x3da74760	0.081679106
250	0x3c36b110	0.011150613
251	0xbc8dfedf	-0.017333446
252	0xbce20304	-0.027589329
253	0xbb175de2	-0.002309673
254	0x3dafb152	0.08578743
255	0x3e09117f	0.1338558

conv2.bias f4 [4]
0	0xbd04cbdb	-0.032420974
1	0xbd4d8c29	-0.050182495
2	0x3d2a2216	0.041536413
3	0x3d122b4a	0.035685815

conv2.lin.weight f4 [4, 128]
0	0xbe2d68a7	-0.16934453
1	0x3d63d776	0.0556254
2	0x3e7fcfeb	0.24981658
3	0x3e3b122f	0.18268655
4	0xbe4cf153	-0.20013933
5	0x3df481a2	0.11938788
6	0xbc1072d8	-0.008816443
7	0xbe53592c	-0.20639485
8	0xbd4ab2a9	-0.04948679
9	0xbe0f3663	-0.1398559
10	0xbe898ebc	-0.2686671
11	0x3d377338	0.044787616
12	0xbe7566d1	-0.23965003
13	0x3e79f681	0.2441044
14	0xbe821fe1	-0.25414947
15	0x3da7315a	0.0816371
16	0x3e0dfd3e	0.13866135
17	0x3e69bc3e	0.22825715
18	0xbe8cdc28	-0.27511716
19	0xbdc6e036	-0.097107336
20	0xbe42b34b	-0.19013707
21	0x3db6e28c	0.08929929
22	0x3dea9b26	0.114553735
23	0xbd0fb4d4	-0.03508456
24	0xbd28fab3	-0.04125471
25	0x3dc1df6f	0.09466445
26	0xbe24714a	-0.16058841
27	0x3d8ac48e	0.06775771
28	0x3dd60725	0.104505815
29	0xbe6a267a	-0.2286624
30	0x3cb4405f	0.02200335
31	0x3e8b153a	0.27164632
32	0x3e855562	0.26041704
33	0xbe55d0bc	-0.20880407
34	0x3e1a9e8d	0.15099545
35	0x3d8b31a9	0.06796581
36	0x3dd0d2d5	0.10196463
37	0xbe1c9c65	-0.15294035
38	0xbb9284cf	-0.0044713984
39	0xbcefa482	-0.029253248
40	0x3e30abbc	0.17253011
41	0xbdc3c158	-0.09558362
42	0x3cf0ebbf	0.029409287
43	0x3db2c499	0.08728904
44	0x3e64fe4a	0.22362629
45	0x3e0b803a	0.13623133
46	0xbe3ce895	-0.18448098
47	0xbe401935	-0.18759616
48	0xbd0b1f74	-0.033965543
49	0x3d37b5b0	0.044851005
50	0xbe07d30f	-0.13264106
51	0xbe334675	-0.17507346
52	0x3e26547d	0.16243167
53	0x3e5e2592	0.2169402
54	0xbdf1559e	-0.11783908
55	0xbe7c5199	-0.24640502
56	0x3dd37071	0.10324181
57	0xbe33471f	-0.175076
58	0x3e62760b	0.22115342
59	0x3e73b8e3	0.23800997
60	0x3e6f5387	0.23371707
61	0x3db9ba61	0.09068752
62	0xbe06c236	-0.13160023
63	0x3dfbd307	0.1229611
64	0x3e1dc568	0.15407336
65	0x3d51a925	0.0511867
66	0x3e32f338	0.17475593
67	0x3cba6c05	0.022756586
68	0x3dc46898	0.09590262
69	0x3e124145	0.14282711
70	0xbe1ab526	-0.15108165
71	0xbd9b78da	-0.0759141
72	0xbc09e6b3	-0.008416819
73	0x3e89c813	0.26910457
74	0xbe28cac6	-0.16483602
75	0xbe3b6592	-0.18300465
76	0xbd14ef0c	-0.036360785
77	0xbe1566a7	-0.1458994
78	0x3e8928a8	0.2678883
79	0x3e832547	0.25614378
80	0xbe57f909	-0.21091093
81	0x3dd330c3	0.10312035
82	0xbe77474b	-0.2414829
83	0xbe397775	-0.18111975
84	0x3e66981c	0.22518963
85	0xbe7c3d78	-0.24632823
86	0x3df0df5f	0.11761355
87	0xbddc0d0a	-0.107446745
88	0x3e88a1e2	0.26686007
89	0xbd1b96ec	-0.037985727
90	0xbe484dd8	-0.19560945
91	0xbe04ca43	-0.12967782
92	0xbca04b12	-0.019567046
93	0x3da9b798	0.08286971
94	0x3e51645a	0.20448437
95	0x3a7b7cfa	0.0009593513
96	0x3e10353b	0.14082806
97	0x3e598f09	0.2124597
98	0x3e1350d9	0.1438631
99	0x3e6768c4	0.22598559
100	0x3e3693c2	0.17829803
101	0x3e60ac3b	0.219407
102	0xbe5d0c6c	-0.2158677
103	0xbe2b2e5a	-0.167169
104	0xbd5fb5d8	-0.05461678
105	0xbde1ede5	-0.11031703
106	0xbe1f2926	-0.1554304
107	0xbd80a8e0	-0.0628221
108	0xbe1014fb	-0.14070503
109	0x3cb97d9b	0.022642901
110	0x3d569ee7	0.052397635
111	0xbdad36f9	-0.08457751
112	0x3e1e440c	0.15455645
113	0x3e7ac617	0.24489628
114	0xbe0a420e	-0.1350176
115	0x3e1e3a01	0.15451814
116	0xbe74fbee	-0.23924229
117	0xbe637d38	-0.22215736
118	0xbe53e014	-0.20690948
119	0xbdebddd8	-0.11516923
120	0xbe219315	-0.15778764
121	0xbc8ff496	-0.017572682
122	0x3e4c7f6d	0.19970484
123	0xbdb8b8a0	-0.090195894
124	0xbc2e029d	-0.01062074
125	0x3e34d33b	0.17658703
126	0xbe5bd27d	-0.21467014
127	0xbe50861d	-0.2036366
128	0xbe60e864	-0.2196365
129	0xbe50ced4	-0.20391399
130	0x3e745b41	0.23862936
131	0x3e4e0904	0.20120627
132	0x3de1b5bb	0.110209905
133	0xbe7b6a84	-0.24552351
134	0xbe73e893	-0.23819189
135	0x3e2d1f84	0.16906554
136	0x3e5deed4	0.21673137
137	0xbc1aaf5e	-0.009441225
138	0xbe38703d	-0.18011566
139	0xbe7283ad	-0.23683043
140	0xbde9c74a	-0.114149645
141	0xbe1b1049	-0.15142931
142	0x3e7528fa	0.23941413
143	0x3dfb5e0b	0.12273797
144	0x3e2b953f	0.16756152
145	0x3ca5ce38	0.020239934
146	0x3e1eba19	0.15500678
147	0x3e62f561	0.22163917
148	0x3dec0d00	0.11525917
149	0x3cb494d8	0.02204363
150	0xbe082793	-0.13296346
151	0x3e1ce6e3	0.15322451
152	0x3cb0d192	0.021584306
153	0x3e3b05f3	0.18263988
154	0x3bf0d6b6	0.0073498143
155	0x3e3e1207	0.18561564
156	0xbe57cffb	-0.21075432
157	0x3d6d9b2e	0.05800932
158	0xbdd512e5	-0.104039945
159	0x3e655543	0.22395806
160	0x3e062aa2	0.131022
161	0x3e7b84d9	0.24562396
162	0xbe482b90	-0.19547868
163	0xbe837f8b	-0.25683245
164	0xbe57c6ee	-0.2107198
165	0xbe7bd551	-0.24593093
166	0xbe669933	-0.22519378
167	0xbe5ffb51	-0.21873213
168	0x3e449a10	0.19199395
169	0xbd9110a8	-0.07083255
170	0xbe8bb9c2	-0.2729016
171	0xbe814987	-0.2525141
172	0x3e169a99	0.14707412
173	0x3e6546c4	0.22390276
174	0x3cc48239	0.023987876
175	0x3e15549b	0.14583056
176	0xbdbba246	-0.091618106
177	0x3e8a289e	0.26984113
178	0x3b934498	0.004494261
179	0x3dd39580	0.10331249
180	0xbe210165	-0.15723188
181	0xbd1dc230	-0.03851527
182	0x3e8d52ea	0.2760232
183	0xbe805261	-0.2506285
184	0xbe8b2e18	-0.27183604
185	0xbe5ffa30	-0.21872783
186	0x3e588695	0.21145089
187	0x3e556619	0.20839728
188	0x3e6bb51d	0.23018308
189	0x3deda9cb	0.11604651
190	0xbe1b2af5	-0.15153106
191	0x3e5fd8e9	0.21860088
192	0x3e892405	0.26785293
193	0x3d2abf08	0.041686088
194	0xbe8d22d6	-0.2756564
195	0xbb6b540b	-0.0035908248
196	0x3e6e0c11	0.2324679
197	0xbe7a18e0	-0.24423552
198	0xbd7a9eb9	-0.061186526
199	0xbe36fc38	-0.17869651
200	0xbe80276c	-0.25030077
201	0xbe23aaaf	-0.1598308
202	0x3e262e52	0.16228607
203	0x3dce6767	0.10078316
204	0xbd8fd117	-0.070223026
205	0xbe5f53e3	-0.21809344
206	0x3d7431fa	0.059617974
207	0xbccfcded	-0.025366748
208	0x3e3ad2c9	0.1824447
209	0x3dc7d63a	0.09757657
210	0x3e37e79d	0.17959447
211	0x3dd9795f	0.10618853
212	0x3e45deff	0.19323348
213	0xbe255cb7	-0.16148649
214	0xbe7d3041	-0.24725439
215	0x3e70249d	0.23451467
216	0xbc817972	-0.01580498
217	0xbdb8ddbd	-0.09026668
218	0x3e8e34aa	0.27774554
219	0x3e676ea9	0.22600807
220	0x3de1d976	0.110278055
221	0xbdf25f07	-0.11834531
222	0x3ca89250	0.02057758
223	0xbe1fe438	-0.15614402
224	0x3e84955f	0.2589521
225	0xbe8c28d5	-0.27374902
226	0xbe2008fc	-0.15628427
227	0x3da0edf2	0.078578845
228	0xbd61f054	-0.055160835
229	0x3d975da6	0.07390909
230	0x3dc612a1	0.09671522
231	0x3e8bfd4d	0.2734169
232	0xbdb2c6b6	-0.08729307
233	0x3dfec591	0.124400266
234	0x3c3eb8d2	0.011640744
235	0x3e1150a4	0.14190918
236	0x3e32bbae	0.17454407
237	0xbe4ed49d	-0.20198293
238	0xbdba1568	-0.09086114
239	0xbe75a68b	-0.23989312
240	0x3e1a3127	0.15057813
241	0xbe6512f1	-0.22370507
242	0x3e5c307e	0.21502873
243	0xbca5c2e9	-0.020234542
244	0x3e62ebc9	0.22160257
245	0xbe886e59	-0.2664669
246	0x3e805a6f	0.25068995
247	0xbe17f5a6	-0.14839801
248	0xbddce3d3	-0.107856415
249	0xbe11926a	-0.14216009
250	0xbdd333fd	-0.1031265
251	0xbd3be47d	-0.0458722
252	0x3e31def4	0.17370206
253	0xbe145468	-0.14485323
254	0xbdb59bc1	-0.08867598
255	0x3d2bbc1c	0.041927442
