my_gtn/experiment_logs/model_exp_066.pt (torch, 46105 bytes, 4 tensors)

conv1.bias f4 [32]
000000 c5 39 fd 3d ab 5f 18 3d 61 da 8c bb 5b f5 18 3e
       0.12364534 0.03720061 -0.0042984937 0.14937346
000010 cf de 87 3c b3 73 96 3d fc 63 6e 3d d0 17 89 3d
       0.016585736 0.073462866 0.05820082 0.06693995
000020 bb cf e2 3d 83 4b e7 3d e9 d9 09 3e da 63 dd 3d
       0.11074778 0.112936996 0.13462032 0.10810061
000030 c4 6b c7 3d 10 a8 1f 3e 56 32 d6 3d 78 de 8f 3c
       0.097373515 0.15591455 0.104588196 0.017562136
000040 37 54 db 3d 69 1c af 3d f8 bd 98 3d 6b c7 dc 3d
       0.10709422 0.08550341 0.07458109 0.107802235
000050 64 6e 21 3e 21 7b 1b 3e 4d 3b d7 3c 66 70 19 3e
       0.15764767 0.15183689 0.026273394 0.14984283
000060 20 b2 93 3d 22 a4 f0 3c 66 36 0b 3e 53 38 c3 3d
       0.07211709 0.02937514 0.1359497 0.09532227
000070 17 3e 17 3e f0 18 ff 3d 49 7e f2 3d 7f 43 1f 3e
       0.14769779 0.12455928 0.11840493 0.15553091

conv1.lin.weight f4 [32, 334]
000000 53 14 7e 3e 9f 7d 95 3d e6 0b 19 3d 43 4d 51 3e
       0.2481244 0.07299351 0.037364863 0.2043963
000010 d4 16 83 bd 71 ee 41 bd 30 05 84 3e e9 c7 e1 bc
       -0.064008385 -0.047346536 0.25785208 -0.027561145
000020 aa ff 5f 3c 7b 4f e0 3b 26 76 0c bb 63 ab e5 3d
       0.013671795 0.0068454123 -0.0021432727 0.1121433
000030 0f 5e 56 3e 5b 4f 03 3d bb 4f 5a 3d 56 4a fa 3d
       0.20934318 0.0320581 0.053298693 0.1222121
000040 26 12 e8 3b f5 8d a2 3c 85 95 48 3e ef c1 e7 bd
       0.0070822416 0.019843081 0.19588287 -0.11316287
000050 4c d2 66 bc 84 8c 77 3e 29 a4 78 3e 84 46 45 3e
       -0.014088225 0.24174696 0.24281372 0.19265181
000060 5c 5e ab bb 63 ec fe bc 4f f7 07 bd 3a ce 88 3c
       -0.0052297544 -0.031118577 -0.033194836 0.016699899
000070 11 eb 0c bb 78 f8 66 3e 30 61 9e bc 03 39 bf 3c
       -0.0021502415 0.22555721 -0.019333452 0.023342615
000080 e4 55 11 3e cc cb 88 bd 3a 0a 53 be 3f 80 30 3b
       0.14192921 -0.06679496 -0.2060937 0.002693191
000090 1d 12 14 be b5 b7 d2 bb 62 fc 61 3d 8e 4e a8 bd
       -0.14460035 -0.006430591 0.05517233 -0.08218108
0000a0 75 55 7f 3e c5 2a 94 3d d0 59 cf 3d 73 4f a9 bd
       0.24934943 0.0723472 0.10124552 -0.08267107
0000b0 51 d0 95 3d 14 e9 8e 3a a6 1f 18 3e 26 98 03 3d
       0.07315124 0.0010903203 0.14855823 0.032127522
0000c0 5a c7 09 3e 71 2c 44 3d 3f df 4b 3e 85 d3 ba 3d
       0.13454953 0.047893945 0.1990938 0.091223754
0000d0 f1 59 13 3e de 26 7f bc c7 cf 22 3e 11 fe e0 bc
       0.14389779 -0.0155732315 0.15899573 -0.027464898
0000e0 91 fb aa 3c cb db d6 3d cd d8 2a 3d 02 04 78 3c
       0.02087191 0.10491141 0.041710664 0.015137674
0000f0 b1 80 80 3e 89 40 f0 3d 44 d6 82 bc 57 61 96 bd
       0.25098184 0.11731059 -0.01597131 -0.07342785
000100 24 a2 66 3d 19 57 af 3c a6 93 92 bd 94 05 07 3e
       0.056306973 0.021403836 -0.07157068 0.13185722
000110 fb 2f 0d bd 3a 25 e7 3d 24 ba 24 be 83 d1 c1 3b
       -0.034469586 0.11286397 -0.16086632 0.0059148683
000120 05 a9 0e 3e e4 99 d2 bc 6f 7c 33 be 32 52 df 3d
       0.13931663 -0.025708146 -0.17527936 0.109043494
000130 0d d9 d0 3c 5f 3e 88 bd 50 9b 47 be 29 a2 bd bc
       0.025494123 -0.06652521 -0.19492841 -0.023148613
000140 b8 00 44 3e 36 dd 3a 3e ac 96 52 3e 06 f3 c8 3d
       0.19140899 0.18248448 0.2056529 0.09811978
000150 b0 63 3c 3d 7c 8d 77 bd 39 22 3e 3d 8a 22 0a 3c
       0.045993507 -0.060437664 0.046419356 0.008431086
000160 9c 2a b2 bd 8a 19 83 3e 4e e4 90 bc 8b 18 f8 3d
       -0.08699533 0.25605422 -0.01768699 0.12114056
000170 58 0f b7 bd 47 63 f3 3d 4f 87 53 3e 58 55 a8 3d
       -0.089384735 0.1188417 0.20657085 0.08219403
000180 6b 53 99 3b b9 5f c0 3d 46 6e b4 3d 0f 45 21 3d
       0.0046791336 0.09393258 0.088100955 0.0393725
000190 e4 2f 6e 3e 74 71 89 3e a0 5f 94 bd 4d fd 07 be
       0.23260456 0.2684437 -0.072448015 -0.1328022
0001a0 a7 7e 54 3e 88 eb 42 3e a2 7b 29 3d 0e f9 3c bd
       0.20751439 0.1903516 0.04137767 -0.046135955
0001b0 0b 40 6a 3e 57 28 9e 3d 75 65 d1 3d d5 ec ab bc
       0.22875993 0.07722538 0.102244295 -0.020986954
0001c0 47 87 5e bd c3 6a 57 bd dd 3b 0c 3e 98 cc 6c 3d
       -0.05432823 -0.05259205 0.13694711 0.057812303
0001d0 9a d6 77 3d 44 ce 83 3d ab 81 d0 3d 80 1f 98 bc
       0.060507394 0.064358264 0.10180982 -0.018569708
0001e0 e9 9f 9b bd bb 89 57 bd 64 25 03 bd d3 26 93 bd
       -0.0759886 -0.052621584 -0.03201808 -0.071851395
0001f0 41 2d 43 bd 2f db 3f 3e d1 b4 9c 3d 13 61 3c 3e
       -0.04765058 0.18735956 0.076516755 0.18396406
000200 59 a8 6b 3d fd 5c 33 bc 80 c4 fa bc 71 f6 e9 3c
       0.057533596 -0.010947463 -0.030611277 0.028559895
000210 59 b1 40 bd 7a 0f 25 be d1 f0 22 3d d9 2c 38 3e
       -0.047044132 -0.16119185 0.03978044 0.17985858
000220 46 6d a1 3d 52 12 69 3e 0c 80 98 3d df b8 90 3d
       0.078821704 0.22760895 0.07446298 0.07066511
000230 a0 7a 4e 3d 30 d6 96 3d 38 f6 82 3e 27 57 e3 3d
       0.050409913 0.07365072 0.25578475 0.11100607
000240 f9 c8 00 3d 07 2b 89 3c 09 4b e9 bc 6e c5 a8 bd
       0.031441662 0.01674415 -0.028478162 -0.08240782
000250 3c 81 cb 3d a0 98 64 3e 01 34 b2 3c 2f 0d f4 bd
       0.09936759 0.22323847 0.021753313 -0.11916577
000260 2c e5 94 bd 7c 44 d9 3d 9f a9 8b 3d b7 0d 28 3e
       -0.072702736 0.106087655 0.06819462 0.16411482
000270 7a a3 41 3d dc 3a 21 3e f8 a4 22 3d 63 14 06 3d
       0.047275044 0.1574511 0.039708108 0.032734286
000280 54 26 ed ba 14 88 37 3d 98 04 8e 3d c3 1d 7c 3d
       -0.0018093088 0.04480751 0.0693447 0.06155182
000290 9c 4e 1c 3e ba ea 9b 39 da fa fc 3b 32 fb 28 3e
       0.15264362 0.0002973879 0.0077203335 0.16502073
0002a0 93 d6 29 bd 85 c0 3b bc 82 14 48 be 65 01 2c 3e
       -0.0414644 -0.011459474 -0.19539073 0.16797407
0002b0 b6 7c 06 3e b9 f2 b4 3d bb ae 11 3e ab 99 c7 3d
       0.13133511 0.08835358 0.1422681 0.09746107
0002c0 e5 24 2c bd 41 67 d9 3d 99 6d a1 bd 8b 26 4d 3e
       -0.042027373 0.10615397 -0.07882232 0.20034234
0002d0 c2 0c 02 3e 5b df 23 3e d6 77 93 bd 52 b3 9a bd
       0.12700179 0.16003172 -0.07200591 -0.07553734
0002e0 0d 8d 8f bd 1e fe 1f 3c 21 01 05 3e c8 72 0d 3e
       -0.07009325 0.009765176 0.12988712 0.13813317
0002f0 a1 4f 50 3e 26 5d 62 3d 34 93 3b bd 67 20 43 3e
       0.20342876 0.055264615 -0.04579468 0.1905533
000300 67 50 c5 3b 6b 09 48 3c 64 ca 17 3e 5e a4 1b 3c
       0.0060215476 0.012209277 0.148233 0.009499637
000310 b8 2b 0e 3d 05 02 b3 3d 43 07 98 bb d6 67 17 3e
       0.034709662 0.087406196 -0.0046395375 0.14785704
000320 04 7e 09 3e 07 67 11 3d cd b0 7d 3d 54 52 62 bc
       0.13426977 0.035498645 0.06193619 -0.013813574
000330 57 61 5f be 06 17 d4 3d 2c 5e 0b 3e 6e bb 45 3c
       -0.21814476 0.10355954 0.13610142 0.0120686125
000340 b2 ac 05 be 0b 8b 3f bd 2f bd 35 be 97 9e 85 3e
       -0.1305416 -0.04676346 -0.17747949 0.26097557
000350 5d 97 92 3d 80 c4 46 3d 01 a8 85 bd f8 74 99 3d
       0.071577765 0.04852724 -0.06526185 0.07493013
000360 24 dc 40 3e a5 9d 32 3e 74 62 f8 3c 96 c1 4c 3e
       0.18833977 0.17442949 0.030320384 0.19995722
000370 e8 c5 b9 bd 3e 9a 61 3e a9 55 2e 3e 38 37 4a 3d
       -0.09070951 0.22031495 0.17024864 0.049369067
000380 ca 13 81 3e d1 0d 8d 3d 95 dd a5 bd ce 43 48 3e
       0.2521041 0.06887401 -0.08098904 0.19557115
000390 61 b2 86 3e 4e c1 87 3d a8 6e b2 3d 9f 0e 64 3c
       0.26307967 0.06628667 0.08712512 0.013919502
0003a0 8a 34 57 3e 5e 27 6a 3e 06 67 be 3d 71 ea ef bb
       0.21016136 0.2286658 0.09296994 -0.0073216488
0003b0 1c 4b 0c 3e bb aa 00 3e b3 1b 95 3d 54 e1 69 3e
       0.13700527 0.12565129 0.07280674 0.22839862
0003c0 82 2c 30 bd 07 0a 2c 3e ab e5 2f 3e d4 05 40 3e
       -0.043011196 0.168007 0.17177455 0.18752223
0003d0 ce 6e 38 be 10 81 1b be 63 af 8a bd 94 b2 65 3c
       -0.18011019 -0.15185952 -0.067717336 0.014019627
0003e0 28 2b 91 bd de b5 16 bc a3 ac 09 3d da 4c 3d 3e
       -0.070883095 -0.009198634 0.033611905 0.18486348
0003f0 71 8d 45 3e 29 08 72 3e 91 bd 75 3d f0 4e ef 3d
       0.19292237 0.23635925 0.059995238 0.11684978

conv2.bias f4 [4]
000000 34 28 95 bd 9d 65 1d be 0e 40 50 3d 57 bf 2b 3e
       -0.07283059 -0.15370794 0.050842337 0.16772209

conv2.lin.weight f4 [4, 32]
000000 30 1d 92 3e f0 38 03 3e 68 ca 2b 3d dd 33 87 3e
       0.28537893 0.12814689 0.041941077 0.26406756
000010 61 6a 53 be dd b6 6d 3c 93 ea 35 3e 82 67 c6 3e
       -0.20646049 0.01450893 0.17765264 0.38750845
000020 d0 9d c1 3e 87 36 3a bd 7e 47 e9 be e2 63 92 3e
       0.37815714 -0.045462158 -0.45562357 0.2859183
000030 d8 0c ae 3e a4 db 2a 3e b6 34 b5 3e ff 98 15 3d
       0.33994174 0.16685349 0.35391778 0.03652286
000040 8d 2e bf be 58 a6 39 bd 2a af 70 be 9c db 03 bf
       -0.37340203 -0.045324653 -0.2350432 -0.5150697
000050 f6 f8 28 be e0 1f 85 3d f4 ef cb be a0 20 42 bd
       -0.16501221 0.0650022 -0.39831507 -0.047394395
000060 7f 18 bc 3d 02 00 98 3c 1e 96 cd 3d e3 9c 91 be
       0.0918436 0.018554691 0.10038398 -0.28440008
000070 ed 83 50 be 6f 32 e6 be b4 61 08 be 33 1b c5 3e
       -0.20362826 -0.44960353 -0.13318521 0.38497314
000080 3c 2b 03 be 75 1d 02 3e 17 ca e5 3e 01 ce af 3e
       -0.12809461 0.1270655 0.44880745 0.34336856
000090 8e 8d 07 3f 1a d8 ec 3e aa 6e 9c 3e fa 4f a4 bd
       0.5295037 0.46258622 0.3055318 -0.08023067
0000a0 51 f2 fc be 25 33 67 bd 99 a8 c6 3e 4c 37 1a be
       -0.49403623 -0.05644526 0.38800505 -0.15060157
0000b0 b0 f3 b9 3e 17 c4 f4 be 47 a8 e2 bd 05 54 d4 3e
       0.3631873 -0.47805855 -0.110672526 0.41470352
0000c0 6a e0 bf be d0 b0 a3 3d 56 0f 93 3e 92 e2 e7 be
       -0.37475902 0.07992709 0.28722638 -0.45290047
0000d0 7d ac a5 be 6d ec b0 be 1a 40 da 3e 77 93 61 be
       -0.3235816 -0.3455538 0.4262703 -0.2202891
0000e0 e2 e8 15 3e ff 31 e0 3e 90 1b 81 3e 10 97 fd bd
       0.14639619 0.43788144 0.2521634 -0.123823285
0000f0 b3 2c b7 3e ff c1 94 be 7c b3 f7 3e cd 7a 94 be
       0.3577629 -0.29054257 0.48379123 -0.2899994
000100 7b 9b ab 3e fa f5 96 be 00 2c 8a 3e 50 a7 06 3f
       0.3351706 -0.2948454 0.26986694 0.5259905
000110 8b c3 84 be e3 0b 40 bd 74 08 bb be e3 ba 63 3e
       -0.25930437 -0.046886336 -0.36529887 0.2223926
000120 49 c0 9f be 38 82 da 3e cf 00 dc be 82 a0 89 be
       -0.3120139 0.42677474 -0.42969367 -0.2688027
000130 ac c7 5c be 27 1b fd 3e 30 2f 76 3e 3a 99 3c 3d
       -0.21560544 0.49434778 0.24041438 0.046044566
000140 11 5a 81 3e a6 1b 04 bf 7e b9 99 bd c3 07 dc 3e
       0.25264028 -0.5160469 -0.07506083 0.42974672
000150 06 e0 4c be 18 a0 a3 be eb eb a7 be 8b ed f9 3e
       -0.20007333 -0.3195808 -0.3279718 0.48814043
000160 87 c8 1b 3e 9a 9b 81 bd 73 76 81 be 23 fc a0 3e
       0.15213214 -0.06328507 -0.25285682 0.31442365
000170 1e ca 27 be 27 c9 df 3e d7 9b c7 3e f4 09 f5 be
       -0.16385695 0.43708155 0.38986084 -0.47859156
000180 e8 6f 00 3f c3 f2 b7 be d7 f3 15 be 28 9d a2 bd
       0.50170755 -0.359274 -0.14643799 -0.079401314
000190 4c 2a b8 be 30 88 42 be 31 bc be be 6e 84 5a be
       -0.3596977 -0.18997264 -0.37252954 -0.2133958
0001a0 60 a9 86 bd 7f e7 75 be 69 90 8e 3e 22 31 65 be
       -0.065752745 -0.2401409 0.2784455 -0.22382024
0001b0 57 4b 8a bd 3b ad 20 3e d1 0e 8b be 09 8b 00 bf
       -0.06752651 0.15691082 -0.27159742 -0.5021215
0001c0 b2 99 a9 3e 7f 64 00 bf 09 8f 22 3e 97 2e d1 3e
       0.33125073 -0.50153345 0.15874876 0.40855858
0001d0 69 2a 09 3f 2a 75 bf be 12 e6 af 3e 3c 73 c5 be
       0.5358034 -0.37394077 0.34355217 -0.3856448
0001e0 83 7b b6 be da 12 3b 3c 3a 9b a7 be c3 69 da be
       -0.35641107 0.011418069 -0.32735616 -0.42658815
0001f0 3a c1 13 3e 72 1b fe 3e 66 72 c9 3e ad d1 a0 3e
       0.14429179 0.49630314 0.39345092 0.3140997
