my_gtn/experiment_logs/model_exp_235.pt (torch, 176281 bytes, 4 tensors)

conv1.bias f4 [128]
00000000: 0b3f cc3b 54e3 eabd ba5e 163d d462 d0bc
00000010: 6d42 ee3c 6da9 dd3d 580a debd e3aa 5cbc
00000020: 8ecd 173d ad75 fb3d 1d45 123e 3761 363e
00000030: 2184 fcbc 6fa5 873d 571d d13d d97d 34bd
00000040: 76a6 4c3c 8148 9ebd 92d7 113a 02b4 2f3d
00000050: f8dc 67bd b534 01be 8acc 3d3c fc5b dfbd
00000060: 26e7 b9bd d01f 40bd d399 39bd 7a49 85bd
00000070: 5026 803d b35c 8dbd 9603 c73d 6279 61bd
00000080: 74f3 47bd b3c6 c63c 0007 d03d 10a7 083e
00000090: af74 173d d200 113c 8d05 1abe 16d0 f13d
000000a0: 09c1 12be 7846 93bd fbce 073e 5d81 293d
000000b0: f474 ddbd d460 9bbc ce1c e5bd e3a0 be3d
000000c0: d063 78bd babe debc e00f eebc 7e4a 1bbd
000000d0: a8df f9bc f713 febd acba 433c b25a 69bb
000000e0: 209b ab3d 0bb6 033c db24 b63c be02 833a
000000f0: d9f5 e2bb b6d0 1c3c 8eb6 673a 813a efbd
00000100: f2fc 1f3d 2386 923c d0d0 293e 5d50 b8bd
00000110: 4e6e 683d 1f37 013e 4e90 ae3c 2685 d8bd
00000120: 0418 183e 494e 623d 9de8 d7bd ec8a 09bd
00000130: f7f5 413d 3f66 2a3d 8d6d 443c 4fb8 4b3d
00000140: 6676 e4bb 1319 093c cfb6 3bbc e4f0 1dbb
00000150: 7940 843d 11b3 c93d 1846 c43d 9f2d ba3c
00000160: eb92 283b 80c0 f5bd 9adb b93d 8518 153d
00000170: c34b 99bd b8d1 093d 60b1 863d 9486 ef3d
00000180: d9b3 ac3c 4794 d33d 5075 b8bd a5e6 8fbd
00000190: c6da 193e 0ed8 c03c 31cd 9c3d 7bf3 13bd
000001a0: 8551 0d3d 42aa 1f3c 67d5 53bc 8aed 193d
000001b0: c7de ad3c 321f 133d 5c8d 233e 97a2 ef3d
000001c0: 0fa9 943c 0456 1e3d a45a a03d 1f40 353d
000001d0: 9700 b53d 9e89 e83d 9639 a7bc 2f6b 043d
000001e0: e73f d23d c677 c13c b284 a0bd f11d 9d3c
000001f0: df5b c5bc f331 303d 25d1 92bd 6bcc e73b
0.0062331012 -0.11469141 0.036711432 -0.02543775 0.029084409 0.10823331 -0.10841817 -0.013468477
0.037061267 0.12278304 0.14284177 0.17810522 -0.030824723 0.06623351 0.10210674 -0.04406533
0.012490859 -0.07728673 0.00055634335 0.04289628 -0.056607217 -0.12617762 0.01158441 -0.109062165
-0.09077291 -0.04690534 -0.045312714 -0.06508155 0.062573075 -0.069024466 0.09717481 -0.0550474
-0.04881616 0.024264669 0.10157585 0.1334498 0.036976513 0.008850293 -0.1504118 0.11807267
-0.1433145 -0.07191175 0.1326255 0.041383136 -0.10813323 -0.01896707 -0.11187135 0.093080305
-0.060642064 -0.027190555 -0.029060304 -0.03791284 -0.030502155 -0.12406152 0.0119463615 -0.0035607037
0.08379197 0.008039008 0.022234371 0.0009995324 -0.00692628 0.009571245 0.00088391535 -0.116810806
0.039059587 0.017886227 0.16583562 -0.08999703 0.05674582 0.12618683 0.021309044 -0.10572271
0.14852911 0.05525044 -0.10542414 -0.03357975 0.04735371 0.041601416 0.01198901 0.049736317
-0.006972122 0.008367795 -0.011457159 -0.002409988 0.0645761 0.09848607 0.09583682 0.022726832
0.0025722336 -0.11999607 0.09075089 0.036400337 -0.074851535 0.03364727 0.065768 0.116955906
0.021081852 0.10331016 -0.090067506 -0.07026414 0.15024862 0.023540523 0.07656325 -0.036120873
0.03450157 0.0097451825 -0.012929297 0.03758005 0.021224393 0.035918422 0.15971893 0.117009334
0.01814702 0.03865625 0.07829788 0.044250604 0.08838003 0.113543734 -0.020413201 0.03232878
0.10266095 0.023616683 -0.078378096 0.019179316 -0.02409166 0.043016385 -0.071687974 0.007073929

conv1.lin.weight f4 [128, 334]
00000000: 0f0e 26be f317 b3bd 9d9d aabc 258e 503e
00000010: 135a 62bd 6a73 303d 7eac 283e 29d7 483e
00000020: 4bcc bfbd 8afd 753d 9bdc eabd 1822 36be
00000030: b4bf 1abe 4522 58bd 5a5c 92bd 7d6a 92bd
00000040: 9f32 873d a8a6 88bd 0541 313e 663b 60be
00000050: 16b3 d9bd 5c3f 34be ee58 67be d113 f93d
00000060: 093f 24be 1294 303e 9729 15bd 4f8c 023d
00000070: d0ef 37be 3310 823e fe7b 33be 3f73 ae3d
00000080: 2ca7 ae3d b9a3 3e3e ab93 e0bd 164f 48bd
00000090: ba0a 45be 42cc 5d3e b2f0 83be 5d52 94bd
000000a0: be73 1fbe 3a1a 4fbe f1b6 40bd 22b7 8fbd
000000b0: dee9 55be f343 323e 97c5 66be a853 d53c
000000c0: 4aeb cabb 2ab5 853e 780e a0bd d561 60be
000000d0: 34b9 8abe f33d 273b 35b6 27be 185d d5bd
000000e0: d3bf eabd 5bfc 2bbe a23e 57bd 6fb5 7a3d
000000f0: 9894 f1bc 7ff2 a8bc be00 92bd 2467 11be
00000100: 892d 59be ac7b 1bbd d0a9 a3bd 976a edbd
00000110: 00d2 4a3e 76e1 c63d 65f6 dc3d d274 173e
00000120: 87d3 793d de4c 3d3e 470e 00be f48d 123e
00000130: 7c99 8fbd 923e 6ebe 8baa 1bbe 8f2e 6abe
00000140: 413f 20bd 27f2 d03d 4eea 3bbe 8945 913e
00000150: ec58 52bd 40c4 99bd c3f6 2fbd 5058 5ebd
00000160: 990f 25be 4e73 68be 558e 9a3c b279 583e
00000170: 85e2 45be 8a4a 4cbe a9a4 dcbd d2b9 1cbe
00000180: 9faf 74be 4cc8 a93d 5220 113e 843e 313e
00000190: fe14 c2bd ee02 75be ec21 73be f9ba d7bd
000001a0: dedf 423e 07ef 2ebe f7a0 87be d202 9fbd
000001b0: 542a 523e 5ba4 0dbe 26de 32be 510a ffbd
000001c0: 3308 adbc 368d a3bd 6dc2 963e 1b6c b4bd
000001d0: 3dc7 8ebd 8043 8cbb 952e 763d 44fd 7c3e
000001e0: 28bd 1abe 9f8c 13be 50f2 66be e6b4 c1bd
000001f0: cd20 edbd 2dc3 74bd 29f4 d2bd b9ba 813e
00000200: 51c4 98bd 7b60 c0bd 3f75 b3bd 087b f1bd
00000210: f7e1 0ebd 7bad 203e 8bcc 5a3e 74a3 62be
00000220: 245e 1fbe ced7 0ebe 3725 883e fb46 6ebd
00000230: e6f1 cabd f244 67be 9485 17bd f7ba 423e
00000240: 1e8b b9bd 5da4 edbd 0ac8 21be bc8f 6e3d
00000250: 992f 163e 527a 0c3e 64e5 d5bd ed99 80bc
00000260: a338 563e 9d16 6c3e 6d75 803e 2c44 a4bd
00000270: 69bf 7abc 1af8 453e ed87 32be 67d5 3d3e
00000280: 51e5 bc3d 84de 05be 0ba8 a4bd f6fb bdbc
00000290: b5e2 0d3e 97ba 9fbd 1c49 86be 6ab0 303e
000002a0: 9304 1dbe 70ae 20be fa7e 7ebd 9ffc 123e
000002b0: bd0e d23d 97a5 0b3e e837 4b3d 6d4d cabd
000002c0: 8f1f 783e 7cc5 32bd b76c eebd ab3f 38bd
000002d0: f5b3 37bd 362c 9f3d 31fe 5dbd c089 04be
000002e0: 9f49 463e 0dd5 68be 3506 c83d af2c 2ebe
000002f0: 4822 fb3d d6c0 ddbd 7271 853e d745 92bd
00000300: 4451 8b3d 521d f1bd 6083 75be 9bfa 61be
00000310: 18dc 92bd 9b2a 33be a8d7 9fbd 9300 003e
00000320: fe47 05be 9a56 493e 58b6 3abd 3a03 c8bd
00000330: e077 23be bb65 7cbd 0480 8dbd 449c 183e
00000340: 6470 debb 685d 0dbe 597d b9bd 1dde 033e
00000350: ac3c e2bd 6540 da3d e187 bb3d 5d28 28be
00000360: 919a 143d a270 553e b08b 753e 60e0 883e
00000370: 1e65 49be 1b8f fbbc 82cf 07be 1a9a bfbd
00000380: db62 a339 e41c 4abe db93 4fbe 2ac8 06be
00000390: f434 323e 399e df3d 28f4 8f3b abc7 3abb
000003a0: aaf0 4d3e 8083 433e cff6 b2bd eafb 58bd
000003b0: a6a4 573e a2cb 4f3e b254 77bd 862b 4d3e
000003c0: fea2 6bbe e8d7 283e b5c9 f3bd 30c8 853e
000003d0: 9dd2 a13c f8d0 a63d 7d5b b4bd b056 9cbd
000003e0: ed43 65be 6355 7e3c 7840 033e 5024 b7bd
000003f0: 3117 cebd 7498 1abe 8b61 603e 5339 783e
-0.162163 -0.08744802 -0.020827109 0.20366724 -0.055261683 0.043078817 0.1647205 0.19613327
-0.09365138 0.060056247 -0.114678584 -0.17786443 -0.15112191 -0.052767057 -0.07146521 -0.07149217
0.06601452 -0.06672412 0.17309959 -0.21897659 -0.10629861 -0.17602295 -0.22592518 0.12161983
-0.16039671 0.17243984 -0.036416616 0.03187209 -0.17962575 0.25402984 -0.17527768 0.08518075
0.08527979 0.18617143 -0.109656654 -0.048903547 -0.19242373 0.2165995 -0.25769573 -0.07242272
-0.15571496 -0.20224848 -0.047049467 -0.07017352 -0.20889995 0.17408733 -0.22536312 0.026040867
-0.0061925994 0.2611478 -0.0781526 -0.2191232 -0.27094424 0.0025519102 -0.163781 -0.10418147
-0.11462369 -0.16795485 -0.052549966 0.061208185 -0.0294898 -0.020623444 -0.07129048 -0.14199501
-0.21208777 -0.03795974 -0.079913735 -0.11592596 0.19806671 0.09710972 0.107891835 0.14790657
0.060992744 0.18486354 -0.12505446 0.14311963 -0.07011697 -0.23266056 -0.15201776 -0.22869323
-0.039122824 0.10202437 -0.18351099 0.28373364 -0.051354334 -0.07508135 -0.04295994 -0.05428344
-0.16119231 -0.22700235 0.018866697 0.21140173 -0.19324692 -0.1995031 -0.10773594 -0.1530526
-0.23895119 0.08290157 0.14172485 0.17309004 -0.0947666 -0.23926899 -0.23743409 -0.10533709
0.19030711 -0.17083369 -0.26489994 -0.0776421 0.2052396 -0.13832228 -0.17467555 -0.124531396
-0.021122074 -0.07985918 0.2944521 -0.08809682 -0.069715954 -0.0042805076 0.060103018 0.24705988
-0.1511122 -0.14409111 -0.22553372 -0.09458332 -0.11578522 -0.059756447 -0.10300476 0.2533777
-0.074593194 -0.09393402 -0.08762597 -0.117910445 -0.034883466 0.15691178 0.2136709 -0.22132665
-0.15563256 -0.1394951 0.26590893 -0.05817316 -0.0990942 -0.22584894 -0.036992624 0.19016634
-0.090597376 -0.116036154 -0.15798965 0.058242545 0.14666595 0.13718536 -0.104441434 -0.015698398
0.20920043 0.23055501 0.2508959 -0.08020815 -0.015304425 0.19332924 -0.17434664 0.18538438
0.09223426 -0.13073164 -0.08039864 -0.023191433 0.13856013 -0.07799261 -0.26227653 0.17254797
-0.15333776 -0.15691543 -0.062132813 0.1435418 0.10256717 0.13637386 0.049613863 -0.09878049
0.24230789 -0.043645367 -0.116418295 -0.044982594 -0.044849355 0.077721044 -0.054197494 -0.12943172
0.19364022 -0.22737522 0.09766809 -0.17009233 0.12262398 -0.10827796 0.26063114 -0.07142227
0.068026096 -0.117731705 -0.23975897 -0.22068255 -0.07170886 -0.17496721 -0.07804805 0.12500219
-0.13015744 0.19661942 -0.045584053 -0.097662404 -0.15963697 -0.061620455 -0.06909183 0.1490336
-0.0067883004 -0.13805163 -0.09057111 0.12877698 -0.110467285 0.106568135 0.09156776 -0.16421647
0.03628022 0.20843747 0.23979068 0.26733685 -0.1966748 -0.030707886 -0.13262752 -0.093555644
0.00031163436 -0.19737583 -0.20271246 -0.13162294 0.17403013 0.109188505 0.0043931194 -0.002850036
0.20111337 0.19093132 -0.08738481 -0.05297462 0.21058902 0.20292524 -0.060383506 0.20036134
-0.23011395 0.16488612 -0.11903707 0.26129293 0.019753749 0.081453264 -0.088065125 -0.07633722
-0.22389193 0.0155232875 0.12817562 -0.08942473 -0.10063017 -0.15097219 0.2191221 0.24240617

conv2.bias f4 [4]
00000000: 7794 783c 49de 0ebe e3cc 8e3d 910d 453c
0.0151721155 -0.13951983 0.06972673 0.01202716

conv2.lin.weight f4 [4, 128]
00000000: ed8d eabd 6c6d 7ebd 9453 1b3e b92a a33d
00000010: 7131 09be c688 2f3e 9947 233d 53b1 0bbe
00000020: 7331 323c 412c 15be 86c5 bdbe a54b 933d
00000030: 1660 1ebe eb7f 823e be9d 81be 807b f93c
00000040: d14c 013e c358 0b3e a04e 7abe 0d95 35bd
00000050: ac0e 43bd 0905 123c 37e3 5b3c f06b 16be
00000060: b770 26bd 909e b83d 7f50 6fbd 9ad2 8abb
00000070: 6ffd d23d 2b82 a9be 6277 543d a79a 903e
00000080: 54a6 2d3e dee4 93be 56d8 233e 7093 463d
00000090: 2fe0 943d ce46 bdbc f972 8fbd bd1b d2bd
000000a0: f594 703d 357c 4cbe 4171 b53c fa09 df3d
000000b0: 3868 c33d d78b f93d 65af 50bd d801 61be
000000c0: 82ff 1dbe 939c d5bb a609 7abe 0a91 cebd
000000d0: c9c0 913d 33da e83d 7ccc 08be aa62 35be
000000e0: 894d d53d 4b92 17be 59bd 763e 5129 4a3e
000000f0: 04fc 6b3e 988d 6f3d 1afd 7fbe c7f4 753d
00000100: 2ab0 153e 5ef1 563d db8e 0a3e 67ad 793c
00000110: 7e02 183e fe16 7f3e 121a 80be 0467 ec3c
00000120: 298c 9a3b 9df7 883e a983 a5bc 6dba ffbd
00000130: 7683 f23c 7761 b3bd 1c71 8b3e 26fc 503e
00000140: d7c0 4cbe d0a1 8a3d b4dd 88be 7674 0abe
00000150: c8ce 7f3e 6f55 68be 724f 033e 35f3 12bd
00000160: a813 693e bee1 eb3d ad69 00be 496f 16be
00000170: 0f58 c13d c967 c03d 9152 933e 8217 2c3d
00000180: 3d6a 043e 8c79 db3d 7b16 a43d 3dc4 683e
00000190: 34da 183e 3083 623e ddf1 7bbe c6af 81bd
000001a0: b18e 0f3b 5bce 5abe 4801 1bbe 3254 75bc
000001b0: 54a9 6fbe fa24 763c 9f2e ae3d 30d3 143c
000001c0: 9977 f73d 033f 553e 6adb 0ebe 1c94 843e
000001d0: 3fc5 86be 19a8 90be 5b63 11be c21e e1bd
000001e0: 4638 fabd 170a 243c 5aab db3d 2fb3 28bd
000001f0: 29a9 093c 677a 2b3e 35c7 b1bd 17e8 07be
00000200: fd22 04be 83dd bbbd 83ff 883e bcbf 5d3e
00000210: bbc4 4d3e dcbf 74be 351d f2bd 52fe fa3d
00000220: e646 2d3e 43b2 cbbd 0741 02be 3412 9cbe
00000230: b4ac 51bc 89bf 76be c113 a13d ce51 f93d
00000240: 8edb 403e b5f5 2cbb 98b8 413e cf1f 963e
00000250: 6e4f 7dba 5063 a13d 8554 97bd 70c0 9c3d
00000260: 90d0 ef3d df0f 2c3e 270b cebd cea9 db3d
00000270: 7215 9bbe f60c b43c 5103 6ebd 3b2f 223e
00000280: cb1f eb3d 368c 8b3e d2a5 94be 8352 abbe
00000290: 2156 a2be df68 f0bd 7530 19be 216d 38be
000002a0: 9959 f83d 7b8b 6a3d ae77 a8be daf6 a7be
000002b0: 0047 cb3d 0547 023e 1cf8 86bd 71d4 e93c
000002c0: 1261 edbc 1a22 a33e 580c 8ebd d3e3 953d
000002d0: de35 f1bd eebf 8e3d 503e 3e3e bf04 babe
000002e0: 1371 c0be 3fa5 2ebe b2ea 773e a531 693e
000002f0: 659a 083e bbd6 093e e425 37bd 0da3 653e
00000300: c3c6 9b3e c229 32bd 24d6 acbe 87f0 93bd
00000310: cfe3 183e 4a3d 51be a3fc 313d 5198 59bd
00000320: 4bf1 aabe f8da 21be 7813 933d ce17 123d
00000330: 1daa 3dbe 3701 aabe 7c10 0d3d b1e0 5ebc
00000340: a6a4 163e 9e7f 8c3d af91 073d e3ed 493e
00000350: 2431 353e b349 5ebe dd99 76be 6ba6 9e3e
00000360: f600 c7bb 3746 633d 69a8 9e3e 5452 803e
00000370: dc50 3b3e 58a4 1abe 093b 92bd 6dbc 61be
00000380: a23c 3b3e 5e70 b3be a02c 8bbe 20f9 0a3d
00000390: 65a3 11be b673 093d 25e5 933c 7bc4 6b3e
000003a0: 79dd 3bbe b2f2 f23b adaa b8bd e7db f63d
000003b0: 9fe8 893e e571 a2be b420 88bd 2eba 95be
000003c0: ccfb cd3d ae78 a0be 3261 713e d674 c0bd
000003d0: 8ade 883e 3b62 a7be dea8 583e 841a 8abd
000003e0: 0297 78bd da97 9abd 5915 cebc e3d0 23be
000003f0: b98c 3a3e 4aba 0dbe 0620 1bbe ec69 2b3c
-0.114528514 -0.06211607 0.15168601 0.07967133 -0.13397767 0.17142019 0.039863203 -0.13641863
0.010876047 -0.14567663 -0.3706476 0.071921624 -0.15466341 0.2548822 -0.2531566 0.030454397
0.1262696 0.13608079 -0.24444056 -0.0443316 -0.047621414 0.008912333 0.013420871 -0.14689612
-0.040634837 0.090146184 -0.058426376 -0.0042365314 0.10302245 -0.33107123 0.051871665 0.2824299
0.1695798 -0.2888555 0.16000494 0.04848045 0.07269322 -0.023105051 -0.07004351 -0.10259197
0.058735806 -0.19969256 0.02214873 0.10890575 0.095413625 0.121848755 -0.05094852 -0.2197336
-0.154295 -0.0065189092 -0.24417743 -0.10086258 0.07116849 0.11369743 -0.13359255 -0.17713419
0.10415179 -0.148019 0.24095668 0.19742323 0.23045355 0.058484644 -0.24998894 0.06004789
0.14617983 0.05247628 0.13531058 0.015239096 0.148447 0.24911115 -0.2501989 0.028857715
0.0047164154 0.26751414 -0.020204382 -0.1248673 0.029603701 -0.08758824 0.27234733 0.20408687
-0.19995438 0.067691445 -0.26731646 -0.13520989 0.24981225 -0.2268884 0.12823275 -0.03587647
0.22761405 0.11517666 -0.12540312 -0.1469089 0.09440624 0.093947954 0.2877393 0.042014606
0.12931152 0.107165426 0.080121 0.22731109 0.14926988 0.22120357 -0.24603982 -0.06332354
0.002190512 -0.21367781 -0.15137208 -0.014973687 -0.23404437 0.015023464 0.08504986 0.009083554
0.12083358 0.20824818 -0.13950887 0.25894248 -0.26322362 -0.28253248 -0.14198057 -0.10992195
-0.122177646 0.010012171 0.10726042 -0.041186508 0.008402147 0.16745912 -0.08680574 -0.13272129
-0.12903972 -0.091731094 0.2675744 0.21655172 0.20094578 -0.23901314 -0.11821977 0.12255539
0.16921577 -0.0994611 -0.12720118 -0.30482638 -0.012797523 -0.24096502 0.07865096 0.12173806
0.18833753 -0.002639157 0.18918073 0.29321143 -0.000966302 0.078802705 -0.07389168 0.07653892
0.11709702 0.1680293 -0.10060721 0.10725747 -0.302898 0.021978837 -0.05810863 0.1583833
0.114806734 0.2725541 -0.2903276 -0.3346139 -0.31706336 -0.117387526 -0.14959891 -0.1801038
0.121264644 0.057261925 -0.32903808 -0.3280552 0.099256516 0.12722404 -0.06590292 0.028543683
-0.02897695 0.31861955 -0.06935948 0.07318845 -0.117778525 0.069702014 0.18578458 -0.36331746
-0.3758627 -0.17055224 0.24210623 0.22772844 0.13340147 0.1346082 -0.04471387 0.2242548
0.3042508 -0.043496855 -0.33757126 -0.07223611 0.14930652 -0.20433536 0.043453824 -0.053123776
-0.33387217 -0.15806186 0.07181448 0.035667233 -0.18521924 -0.33204052 0.03443955 -0.013603375
0.14711246 0.068602785 0.03309792 0.19719653 0.17694527 -0.21707802 -0.24082132 0.30986342
-0.0060731126 0.055486884 0.30987862 0.2506281 0.18292564 -0.15101755 -0.07140166 -0.22044535
0.18284848 -0.35046667 -0.27182484 0.03392899 -0.14222486 0.033557616 0.0180536 0.2302417
-0.18346204 0.0074141854 -0.09016929 0.12053662 0.26935288 -0.3172752 -0.066468626 -0.29243606
0.10057792 -0.3134207 0.23572233 -0.09397285 0.26732284 -0.3269213 0.21158168 -0.06743339
-0.060690887 -0.07548495 -0.025156664 -0.15997653 0.18217744 -0.13840595 -0.15148935 0.010462265
