my_gtn/experiment_logs/model_exp_211.pt (torch, 176281 bytes, 4 tensors)

conv1.bias f4 [128]
0.165735 -0.14335492 0.06927163 0.100346565 0.18691824 0.17431316 0.009504131 0.13807735
0.15514114 0.20546722 0.26109627 0.31599927 0.08512439 0.027911367 0.20778383 0.12567487
0.026000036 0.19950457 0.24043348 0.1492333 -0.11365268 -0.2371934 0.008706777 0.0014774085
0.027318534 0.0038778675 0.014749531 0.06301166 0.046702843 0.06801515 0.2822726 0.09965351
-0.12937935 0.21570629 0.24882297 0.2784794 0.25623214 0.09692709 -0.09092226 0.305564
-0.20061298 0.0058720186 0.15754183 0.108531825 -0.011915913 0.03410949 -0.16269448 0.20278323
-9.8218436e-05 0.026470251 -0.0063651963 0.04464748 0.03310769 -0.0585489 0.10674346 0.083049715
0.23852153 0.08876678 0.14479382 0.022311768 0.05178791 0.044664357 0.064837106 0.10595352
0.089066625 0.06824846 0.2652044 -0.110924505 0.1329371 0.12531725 0.30339417 -0.14016151
0.16049469 0.26222414 -0.13882342 0.06531776 0.21503021 0.08508985 0.046848636 0.2544364
0.16359639 0.1452102 0.061819788 0.05540563 0.17667854 0.11933341 0.32301858 0.120785415
0.1791746 -0.21658635 0.1203297 0.12243816 0.038217958 -0.025306478 0.11330552 0.12600149
0.09909073 0.15570849 -0.013719408 -0.017238153 0.28951013 0.009198052 0.17350349 0.052230276
0.18437201 0.06638022 0.07689923 0.19530988 0.16035935 0.21604101 0.22844508 0.14954513
0.12847608 0.112217866 0.13872828 0.060854085 0.17793095 0.20363608 0.00885045 0.21366143
0.14223182 0.04898974 -0.06341281 0.14847553 0.074106835 0.01816896 -0.009149587 0.1274003
00000000: 70b6 293e a2cb 12be 49de 8d3d 8082 cd3d
00000010: 7f67 3f3e 267f 323e 37b7 1b3c 2664 0d3e
00000020: 52dd 1e3e 0066 523e 69ae 853e a8ca a13e
00000030: b255 ae3d 61a6 e43c 49c5 543e eab0 003e
00000040: 07fe d43c ed4a 4c3e 3234 763e 9dd0 183e
00000050: bcc2 e8bd d4e2 72be dfa6 0e3c 9aa5 c13a
00000060: 1ecb df3c d223 7e3b 04a8 713c 420c 813d
00000070: 7b4b 3f3d 874b 8b3d 0986 903e 2417 cc3d
00000080: 057c 04be 1ce2 5c3e 73cb 7e3e da94 8e3e
00000090: dc30 833e b681 c63d 7335 babd e272 9c3e
000000a0: 7d6d 4dbe 106a c03b a552 213e ef45 de3d
000000b0: f63a 43bc 65b6 0b3d 6299 26be 68a6 4f3e
000000c0: 9ffa cdb8 24d8 d83c 2393 d0bb 47e0 363d
000000d0: ee9b 073d f9d0 6fbd 519c da3d f815 aa3d
000000e0: fd3e 743e 5ccb b53d d544 143e 2bc7 b63c
000000f0: 8f1f 543d f9f1 363d 51c9 843d 29fe d83d
00000100: 9068 b63d d9c5 8b3d dfc8 873e 632c e3bd
00000110: aa20 083e 2a53 003e 7b56 9b3e 8086 0fbe
00000120: b858 243e 3e42 863e ba27 0ebe 51c5 853d
00000130: e130 5c3e 9643 ae3d 5be4 3f3d 7d45 823e
00000140: d085 273e fcb1 143e bf36 7d3d 04f1 623d
00000150: 38eb 343e 1365 f43d b162 a53e 585e f73d
00000160: 8c79 373e d0c8 5dbe 6b6f f63d dcc0 fa3d
00000170: 6f8a 1c3d 884f cfbc b90c e83d 8906 013e
00000180: 15f0 ca3d 0c72 1f3e 5ec7 60bc 0737 8dbc
00000190: ac3a 943e 6db3 163c e6aa 313e 6aef 553d
000001a0: 04cc 3c3e 5af2 873d 587d 9d3d 50ff 473e
000001b0: 3e35 243e db39 5d3e 82ed 693e 5c22 193e
000001c0: 3c8f 033e 7bd2 e53d c90e 0e3e 2242 793d
000001d0: 8833 363e fa85 503e 7a01 113c 10ca 5a3e
000001e0: 38a5 113e 77a9 483d 93de 81bd f809 183e
000001f0: 53c5 973d 12d7 943c 26e8 15bc 3975 023e

conv1.lin.weight f4 [128, 334]
0.09351978 -0.089016296 0.0455904 0.06666311 0.006716625 -0.10087258 0.24100757 0.02398619
-0.03525406 0.26308408 0.15067397 0.25038803 -0.122116216 -0.07739332 -0.0994881 0.12707591
0.0037425861 0.049563665 0.104635775 0.009911764 0.109419405 -0.0043593594 -0.080364086 0.03715376
-0.03292635 0.19506396 -0.019000119 0.03479315 0.059817042 -0.007968289 -0.03015494 0.12281795
-0.023700977 0.08485892 0.044970337 -0.064117506 0.08129574 0.035586827 -0.0548027 -0.078082226
-0.090499654 -0.08348659 -0.04183228 -0.039890498 -0.15700702 0.026514044 0.023107134 0.10027577
0.10419755 0.12943886 -0.07165787 -0.014687408 0.0035322339 0.08461155 0.026707469 0.12859058
0.06733236 -0.07161506 0.091705345 0.07766942 0.009346913 0.08514356 -0.03305125 -0.2485073
-0.117964186 -0.22668624 -0.02181906 -0.1365817 0.045974992 -0.27084783 0.04759868 0.100783825
0.025737 -0.036071565 -0.01676196 -0.00095679314 0.01437598 -0.08898039 -0.10865815 0.045954753
-0.04941186 -0.09036667 -0.016234742 0.075227305 0.09970706 0.18380176 -0.04676618 -0.029969934
-0.14176358 -0.033161256 0.22028485 -0.06577803 -0.0032261813 -0.098180525 0.003346565 0.009927977
-0.09143114 -0.091125906 0.20992526 -0.07294893 -0.033236437 -0.058958285 0.0045107533 -0.14402744
0.05095475 -0.103405595 -0.09675082 -0.025073033 0.01514209 -0.116604425 -0.16972522 -0.058033604
0.028835071 -0.12819804 0.11973093 0.00780723 -0.029329404 -0.040266484 -0.04978577 -0.049729418
0.06814565 0.15568817 0.023318857 -0.023613315 -0.04792302 0.13644631 0.084248364 0.11237134
0.11994703 -0.09589627 -0.003631085 0.032959346 0.09998628 -0.01341404 0.38546285 -0.13313867
-0.062458087 0.0444201 0.39004472 0.278023 -0.03722571 -0.06421161 -0.16530539 0.008154983
0.030373033 -0.009115487 -0.06669518 -0.04668504 0.0055696694 0.18015358 -0.071505345 -0.08168676
0.161074 0.10378306 0.0062726834 0.021713959 0.11130203 -0.08645744 0.069198795 0.08049075
-0.016544076 0.07296006 -0.005715521 -0.13173842 0.006864525 -0.09444845 -0.2389108 0.09365509
0.04850767 -0.13239726 -0.18039526 0.04339081 0.0015259299 -0.092121735 -0.09221565 0.035244245
0.028964303 0.039096884 0.0054965774 -0.007556855 0.07964807 -0.110474065 -0.039935675 -0.025159912
0.10569122 0.14618325 -0.06043711 -0.12713131 0.005503874 -0.07345809 0.015248232 -0.019751813
0.047158144 -0.004359671 0.036270507 0.07847614 0.110637225 -0.110097386 0.018881878 0.052509755
-0.054873254 0.04810264 0.11615361 0.03531004 -0.028310277 -0.022193758 -0.110518664 0.12571844
-0.049736172 -0.07788578 -0.04882793 -0.052737746 0.24778326 0.049425803 -0.0056478586 -0.17325997
0.12160572 0.049318023 0.10738195 0.04260602 0.04482656 -0.064504 -0.38775453 -0.09644052
-0.029846335 -0.019057633 -0.0903459 -0.06591368 0.3345093 0.09228407 0.048870653 0.06314253
-0.06858787 0.098198734 -0.06723359 -0.07201866 -0.09532203 0.12570842 -0.016987277 0.08880605
0.21467419 -0.00077680475 -0.17097838 0.070547424 0.072583474 -0.0021452075 -0.06142437 0.040870752
-0.057453085 -0.06345385 0.050987396 -0.061664145 0.003236133 -0.129106 0.0730138 0.067407794
00000000: 4c87 bf3d 2d4e b6bd 00bd 3a3d ab86 883d
00000010: 2217 dc3b 4996 cebd b0ca 763e b07e c43c
00000020: 9066 10bd f5b2 863e 474a 1a3e dc32 803e
00000030: 1118 fabd 6480 9ebd 6bc0 cbbd 3020 023e
00000040: 2d46 753b 4503 4b3d 484b d63d f464 223c
00000050: 4817 e03d f5d8 8ebb ed95 a4bd 8b2e 183d
00000060: c8dd 06bd d9be 473e 23a6 9bbc 4383 0e3d
00000070: b702 753d 6d8d 02bc 7e07 f7bc fa87 fb3d
00000080: 8d28 c2bc 83ca ad3d d132 383d 0a50 83bd
00000090: 627e a63d 7ec3 113d cc78 60bd 93e9 9fbd
000000a0: e257 b9bd 04fb aabd 5358 2bbd 3864 23bd
000000b0: 73c6 20be fb33 d93c 2c4b bd3c 625d cd3d
000000c0: 8665 d53d 9f8b 043e 5dc1 92bd 74a3 70bc
000000d0: 0d7d 673b d248 ad3d 9fc9 da3c 40ad 033e
000000e0: 8ce5 893d ebaa 92bd 03d0 bb3d 2511 9f3d
000000f0: cb23 193c bf5f ae3d bf60 07bd b378 7ebe
00000100: 3597 f1bd 7020 68be e3bd b2bc 13dc 0bbe
00000110: 4650 3c3d 91ac 8abe d5f6 423d c067 ce3d
00000120: 67d6 d23c c7bf 13bd 6150 89bc 4dd1 7aba
00000130: 3b89 6b3c 5a3b b6bd 2a88 debd 0d3b 3c3d
00000140: 1764 4abd 2912 b9bd b9fe 84bc c610 9a3d
00000150: 3733 cc3d 8736 3c3e e58d 3fbd 8283 f5bc
00000160: 792a 11be 19d4 07bd 5a92 613e a2b6 86bd
00000170: 576e 53bb df12 c9bd 0b52 5b3b f4a8 223c
00000180: 4040 bbbd 38a0 babd a6f6 563e 4066 95bd
00000190: ee22 08bd 3e7e 71bd f1ce 933b ee7b 13be
000001a0: eeb5 503d 50c6 d3bd 4b25 c6bd f665 cdbc
000001b0: 8716 783c 4dce eebd 73cc 2dbe a5b4 6dbd
000001c0: 8737 ec3c 5946 03be 7d35 f53d cbd3 ff3b
000001d0: 3844 f0bc 78ee 24bd 2aec 4bbd 13b1 4bbd
000001e0: f28f 8b3d b86c 1f3e 3007 bf3c b670 c1bc
000001f0: ee4a 44bd 95b8 0b3e 688a ac3d f222 e63d
00000200: caa6 f53d 4365 c4bd 7ff7 6dbb 6100 073d
00000210: 9bc5 cc3d 90c6 5bbc 635b c53e 8155 08be
00000220: 0dd4 7fbd daf1 353d f1b3 c73e 0859 8e3e
00000230: fc79 18bd 6081 83bd d145 29be 7a9c 053c
00000240: ded0 f83c 2059 15bc 7c97 88bd d038 3fbd
00000250: c681 b63b 2e7a 383e 6571 92bd 634b a7bd
00000260: 95f0 243e 378c d43d 158b cd3b 79e1 b13c
00000270: 52f2 e33d 9910 b1bd 19b8 8d3d 56d8 a43d
00000280: 7187 87bc 156c 953d 4449 bbbb 70e6 06be
00000290: cfef e03b 306e c1bd 08a5 74be 3dce bf3d
000002a0: fbaf 463d 2693 07be 89b9 38be 90ba 313d
000002b0: b601 c83a 52aa bcbd 8fdb bcbd 455c 103d
000002c0: 8c46 ed3c 0e24 203d a21c b43b 7f9f f7bb
000002d0: 871e a33d 3a40 e2bd 9793 23bd 291c cebc
000002e0: a374 d83d 10b1 153e e78c 77bd b62e 02be
000002f0: d759 b43b 3271 96bd b8d3 793c 8ece a1bc
00000300: e628 413d 92db 8ebb 6290 143d 19b8 a03d
00000310: c595 e23d bd7a e1bd 2bae 9a3c 7814 573d
00000320: c7c2 60bd 4607 453d f2e1 ed3d 43a1 103d
00000330: f4ea e7bc afcf b5bc 9c57 e2bd 56bc 003e
00000340: 28b8 4bbd 9482 9fbd ccff 47bd 8903 58bd
00000350: e5ba 7d3e b672 4a3d ac11 b9bb 106b 31be
00000360: 6b0c f93d b201 4a3d 11eb db3d a683 2e3d
00000370: 0e9c 373d ac1a 84bd c387 c6be 9b82 c5bd
00000380: 4d80 f4bc c11e 9cbc 4507 b9bd c0fd 86bd
00000390: ce44 ab3e 6eff bc3d 982c 483d df50 813d
000003a0: cc77 8cbd 6b1c c93d c4b1 89bd 857e 93bd
000003b0: 3238 c3bd b5b9 003e e728 8bbc f2df b53d
000003c0: 8dd3 5b3e 7ca2 4bba f514 2fbe 2b7b 903d
000003d0: a5a6 943d 9c96 0cbb 1f98 7bbd 1768 273d
000003e0: ed53 6bbd 18f4 81bd 29d8 503d 8b93 7cbd
000003f0: 4d15 543b 5d34 04be 4288 953d 190d 8a3d

conv2.bias f4 [4]
-0.14303264 -0.069557264 -0.121237084 0.2248578
00000000: 2677 12be 0a74 8ebd 264b f8bd 2041 663e

conv2.lin.weight f4 [4, 128]
-0.13720962 0.04557152 0.30008158 0.11743696 -0.476645 0.4727408 0.19327566 -0.31360325
-0.25256455 -0.18291834 -0.76058686 0.30075967 -0.34439865 0.40947804 -0.3571855 -0.006572767
0.19912632 0.4093165 -0.8478198 -0.23628548 -0.020346284 0.13197237 -0.12956436 -0.5971234
-0.24956234 0.13280976 -0.16475007 0.0582567 0.2377628 -0.5274977 0.15652639 0.28887472
0.32451972 -0.80580753 0.35920665 0.005947607 0.37198296 -0.18647158 0.06738488 -0.47568604
-0.029206363 -0.13468862 0.028992591 0.3075461 0.32388985 0.2586633 0.044765938 -0.3705936
-0.5173781 -0.0847776 -0.68754214 -0.32591844 0.12592742 0.17129453 -0.21791063 -0.1582502
0.2471025 -0.6380018 0.27446032 0.28456083 0.37479872 0.17797229 -0.34657466 0.13851148
0.18401548 0.10917187 0.21149436 0.051889222 0.18875651 0.35771585 -0.75081426 -0.04843721
0.047127116 0.5734001 -0.0025809766 -0.3815034 -0.28525838 0.1298703 0.24544077 0.20907053
-0.7211659 0.11544394 -0.3948911 -0.35330757 0.32307774 -0.48551616 0.40725815 -0.11750818
0.36313733 0.006717032 -0.2637538 -0.1913343 0.18639629 0.2687547 0.66622347 -0.06261868
0.12409627 0.22883777 0.39657617 0.32551298 0.34347194 0.4077526 -0.35487357 -0.57518387
-0.3024872 -0.6306497 -0.48343036 -0.10934022 -0.55066854 0.31456274 0.17029727 -0.015701586
0.16801074 0.27947354 -0.2704395 0.39259976 -0.4082434 -0.4697711 -0.18683988 -0.5576849
-0.38473538 0.0106390575 -0.073064566 -0.30643842 -0.29562676 0.3310464 -0.13380495 -0.25569403
-0.47263715 -0.030349366 0.38257742 0.3916466 0.23463674 -0.7200859 -0.07581343 0.18039681
0.22848035 -0.088005744 -0.29553878 -0.4973525 0.19977069 -0.43525502 0.096266 0.2614685
0.26471364 -0.05762379 0.31193817 0.48387676 -0.22733517 0.04201516 -0.4862854 0.14088626
-0.053608183 0.17520411 -0.3506968 0.2469415 -0.5784196 0.5121228 -0.25889125 0.47216797
0.14646706 0.39743826 -0.5872284 -0.56431085 -0.7639948 -0.35342395 -0.01266335 -0.38484564
0.013453424 0.13569885 -0.38784128 -0.6105328 0.045171794 0.1274542 -0.31142166 0.05092179
-0.15769708 0.54279137 -0.081234716 0.13703036 -0.20671038 0.21024917 0.26816988 -0.7664473
-0.8051633 -0.38494992 0.31616542 0.33000574 0.17446406 0.23185179 -0.16193078 0.33254534
0.40271 -0.007815716 -0.25111073 -0.11202353 0.21656607 -0.11337914 -0.05795603 0.022629118
-0.466451 -0.53965896 0.22818367 0.11643971 -0.34106976 -0.7664878 -0.04099467 0.026193742
0.31482047 0.25420952 0.10892655 0.5243626 0.2169607 -0.35046554 -0.6552372 0.4569103
-0.35620573 0.09429056 0.42572883 0.3810249 0.20172493 -0.20469917 -0.58247 -0.4287594
0.3754705 -0.5175705 -0.44330376 0.16575247 -0.5525774 0.11011904 0.15511838 0.4908116
-0.6923644 -0.011558845 -0.13945538 0.30249807 0.36245003 -0.93707454 -0.6454712 -0.40938184
0.20270914 -0.5013161 0.42000598 -0.1496263 0.32640934 -0.46329156 0.21289621 -0.56051
-0.024247497 -0.24928766 -0.17739588 -0.4329838 0.24384485 -0.166841 -0.26237163 0.09461929
00000000: ae80 0cbe 34a9 3a3d 4ba4 993e ca82 f03d
00000010: d00a f4be 150b f23e 0eea 453e 9b90 a0be
00000020: 2450 81be f24e 3bbe d2b5 42bf 2cfd 993e
00000030: 0555 b0be 1ba7 d13e 05e1 b6be 5e60 d7bb
00000040: c5e7 4b3e ef91 d13e b80a 59bf d2f4 71be
00000050: 40ad a6bc c423 073e 85ac 04be 14dd 18bf
00000060: 458d 7fbe 48ff 073e 3eb4 28be 949e 6e3d
00000070: 1778 733e 170a 07bf 7448 203e 63e7 933e
00000080: 7327 a63e 6749 4ebf efe9 b73e 25e4 c23b
00000090: 8d74 be3e 68f2 3ebe 1501 8a3d 1f8d f3be
000000a0: 2f42 efbc d0eb 09be df81 ed3c af76 9d3e
000000b0: e4d4 a53e 846f 843e 7d5c 373d 72be bdbe
000000c0: e472 04bf e19f adbd c302 30bf c8de a6be
000000d0: 1ef3 003e d567 2f3e f723 5fbe 570c 22be
000000e0: 7008 7d3e 1654 23bf 1086 8c3e f5b1 913e
000000f0: 9ee5 bf3e 5e3e 363e 3c72 b1be f4d5 0d3e
00000100: 8e6e 3c3e 8095 df3d fa91 583e cb89 543d
00000110: 6349 413e 8826 b73e 5d35 40bf 1966 46bd
00000120: 5d08 413d 59ca 123f 9a25 29bb 6a54 c3be
00000130: 630d 92be b8fc 043e d354 7b3e 9616 563e
00000140: 549e 38bf df6d ec3d 2b2f cabe bbe4 b4be
00000150: 726a a53e 9395 f8be 2484 d03e 21a8 f0bd
00000160: 23ed b93e 8c1a dc3b bd0a 87be 24ed 43be
00000170: abde 3e3e 379a 893e 9f8d 2a3f 393e 80bd
00000180: 2f26 fe3d 7354 6a3e 080c cb3e a3a9 a63e
00000190: 8edb af3e f3c4 d03e fdb1 b5be 403f 13bf
000001a0: 9adf 9abe 4272 21bf 2f84 f7be c4ed dfbd
000001b0: 9df8 0cbf 5e0e a13e 6862 2e3e 9da0 80bc
000001c0: 020b 2c3e 2817 8f3e 0c77 8abe d602 c93e
000001d0: 4705 d1be d685 f0be f452 3fbe 70c4 0ebf
000001e0: 09fc c4be 714f 2e3c e0a2 95bd 7fe5 9cbe
000001f0: 645c 97be ea7e a93e 2a04 09be 54ea 82be
00000200: 7ffd f1be 3c9f f8bc 30e1 c33e e785 c83e
00000210: 9d44 703e 8d57 38bf 1244 9bbd f1b9 383e
00000220: c1f6 693e 5b3c b4bd dc50 97be fda4 febe
00000230: b090 4c3e bfd9 debe 1c27 c53d 33df 853e
00000240: 8c88 873e ec06 6cbd 5cb6 9f3e b2be f73e
00000250: 8dca 68be 1718 2c3d 66fa f8be 7d44 103e
00000260: 4194 5bbd b568 333e 888e b3be 3cde 7c3e
00000270: 4f13 14bf 7b1a 033f 658d 84be 00c0 f13e
00000280: 76fb 153e 077d cb3e 9a54 16bf ad76 10bf
00000290: 2a95 43bf fcf3 b4be f179 4fbc 7d0a c5be
000002a0: c06b 5c3c a4f4 0a3e 2293 c6be e14b 1cbf
000002b0: 0f06 393d 5b83 023e a972 9fbe 5e93 503d
000002c0: 587b 21be 60f4 0a3f 635e a6bd b051 0c3e
000002d0: e3ab 53be 8f4b 573e 904d 893e e435 44bf
000002e0: 2f1f 4ebf 2818 c5be 6fe0 a13e 83f6 a83e
000002f0: b5a6 323e 8e6a 6d3e 2fd1 25be 6243 aa3e
00000300: 0130 ce3e 7d0d 00bc 9691 80be 986c e5bd
00000310: 7fc3 5d3e 5333 e8bd 4d63 6dbd b360 b93c
00000320: aad2 eebe 1727 0abf fba8 693e f177 ee3d
00000330: b2a0 aebe 8b38 44bf 07ea 27bd 4294 d63c
00000340: 2630 a13e c027 823e e214 df3d a13c 063f
00000350: f22a 5e3e 3870 b3be a0bd 27bf 26f0 e93e
00000360: 9960 b6be 691b c13d 21f9 d93e b215 c33e
00000370: fb90 4e3e a99c 51be c11c 15bf 5a86 dbbe
00000380: ab3d c03e 807f 04bf b6f8 e2be 04bb 293e
00000390: b675 0dbf 1786 e13d 5ad7 1e3e a84b fb3e
000003a0: cb3e 31bf 4f61 3dbc 64cd 0ebe 07e1 9a3e
000003b0: 0d93 b93e 1ee4 6fbf 9a3d 25bf 7f9a d1be
000003c0: fc92 4f3e 4056 00bf 060b d73e a337 19be
000003d0: 201f a73e 8d34 edbe 7701 5a3e 957d 0fbf
000003e0: b0a2 c6bc 4445 7fbe 44a7 35be 0db0 ddbe
000003f0: 77b2 793e 5ed8 2abe 9355 86be c2c7 c13d
