my_gtn/experiment_logs/model_exp_107.pt (torch, 89497 bytes, 4 tensors)

conv1.bias f4 [64]
0.11552332 0.2379856 0.092595086 0.07844743 0.121960275 0.28258404 0.26849735 0.16940029
0.16943836 0.12152649 0.336441 0.18103163 0.22028726 0.25163174 0.1227605 0.05653258
0.18325867 0.17162822 0.05545255 0.12440077 0.3196108 0.08233773 0.09015077 -0.1621155
0.096539006 0.07784136 -0.020528099 -0.0048704967 0.041848026 0.10216401 0.07740967 0.054261874
0.12143137 0.1363372 0.2427805 0.24292256 0.1833352 0.10794484 0.038404573 0.087315165
0.18667951 0.11152513 0.01154161 0.27759272 0.20798123 -0.0019330627 0.081837624 0.058313318
0.24347828 0.11254715 0.101943225 0.21787475 0.2865077 0.1978246 0.12797768 0.20797548
0.31719038 0.09118538 0.122316055 0.052985113 0.24519414 0.21111399 0.0024936046 0.2648473
00000000: 7e97 ec3d 7fb2 733e 7ea2 bd3d 0ca9 a03d
00000010: 4fc6 f93d dbae 903e 7c78 893e 4577 2d3e
00000020: 4081 2d3e e1e2 f83d ff41 ac3e 5b60 393e
00000030: fc92 613e e0d5 803e db69 fb3d b58e 673d
00000040: 29a8 3b3e 4fbf 2f3e 3722 633d d5c5 fe3d
00000050: 07a4 a33e afa0 a83d f8a0 b83d 9b01 26be
00000060: 3eb6 c53d 4a6b 9f3d 8b2a a8bc b098 9fbb
00000070: d668 2b3d 5d3b d13d f688 9e3d b341 5e3d
00000080: 03b1 f83d fb9b 0b3e 749b 783e b1c0 783e
00000090: 39bc 3b3e 2f12 dd3d 1d4e 1d3d 4bd2 b23d
000000a0: ea28 3f3e 4a67 e43d 0519 3d3c a220 8e3e
000000b0: 08f9 543e d25e fdba 7c9a a73d f2d9 6e3d
000000c0: 5f52 793e 1f7f e63d 9cc7 d03d 8f1a 5f3e
000000d0: 23b1 923e 8892 4a3e 950c 033e 86f7 543e
000000e0: c766 a23e 67bf ba3d d780 fa3d eb06 593d
000000f0: 2c14 7b3e 442e 583e be6b 233b 119a 873e

conv1.lin.weight f4 [64, 334]
0.02585319 0.04128151 0.047125027 0.091329046 0.003598068 -0.0030519739 0.0044711954 -0.003136821
0.12563743 -0.027964668 -0.073775925 -0.01997247 0.049378004 0.024885688 -0.11029073 -0.051980827
-0.0034704942 -0.021504778 -0.06986667 -0.0074722786 -0.013252572 -0.02450167 -0.06222323 -0.013868927
0.057566706 0.008108643 0.03371756 0.029950446 -0.03756633 0.009259674 -0.06146908 -0.025559476
0.15133853 -0.07851254 -0.020210044 0.1469122 0.030885367 0.054480594 0.12613347 0.16068134
0.23084676 0.05814755 -0.06906493 -0.033685952 0.033974078 -0.04147182 0.07427462 -0.15592274
-0.0718528 0.021284714 -0.016158022 -0.00034428522 -0.020583488 -0.043368652 0.010115299 -0.15554743
0.019638183 -0.020280445 0.006069012 0.029460005 -0.05991982 0.07424205 0.10516423 -0.27795163
-0.21289997 -0.14154208 -0.15700589 -0.014385684 0.044360496 -0.006147569 -0.037627675 -0.07510085
-0.2246069 0.054882042 -0.060265545 -0.035236616 0.1693729 -0.122245796 -0.05337017 -0.056150537
-0.066597275 0.1839216 0.04486388 0.101464115 -0.009106297 -0.036686778 -0.38482913 0.082541965
-0.16461787 0.06662921 0.018430276 -0.0006688333 -0.1821267 -0.0063600997 0.08864895 -0.03226633
0.0009968086 0.11725304 -0.025188206 0.046525847 -0.01866797 0.10646686 -0.0908776 -0.19724582
0.13266565 0.14978634 0.0484319 0.04795963 -0.040581033 0.09050206 -0.045785073 -0.06634434
0.10423623 -0.12733442 -0.095911436 0.012103306 0.026491975 -0.014046402 0.12748761 -0.050702535
-0.015651733 0.02151839 -0.14614432 0.07498227 0.06376006 0.024937604 0.0916909 0.14370778
-0.046342526 -0.062505774 -0.12724689 0.13421327 0.11145943 -3.5067824e-05 -0.054403126 0.2898629
0.073837355 -0.07300737 -0.04077469 0.019927654 -0.08807681 -0.13830592 0.07874486 -0.024281064
0.01701164 -0.026843067 0.05355797 0.04102949 0.17167783 0.107918784 0.037627596 0.078638874
0.04253994 -0.026800517 -0.037870288 0.0047843303 -0.066340856 -0.0083423285 -0.041371837 -0.1319761
-0.045682784 0.021086697 -0.19552393 0.11471309 -0.08401865 -0.12656131 -0.030804953 -0.14764999
0.09577332 -0.002823011 -0.43773535 -0.11364583 0.016439538 -0.061125528 0.096991114 -0.054032918
-0.14278957 0.04794617 0.021021068 0.0074136583 -0.04063625 0.20063731 -0.11095132 -0.11243809
-0.026397003 -0.030828875 0.11659722 -0.030161295 0.16012937 -0.16014573 0.06627158 0.023759635
-0.03704367 -0.0057043293 -0.1272978 0.024713324 0.02300735 -0.023105016 0.0063837813 -0.020742685
-0.0758335 -0.09174046 -0.038163017 0.05082516 -0.013805972 0.0058582216 -0.18272842 -0.027165754
0.11849402 -0.18218465 0.015034106 -0.024894582 0.05043562 -0.07978877 -0.063165605 -0.006032471
-0.00016781752 -0.04553267 -0.029489601 0.015043817 -0.05906948 -0.0049016755 0.1334105 -0.0055161132
0.10793155 -0.062409308 0.028432122 -0.10788817 0.021709796 0.20563681 -0.0018084876 0.102530494
0.056919802 0.09532625 -0.21077314 -0.05810582 0.23240742 0.053491004 0.039214965 0.03644623
0.10178205 0.13599204 0.4070725 0.025169957 -0.019901993 -0.08823009 -0.2848242 0.09416566
-0.12485823 0.00533528 0.011003147 -0.112790465 -0.0019661174 0.27367902 0.237062 0.053133726
00000000: 12ca d33c cd16 293d 2c06 413d b90a bb3d
00000010: 90cd 6b3b a003 48bb 1b83 923b 2093 4dbb
00000020: 19a7 003e 2916 e5bc d517 97bd 4e9d a3bc
00000030: 9740 4a3d 12dd cb3c 1be0 e1bd d9e9 54bd
00000040: 3b71 63bb ca2a b0bc 4216 8fbd 04da f4bb
00000050: 5121 59bc bab7 c8bc c9dd 7ebd 7f3a 63bc
00000060: 11cb 6b3d 1dda 043c 6d1b 0a3d a35a f53c
00000070: 27df 19bd e3b5 173c 01c7 7bbd 1b62 d1bc
00000080: 7df8 1a3e 2fcb a0bd 898f a5bc 2770 163e
00000090: 4f03 fd3c 0b27 5f3d 2229 013e a689 243e
000000a0: 1863 6c3e 202c 6e3d ea71 8dbd 48fa 09bd
000000b0: 6728 0b3d 5bde 29bd 4b1d 983d 36aa 1fbe
000000c0: 9027 93bd 485d ae3c d45d 84bc 2e81 b4b9
000000d0: b49e a8bc 54a3 31bd a4ba 253c d347 1fbe
000000e0: 41e0 a03c 2d23 a6bc 90de c63b 1c56 f13c
000000f0: 7c6e 75bd 370c 983d 5860 d73d ad4f 8ebe
00000100: 7302 5abe 68f0 10be 27c6 20be efb1 6bbc
00000110: 5ab3 353d 8c71 c9bb 7a1f 1abd 79ce 99bd
00000120: 5aff 65be fecb 603d 01d9 76bd 4554 10bd
00000130: 1770 2d3e 015c fabd ae9a 5abd 1bfe 65bd
00000140: 2764 88bd f255 3c3e 30c3 373d 6bcc cf3d
00000150: 9432 15bc e044 16bd 5308 c5be c30b a93d
00000160: 9691 28be e574 883d 17fb 963c a554 2fba
00000170: 6c7f 3abe 6268 d0bb 958d b53d b329 04bd
00000180: 59a7 823a 5d22 f03d 7f57 cebc e391 3e3d
00000190: 92ed 98bc 4c0b da3d 091e babd cffa 49be
000001a0: 81d9 073e 9761 193e 8760 463d 5171 443d
000001b0: 4c38 26bd 2559 b93d 2189 3bbd 8bdf 87bd
000001c0: ce79 d53d f463 02be 376d c4bd f24c 463c
000001d0: b305 d93c e122 66bc 1d8c 023e 76ad 4fbd
000001e0: 1038 80bc 5647 b03c dba6 15be 4e90 993d
000001f0: a294 823d f249 cc3c 70c8 bb3d 2228 133e
00000200: a9d1 3dbd 0703 80bd 024d 02be 346f 093e
00000210: d744 e43d ca15 13b8 d0d5 5ebd e968 943e
00000220: 0a38 973d e384 95bd 5d03 27bd 523f a33c
00000230: 9d61 b4bd 11a0 0dbe fc44 a13d 15e9 c6bc
00000240: ff5b 8b3c fee5 dbbc 9a5f 5b3d 8a0e 283d
00000250: 50cc 2f3e 8604 dd3d 651f 1a3d 6b0d a13d
00000260: 5c3e 2e3d c28c dbbc e01d 1bbd dfc5 9c3b
00000270: b7dd 87bd 43ae 08bc 8475 29bd be24 07be
00000280: df1d 3bbd 02be ac3c 6d37 48be b2ee ea3d
00000290: f811 acbd 4a99 01be ab5a fcbc 8f31 17be
000002a0: cd24 c43d 4402 39bb d91e e0be 25bf e8bd
000002b0: 36ac 863c c35e 7abd 47a3 c63d 9f51 5dbd
000002c0: 6e37 12be 3463 443d 6034 ac3c 46ee f23b
000002d0: 3272 26bd de73 4d3e 723a e3bd f145 e6bd
000002e0: 873e d8bc d68c fcbc 86ca ee3d d214 f7bc
000002f0: f4f8 233e 3efd 23be 65b9 873d 91a3 c23c
00000300: 1abb 17bd 62eb babb 5b5a 02be 9973 ca3c
00000310: e979 bc3c bb46 bdbc 0a2f d13b 90ec a9bc
00000320: 984e 9bbd 6ce2 bbbd d350 1cbd 0b2e 503d
00000330: 7232 62bc 53f6 bf3b 291d 3bbe b78a debc
00000340: feac f23d 9d8e 3abe 9c51 763c b9ef cbbc
00000350: 9595 4e3d 4b68 a3bd f85c 81bd 09ac c5bb
00000360: 2cf8 2fb9 7780 3abd 2d94 f1bc 587a 763c
00000370: d7f2 71bd 3c9e a0bb c39c 083e 83c0 b4bb
00000380: 370b dd3d e7a0 7fbd 7bea e83c 79f4 dcbd
00000390: bed8 b13c 7592 523e c60a edba 82fb d13d
000003a0: bd24 693d 693a c33d ead4 57be 5e00 6ebd
000003b0: 36fc 6d3e 6219 5b3d df9f 203d a448 153d
000003c0: 1c73 d03d 7f41 0b3e cf6b d03e 3a31 ce3c
000003d0: 8109 a3bc fab1 b4bd 7ad4 91be edd9 c03d
000003e0: acb5 ffbd 93d3 ae3b 8b46 343c b0fe e6bd
000003f0: fad9 00bb a81f 8c3e 62c0 723e c0a2 593d

conv2.bias f4 [4]
-0.4788393 -0.15474853 0.06634801 0.59978694
00000000: 6d2a f5be 6676 1ebe 77e1 873d a38b 193f

conv2.lin.weight f4 [4, 64]
-0.5654205 0.43971968 -0.01737934 -0.46684027 -0.38015807 0.2861579 -0.79362315 0.41191867
-0.17353262 0.27331054 0.35256672 -0.3970158 0.03908051 -0.6859859 -0.07129389 0.06781733
0.22039285 -0.3189802 -0.33902678 0.45209894 0.43165517 -0.5351876 0.29629958 0.14215
0.37156728 -0.13204111 0.31260872 -0.101222664 0.058669142 0.5200642 0.3009531 0.42859423
-0.4000339 0.51213276 -0.7243269 0.0029450126 0.2572806 -0.66092056 -0.077632345 0.6385495
0.39978015 0.33915874 -0.37107703 0.5553942 -0.51404226 -0.2989276 0.31931946 0.55612195
-0.6014372 0.24382274 -0.072429605 -0.52801996 0.3662509 -0.67596793 0.4679854 0.4447142
-0.8326412 0.22206444 0.021217661 -0.4732021 -0.19948606 -0.35149938 0.5810011 -0.48508796
-0.5745665 -0.6309535 0.41175053 -0.5034041 0.5917878 -0.8862163 -0.43327558 -0.47597492
0.24512947 -0.42942694 -0.88127226 0.29327443 -0.75598556 0.35884845 0.3708955 0.12742132
0.57623464 0.43492687 0.70108294 0.2810907 -0.36124182 0.5319132 -0.41049662 -0.09122113
-0.45778665 0.042333756 0.07205549 0.363597 0.24783626 -0.5501592 0.46668297 0.3411943
0.4082781 -0.683022 0.3842039 -0.0051618107 0.24303573 0.85247916 0.5731241 0.077270925
-0.39491734 0.30131635 0.084468104 -0.5820133 -0.49138448 0.3762543 0.30111226 -0.11656787
0.10818996 0.06610627 -0.24169418 -0.4784437 0.23095086 -0.05683776 -0.17925957 -0.72828925
0.022588858 -0.024118574 -0.7763675 0.45282072 -0.027902383 0.46522212 -0.2401295 0.3410173
0.049128085 0.562263 -0.6150491 0.18390626 0.41618276 0.37073034 0.7614896 -0.7738463
0.5906699 -0.27142686 0.51254964 -0.8034799 0.8392743 0.40303278 -0.6011002 -0.7974978
-0.118952155 0.46724075 -0.15793116 -0.47240758 0.4306974 -0.85137886 -0.46556127 -0.041868713
-0.90944946 -0.69051033 -0.24530932 -0.13799684 -0.5670524 -0.6822811 -0.86910975 -0.7899423
-0.8979872 -0.6626353 0.2818862 0.64399946 -0.1600186 -0.47109303 -0.88306797 -0.5984727
0.19970177 -0.4530661 0.6627072 0.5364161 0.3641369 0.05278764 -0.70658064 -0.7046938
0.59891564 -0.7166761 -0.2723617 0.69344974 0.33518207 0.6049903 -0.24506986 -0.09926577
0.3965394 -0.61831975 -0.38823384 0.24640422 0.59588826 0.48325208 -0.3224201 0.5008136
0.63091666 -0.7606983 -0.5752138 0.7862578 -0.47303578 0.26196817 0.058600128 0.61585695
-0.5877445 0.59085685 0.18805069 0.35816044 -0.49695274 0.21900918 0.02120949 0.48121563
-0.8774436 -0.6632469 -0.28423256 -0.8185973 -0.68331087 0.43296766 0.20036441 0.023359993
0.36676702 0.58819294 -0.09896398 -0.07637432 -0.4858422 0.15702759 0.2647332 -0.35683367
0.62022674 0.5216336 0.40014926 -0.59916484 -0.8187453 0.17022264 -0.60278606 -0.40035883
-0.44016278 -0.7093444 -0.3172606 -0.49500063 0.43082875 -0.47113422 -0.17693649 -0.8022874
-0.676535 0.6461281 0.76708746 0.4239295 -0.818366 0.07027015 -0.5977763 0.38529912
0.4626959 0.26363507 0.44879323 -0.51177704 -0.800748 -0.4819236 -0.10562091 0.04615812
00000000: 66bf 10bf f022 e13e 1e5f 8ebc b005 efbe
00000010: 14a4 c2be 4a83 923e e32a 4bbf 01e7 d23e
00000020: 89b2 31be 5cef 8b3e a083 b43e a845 cbbe
00000030: e312 203d c69c 2fbf 8802 92bd d0e3 8a3d
00000040: aaae 613e 5f51 a3be eb94 adbe 8379 e73e
00000050: e801 dd3e 0e02 09bf 94b4 973e c58f 113e
00000060: 113e be3e c935 07be 400e a03e d44d cfbd
00000070: 0e4f 703d ed22 053f 8616 9a3e b470 db3e
00000080: 3ed1 ccbe 221b 033f 7d6d 39bf 1d01 413b
00000090: 48ba 833e 1732 29bf b5fd 9ebd fb77 233f
000000a0: fcaf cc3e 37a6 ad3e cffd bdbe 502e 0e3f
000000b0: 4698 03bf 0a0d 99be d77d a33e 025e 0e3f
000000c0: caf7 19bf abac 793e f955 94bd 512c 07bf
000000d0: 3d85 bb3e 3c0c 2dbf c89b ef3e 94b1 e33e
000000e0: f927 55bf dc64 633e a9d0 ad3c 8c47 f2be
000000f0: 1346 4cbe baf7 b3be 7dbc 143f 735d f8be
00000100: ca16 13bf 2b86 21bf f7d0 d23e 17df 00bf
00000110: 687f 173f 12df 62bf 4cd6 ddbe fcb2 f3be
00000120: 3803 7b3e d9dd dbbe 0f9b 61bf 1128 963e
00000130: 4588 41bf fcba b73e 04e6 bd3e bc7a 023e
00000140: 1d84 133f bcae de3e 2c7a 333f 1feb 8f3e
00000150: b0f4 b8be 772b 083f 9d2c d2be 25d2 babd
00000160: 0363 eabe 2966 2d3d d491 933d 6329 ba3e
00000170: cac8 7d3e 3cd7 0cbf 12f1 ee3e 05b1 ae3e
00000180: d409 d13e 88da 2ebf 60b6 c43e 6824 a9bb
00000190: 5cde 783e 133c 5a3f 43b8 123f 3840 9e3d
000001a0: 9b32 cabe 2346 9a3e 9dfd ac3d d3fe 14bf
000001b0: bf96 fbbe 67a4 c03e 632b 9a3e 23bb eebd
000001c0: b392 dd3d b962 873d ae7e 77be 93f6 f4be
000001d0: 627e 6c3e b6ce 68bd d28f 37be 2a71 3abf
000001e0: 450c b93c 5194 c5bc 05c0 46bf 1ed8 e73e
000001f0: 8a93 e4bc 9831 ee3e 82e4 75be d299 ae3e
00000200: 883a 493d 78f0 0f3f dc73 1dbf ec51 3c3e
00000210: e815 d53e 5ed0 bd3e fcf0 423f cb1a 46bf
00000220: 2436 173f 76f8 8abe 7436 033f dcb0 4dbf
00000230: aeda 563f 505a ce3e b4e1 19bf d128 4cbf
00000240: 309d f3bd 2e3a ef3e b5b8 21be 68df f1be
00000250: 5f84 dc3e f7f3 59bf 0c5e eebe 877e 2bbd
00000260: aed1 68bf 49c5 30bf 5e32 7bbe 0b4f 0dbe
00000270: 592a 11bf f9a9 2ebf fa7d 5ebf a939 4abf
00000280: 7de2 65bf 78a2 29bf 6353 903e 26dd 243f
00000290: eadb 23be 1b33 f1be be10 62bf 8235 19bf
000002a0: 9f7e 4c3e 48f8 e7be 2ea7 293f 9152 093f
000002b0: 2770 ba3e da37 583d 78e2 34bf d066 34bf
000002c0: 8952 193f 1678 37bf fe72 8bbe ec85 313f
000002d0: fc9c ab3e a5e0 1a3f 98f3 7abe da4b cbbd
000002e0: 3607 cb3e 344a 1ebf 96c6 c6be 6351 7c3e
000002f0: 228c 183f d16c f73e 3f14 a5be 5235 003f
00000300: c183 213f 20bd 42bf 3641 13bf 3148 493f
00000310: bf31 f2be b120 863e b006 703d cda8 1d3f
00000320: 6c76 16bf 6542 173f 5c90 403e ce60 b73e
00000330: 9770 febe f143 603e 86bf ad3c e561 f63e
00000340: 25a0 60bf 8dca 29bf ee86 91be 988f 51bf
00000350: 76ed 2ebf f0ad dd3e 542c 4d3e 755d bf3c
00000360: e3c8 bb3e d093 163f a1ad cabd 246a 9cbd
00000370: 4fc0 f8be d7cb 203e 1c8b 873e e7b2 b6be
00000380: 2ec7 1e3f c889 053f 5de0 cc3e de62 19bf
00000390: 4b99 51bf d84e 2e3e 3050 1abf d5fb ccbe
000003a0: 045d e1be 9897 35bf fb6f a2be b970 fdbe
000003b0: 9695 dc3e 8138 f1be d72e 35be b562 4dbf
000003c0: 6631 2dbf a768 253f d85f 443f 4a0d d93e
000003d0: 6f80 51bf cce9 8f3d de07 19bf ed45 c53e
000003e0: 7ae6 ec3e 2dfb 863e 3ac8 e53e d203 03bf
000003f0: d2fd 4cbf b1be f6be c74f d8bd 4c10 3d3d
