my_gtn/experiment_logs/model_exp_053.pt (torch, 46105 bytes, 4 tensors)

conv1.bias f4 [32]
0	0x3e008760	0.12551641
1	0xbbf0b762	-0.0073460797
2	0xbc3e41a6	-0.0116123315
3	0x3e7bcb5a	0.24589291
4	0x3c91f181	0.017815353
5	0x3dc9bbf4	0.09850302
6	0x3b362f41	0.0027799162
7	0x3c63dea8	0.013908066
8	0x3ded6297	0.1159107
9	0x3e010bcf	0.12602161
10	0x3e3a3ee6	0.18188056
11	0x3df8d8e0	0.121507406
12	0x3df2639f	0.118354075
13	0x3e5fb25e	0.21845385
14	0x3dd426fc	0.10358998
15	0xbde19861	-0.11015392
16	0x3de0a7c2	0.10969497
17	0x3c69b315	0.014263888
18	0x3d8e764f	0.06956159
19	0x3de5faca	0.11229475
20	0x3e5b2a5d	0.21402879
21	0x3e4c4707	0.1994897
22	0xbbc4477b	-0.0059899664
23	0x3e74efd2	0.23919609
24	0x3d633208	0.055467635
25	0x3c3de543	0.011590305
26	0x3db88a8b	0.090108
27	0x3d371807	0.04470065
28	0x3dd50815	0.10401932
29	0x3e15172e	0.14559624
30	0x3df1566f	0.11784064
31	0x3e21844c	0.15773124

conv1.lin.weight f4 [32, 334]
0	0x3eba3eca	0.3637603
1	0x3e47e463	0.19520716
2	0x3d54bf23	0.051940095
3	0x3dad1e62	0.08453061
4	0xbdd12055	-0.10211245
5	0xbe1cea4c	-0.15323752
6	0x3e6bb047	0.23016463
7	0xbd7fb25b	-0.062425952
8	0xbcb5bba1	-0.022184195
9	0xbd547a2f	-0.051874336
10	0xbdf855b3	-0.12125721
11	0x3d8073ca	0.06272085
12	0x3ea9a57c	0.33134067
13	0xbd521cd4	-0.051297024
14	0xbd81dda7	-0.06341105
15	0x3dc17566	0.0944622
16	0xbe085693	-0.13314275
17	0xbd8fa34e	-0.0701357
18	0x3e71652f	0.23573755
19	0xbe127a58	-0.14304483
20	0x3b787898	0.0037913676
21	0x3eacff00	0.337883
22	0x3e04d07b	0.12970154
23	0x3e46bc6d	0.19407816
24	0xbdc7f9df	-0.09764456
25	0x3da7d5f3	0.081951044
26	0xbd12647d	-0.035740364
27	0x3da4ad7d	0.08040903
28	0xbd6f8dca	-0.05848483
29	0x3eb2ede3	0.34947118
30	0xbdb732c1	-0.089452274
31	0x3d546f73	0.0518641
32	0x3e85f7bf	0.26165578
33	0xbd9c9470	-0.076455
34	0xbe3a13b6	-0.18171582
35	0xbca5eb72	-0.02025387
36	0xbdf01266	-0.11722259
37	0xbcce4490	-0.025179178
38	0x3d06f3c0	0.032947302
39	0xbde3442f	-0.11096989
40	0x3eb4eb36	0.35335702
41	0x3e4a1edf	0.19738339
42	0x3ded5118	0.11587733
43	0xbdbf802b	-0.09350618
44	0xbc73f8f1	-0.014890895
45	0x3d810d6e	0.0630139
46	0xbca3e6d1	-0.020007523
47	0x3d81e88a	0.063431814
48	0xbd79c2f0	-0.060976923
49	0x3e278b44	0.1636172
50	0x3e7f45c7	0.24928962
51	0xbb7c7924	-0.0038524354
52	0x3e442ea7	0.19158421
53	0xbe064b74	-0.1311472
54	0x3d35e12e	0.0444042
55	0xbdfafba6	-0.122550294
56	0xbc485529	-0.012227335
57	0x3e5ebe48	0.21752274
58	0x3e16145e	0.14656207
59	0xbe0368e1	-0.12832977
60	0x3e0f674b	0.14004247
61	0xbd0a8167	-0.033814814
62	0xbd1191ac	-0.035539314
63	0xbe0f615a	-0.1400198
64	0xbdf5e87e	-0.12007235
65	0xbd0722ba	-0.032992102
66	0xbe0ac44d	-0.13551445
67	0x3d08b047	0.033371236
68	0xbdc2723b	-0.09494444
69	0x3c9fae03	0.019492155
70	0xbc251058	-0.010074697
71	0x3db9110e	0.09036456
72	0x3e50c4a1	0.20387508
73	0xbd17e13b	-0.03708003
74	0xbe3539fa	-0.17697898
75	0x3e1ab65b	0.15108626
76	0xbd72893d	-0.059212912
77	0xbdcf83c9	-0.10132558
78	0xbe56981e	-0.20956466
79	0xbdcbf7b8	-0.09959358
80	0x3dfa4fcc	0.12222251
81	0x3e9533f5	0.29141203
82	0x3e34cfe9	0.17657436
83	0x3e5ad52c	0.21370381
84	0x3e114592	0.14186695
85	0xbe0bf758	-0.13668573
86	0x3ca70567	0.020388318
87	0xbdb55078	-0.08853239
88	0xbe342bc6	-0.17594823
89	0x3e52adc6	0.20574102
90	0xbc95ea60	-0.018300235
91	0x3d84aa95	0.064778484
92	0xbe2d2297	-0.16907726
93	0x3e6cb29e	0.23115012
94	0x3ea27fc9	0.31738117
95	0xba52b7d0	-0.00080382545
96	0x3cd38f69	0.02582522
97	0x3e5a5a75	0.21323569
98	0x3e1cb928	0.15305007
99	0x3e1c6fe7	0.15277062
100	0x3e86a10d	0.26294747
101	0x3ec12457	0.37723038
102	0xbe35d8e1	-0.17758514
103	0xbe273844	-0.16330057
104	0x3ea9caa2	0.3316241
105	0x3e981d9c	0.2971009
106	0x3e2b1114	0.16705734
107	0xbdda9474	-0.106728464
108	0x3e58bfd3	0.21166925
109	0xbbbaa3ee	-0.0056958115
110	0x3cddcfdf	0.02707666
111	0xbd952b00	-0.07283592
112	0x3cde5e33	0.027144527
113	0xbdad59a5	-0.08464364
114	0x3e73c681	0.23806192
115	0x3e1f2d5e	0.1554465
116	0x3e11c136	0.1423386
117	0xbdaa4c6a	-0.08315356
118	0x3e48514d	0.19562264
119	0x3c835369	0.016030984
120	0xbe27ff61	-0.16406013
121	0xbd5f87ef	-0.054572996
122	0xbd8ea17f	-0.06964397
123	0xbdeac86a	-0.11464007
124	0xbdd7d072	-0.10537805
125	0x3e4a4bdc	0.197555
126	0x3dd50453	0.104012154
127	0x3e9ca7c1	0.30596736
128	0x3e193ad4	0.14963847
129	0x3c5d7ba1	0.013518245
130	0xbdbc02dc	-0.09180233
131	0xbd9ec2e9	-0.0775202
132	0xbde70f61	-0.1128223
133	0xbe025cb1	-0.12730671
134	0x3dd33dda	0.103145316
135	0x3e92689a	0.2859543
136	0x3ce129ec	0.02748581
137	0x3d5a4cc1	0.053295854
138	0x3de952e1	0.11392761
139	0x3e2b3562	0.16719583
140	0x3b4f5998	0.0031639095
141	0x3d8f2e76	0.069912836
142	0x3ebe24be	0.37137407
143	0x3d6799b6	0.056543075
144	0xbe1067ea	-0.1410214
145	0xbda0a790	-0.0784446
146	0xbd888531	-0.06666029
147	0xbdb837f1	-0.08995045
148	0x3e4519bf	0.19248103
149	0x3e9ee0bc	0.31030834
150	0x3decd4e8	0.11564046
151	0xbe38e76a	-0.18057027
152	0xbd50f411	-0.05101401
153	0x3c50fb39	0.012755209
154	0x3e079a33	0.13242416
155	0x3e8ec7f4	0.27886927
156	0x3caaae4a	0.02083506
157	0x3e7bfb38	0.24607551
158	0x3d99ce7c	0.07510087
159	0xbc81e621	-0.015856804
160	0xbd8b5075	-0.06802455
161	0xbcb69144	-0.022286065
162	0xbddbbdbc	-0.10729548
163	0x3e35d0a4	0.17755371
164	0x3dfdbad2	0.12389149
165	0x3d6c389a	0.057671167
166	0x3d514c05	0.05109789
167	0x3d743dfe	0.059629433
168	0xbdc42060	-0.095764875
169	0xbd6fe7ea	-0.05857078
170	0xbe5e75d3	-0.21724634
171	0x3e8265c6	0.25468272
172	0x3e69db97	0.22837673
173	0x3d358c23	0.044323098
174	0x3dffea36	0.12495844
175	0xbd1cd68c	-0.038290545
176	0xbcf39456	-0.029733818
177	0x3b0eef84	0.0021810243
178	0xbe027605	-0.12740333
179	0x3da061a5	0.07831124
180	0x3ca2b15f	0.019859968
181	0x3e849733	0.25896606
182	0xbdc95232	-0.09830131
183	0xbda67448	-0.08127648
184	0xbddaee75	-0.10690013
185	0xbd966272	-0.07342996
186	0x3e671878	0.22567928
187	0x3dc1d3ed	0.0946425
188	0x3e85c9ff	0.26130673
189	0xbd8fbaa5	-0.070180215
190	0xbdf8d8b4	-0.12150708
191	0x3e122e61	0.14275505
192	0x3c5eb84a	0.013593743
193	0xbda6b94c	-0.08140811
194	0x3d860d2d	0.06545482
195	0x3df0c7b2	0.11756839
196	0x3e11f058	0.1425184
197	0x3dcf4146	0.10119872
198	0x3d88ccf9	0.066797204
199	0x3e3b450a	0.18288055
200	0x3e0c6db2	0.1371372
201	0xbd50fd10	-0.05102259
202	0xbd9dbf9c	-0.07702562
203	0xbd7828eb	-0.060585897
204	0xbe6b3a93	-0.22971563
205	0x3e7ebee9	0.24877514
206	0x3d8aa3bd	0.06769512
207	0x3dab65c6	0.08369021
208	0xbe28c9d2	-0.16483238
209	0xbdd4b0ad	-0.10385261
210	0xbe67ec72	-0.2264879
211	0x3eb3a8ee	0.3508982
212	0x3e284450	0.16432309
213	0x3e0bfafd	0.13669963
214	0xbda8ed0f	-0.0824834
215	0x3cc0d82d	0.02354058
216	0x3e270b91	0.16313006
217	0x3e290a46	0.16507825
218	0x3d3b2612	0.045690604
219	0x3e5209f1	0.20511605
220	0xbd873fea	-0.066039875
221	0x3e2ea723	0.17055945
222	0x3e41aa62	0.18912652
223	0xbc408c70	-0.011752233
224	0x3ebd32f7	0.36952946
225	0xbd0bc3e3	-0.03412236
226	0xbde177e1	-0.11009193
227	0x3e80f014	0.25183165
228	0x3ea6a58e	0.32548183
229	0x3e141ac9	0.14463343
230	0x3e19ec0d	0.15031452
231	0x3e255561	0.1614585
232	0x3e01c2a4	0.12671906
233	0x3e11cce5	0.14238317
234	0xbd1b09e4	-0.03785123
235	0xbae98bda	-0.0017818168
236	0x3e86f821	0.26361182
237	0x3e6113e9	0.21980251
238	0x3e28a24a	0.16468158
239	0x3e962c84	0.29330838
240	0xbcfd37dd	-0.030910427
241	0x3e8daa8c	0.2766918
242	0x3e9978f7	0.299751
243	0x3e469f27	0.1939665
244	0xbe64a2da	-0.22327748
245	0xbe210d1d	-0.15727659
246	0xbdcefe52	-0.101071015
247	0x3c879a83	0.01655317
248	0xbe2992f5	-0.16559966
249	0xbd2d5dac	-0.04232566
250	0x3de9b22d	0.114109375
251	0xbaf37fff	-0.0018577575
252	0xbb01d287	-0.0019809322
253	0x3eb45fda	0.3522938
254	0x3e3f8cd5	0.18706067
255	0x3ddddc1e	0.10833

conv2.bias f4 [4]
0	0xbdb462e4	-0.088079244
1	0xbe4c7f40	-0.19970417
2	0x3d795a2f	0.06087702
3	0x3e843543	0.25821885

conv2.lin.weight f4 [4, 32]
0	0x3de89dce	0.11358224
1	0x3e02bd97	0.12767635
2	0xbd52dee6	-0.051482104
3	0x3e525dad	0.20543547
4	0xbe6f6414	-0.2337802
5	0xba5c3032	-0.00083995156
6	0x3e82bd83	0.2553521
7	0x3ebc9061	0.36828902
8	0x3efb409f	0.4907274
9	0xbc80b5e4	-0.015711732
10	0xbf089214	-0.533479
11	0x3ec4984b	0.3839744
12	0x3ea698d0	0.32538462
13	0xbc837d5b	-0.016050985
14	0x3ee923a8	0.45535016
15	0xbda7d896	-0.08195607
16	0xbefd3ae8	-0.49459004
17	0x3d3bf5c7	0.04588869
18	0xbea3c80a	-0.31988555
19	0xbf1eb0a2	-0.6198827
20	0xbe693d8c	-0.22777385
21	0x3e29a5f1	0.16567208
22	0xbeb0c83b	-0.34527764
23	0xbe202c28	-0.15641844
24	0x3c1a6bd3	0.009425121
25	0x3cc23932	0.023708913
26	0x3df8f62a	0.12156327
27	0xbe84d212	-0.2594152
28	0xbe4fd281	-0.20295145
29	0xbee425d9	-0.44560125
30	0xbe0ec4b0	-0.13942218
31	0x3eea001f	0.45703217
32	0xbdebafc7	-0.11508136
33	0x3cdaf3fd	0.02672767
34	0x3ed4aa3b	0.41536126
35	0x3e77a30c	0.24183291
36	0x3efab096	0.4896285
37	0x3ef34581	0.47513965
38	0x3e4bd575	0.19905646
39	0x39905f6d	0.00027536918
40	0xbf00e790	-0.50353336
41	0xbd96348c	-0.07334241
42	0x3ed5f7ec	0.41790712
43	0xbe10462e	-0.14089271
44	0x3edb9f42	0.42894942
45	0xbf0cfbaa	-0.5507151
46	0xbdfccdd3	-0.12343945
47	0x3e9f6597	0.31132194
48	0xbe8fb98a	-0.28071243
49	0xbd4df413	-0.050281595
50	0x3e6dd248	0.23224747
51	0xbebb985a	-0.36639673
52	0xbeccf46d	-0.40030232
53	0xbed6afae	-0.41930908
54	0x3f056b4c	0.5211685
55	0xbe9beb24	-0.30452836
56	0x3e58f8ad	0.21188612
57	0x3edc5036	0.43029946
58	0x3e84ed08	0.2596209
59	0xbd8dd1c2	-0.06924774
60	0x3ee29eda	0.4426182
61	0xbe824455	-0.25442758
62	0x3eca47ac	0.39507806
63	0xbebec8fa	-0.37262708
64	0x3eb86bb7	0.3601968
65	0xbec2d4c4	-0.38052952
66	0x3e930a4e	0.287188
67	0x3f223e53	0.6337635
68	0xbe6a5b40	-0.22886372
69	0xbd96e768	-0.07368356
70	0xbe8b0a19	-0.2715614
71	0x3d465f52	0.04843075
72	0xbed50174	-0.4160267
73	0x3edc46ab	0.43022665
74	0xbec21963	-0.37909994
75	0xbe914d9a	-0.28379518
76	0xbe6f1fbd	-0.23351951
77	0x3f0f629a	0.5600983
78	0x3e6b4557	0.2297567
79	0x3de280ff	0.1105976
80	0x3e16a32e	0.14710686
81	0xbed0a4b6	-0.40750664
82	0x3dd0d7af	0.101973884
83	0x3e9ff349	0.312403
84	0xbe5ff7c9	-0.21871866
85	0xbeb939c7	-0.36176893
86	0xbec0ab65	-0.37630764
87	0x3f17aed0	0.5925112
88	0x3e2f8073	0.17138843
89	0xbe3275f6	-0.17427811
90	0xbe4c992e	-0.19980308
91	0x3e8591af	0.2608771
92	0xbdae17b1	-0.085006125
93	0x3eb57774	0.35442698
94	0x3ecfd099	0.40588835
95	0xbefaaaae	-0.48958343
96	0x3f18495a	0.59486926
97	0xbeacc20b	-0.33741793
98	0xbdf648c9	-0.120256014
99	0xbdd80810	-0.10548413
100	0xbeb60de8	-0.35557485
101	0xbe9f8b6d	-0.3116106
102	0xbef72022	-0.48266703
103	0xbe36e99b	-0.17862551
104	0xbd91efdb	-0.07125827
105	0xbeb6886b	-0.35650954
106	0x3e8b8ee8	0.27257466
107	0xbe8087b5	-0.25103536
108	0xbd9ea974	-0.07747164
109	0x3e526741	0.205472
110	0xbe96b8e9	-0.2943795
111	0xbe9a6096	-0.30151814
112	0x3e9d23ef	0.30691478
113	0xbf18b75b	-0.5965478
114	0x3d9c2fef	0.0762633
115	0x3efa4dad	0.48887387
116	0x3f036c76	0.51337373
117	0xbef95714	-0.48699248
118	0x3e8b18d5	0.27167383
119	0xbeff6de5	-0.4988853
120	0xbeba078d	-0.36333886
121	0x3c9eae0c	0.019370101
122	0xbee76a81	-0.45198444
123	0xbf0cb30c	-0.54960704
124	0x3e252d9d	0.16130681
125	0x3f1330cb	0.5749633
126	0x3eefc6a0	0.46831226
127	0x3ed662d4	0.41872275
