my_gtn/experiment_logs/model_exp_150.pt (torch, 89497 bytes, 4 tensors)

conv1.bias f4 [64]
0	0x3d883ce5	0.0665224
1	0x3dc3d77f	0.09562587
2	0x3cee7b52	0.029111538
3	0x3d8f5611	0.06998838
4	0x3d5f27df	0.054481383
5	0x3dc80397	0.0976631
6	0x3dc56fc5	0.09640459
7	0x3dbbdea4	0.09173325
8	0x3d5d10ee	0.053971224
9	0x3d821c6d	0.06353078
10	0x3dc6abfe	0.09700774
11	0x3db9bd64	0.090693265
12	0x3d8eb859	0.06968755
13	0x3d8bbaa9	0.06822712
14	0x3c06f68c	0.008237492
15	0x3c8ab9e3	0.01693434
16	0x3db42611	0.08796323
17	0x3d849951	0.06474555
18	0xbc8a41b2	-0.01687703
19	0x3d89da8e	0.06731139
20	0x3dc1f8a4	0.094712526
21	0x3d43483b	0.047676306
22	0x3cc98ce0	0.024603307
23	0xbd562d2b	-0.05228917
24	0x3d4e7543	0.0504048
25	0x3db768db	0.089555465
26	0xbcdc6b5e	-0.026906665
27	0x3bee171f	0.00726594
28	0x3cd495d3	0.025950348
29	0x3dc62eaf	0.09676873
30	0x3d79da0c	0.06099896
31	0x3d1219a0	0.03566897
32	0x3d36bf4b	0.044616025
33	0x3dba758b	0.09104451
34	0x3db12226	0.086490914
35	0x3dc5c7da	0.09657259
36	0x3d7d91f9	0.06190679
37	0x3d604949	0.05475739
38	0x3d667f3b	0.05627368
39	0x3db7a960	0.089678526
40	0x3bfcfbc2	0.0077204416
41	0xbbd433de	-0.0064759096
42	0x3d112ff2	0.035446115
43	0x3d878c63	0.066185735
44	0x3dc43ca7	0.09581881
45	0x3bc905ad	0.00613471
46	0xbc0458ab	-0.008077781
47	0x3da76ecb	0.08175429
48	0x3dbf0124	0.093263894
49	0x3c779cab	0.015113036
50	0x3dbcb2d5	0.09213797
51	0x3dc57b94	0.09642711
52	0x3dc4c5cc	0.09608039
53	0x3dc4c79e	0.096083865
54	0x3ce2e9c3	0.027699357
55	0x3dc11928	0.09428626
56	0x3dbfaa60	0.09358668
57	0x3cac3ecb	0.021026036
58	0x3dbb63eb	0.09149917
59	0x3b15ca43	0.0022856153
60	0x3dc01d32	0.093805686
61	0x3c9a1dd5	0.018813053
62	0xba369321	-0.0006964673
63	0x3d813eb6	0.06310789

conv1.lin.weight f4 [64, 334]
0	0x3da9f25b	0.08298179
1	0x3dc9d465	0.09854964
2	0x3cf94524	0.030428477
3	0x3e4055dc	0.18782753
4	0xbbbbfdf2	-0.0057370597
5	0x3da8cf8e	0.08242713
6	0x3dc461d7	0.09588974
7	0x3c4a9186	0.012363797
8	0xbd09f433	-0.033680152
9	0x3d69a75b	0.05704437
10	0xbd970f65	-0.07375983
11	0x3db582af	0.088628165
12	0x3e5b1f5a	0.21398678
13	0x3cf217b1	0.029552313
14	0xbdd706d7	-0.104993515
15	0x3bf06881	0.0073366766
16	0x3be4d498	0.006983351
17	0xbdf662fa	-0.12030597
18	0xbc9286ae	-0.017886486
19	0xbd7a62a0	-0.061129212
20	0xbcbb96a5	-0.022898981
21	0x3aceee03	0.0015787486
22	0x3d1b9f2b	0.03799359
23	0xbc934bee	-0.017980542
24	0xbe21a2d3	-0.15784769
25	0x3e10e50d	0.14149876
26	0x3d8320f8	0.06402773
27	0x3e12caec	0.14335221
28	0x3d8b30c5	0.067964114
29	0x3dc2daca	0.09514387
30	0xbdcc3c30	-0.09972417
31	0x3dea8825	0.11451749
32	0x3e07e81a	0.13272133
33	0x3ccc65a9	0.02495082
34	0x3d1720a9	0.03689638
35	0x3c527066	0.012844181
36	0x3a87367c	0.001031592
37	0x3dc267d2	0.094924584
38	0x3e1d46a8	0.15358984
39	0x3beb8e33	0.0071885823
40	0x3dc79674	0.097454935
41	0xbc8cb4a7	-0.017175986
42	0x3e16e797	0.14736782
43	0x3dd4716d	0.10373197
44	0xbdb83834	-0.08995095
45	0xbdf3dc02	-0.119071975
46	0xbcebdbcb	-0.028791329
47	0x3d0ef5c7	0.03490236
48	0xbc973262	-0.018456642
49	0x3e329c14	0.17442352
50	0xbbc76dc5	-0.0060860836
51	0x3c1f2e36	0.009715607
52	0x3e5459dd	0.20737405
53	0xbdc2511b	-0.09488126
54	0x3cfb92cc	0.030709647
55	0xbd717201	-0.058946613
56	0x3dd7e9c4	0.10542634
57	0x3cc53fb8	0.024078235
58	0xbca20c6d	-0.019781316
59	0xbe0ebccf	-0.13939212
60	0x3cd4ce6a	0.025977332
61	0xbcd13e25	-0.025542328
62	0xbca88776	-0.020572405
63	0xbe298c05	-0.1655732
64	0xbc9a1801	-0.018810274
65	0xbdf6aa5f	-0.120442145
66	0xbe023074	-0.12713796
67	0xbdf0bca7	-0.117547326
68	0xbde0056e	-0.10938536
69	0xbcf01869	-0.029308515
70	0xbd53326c	-0.051561758
71	0xbcce0587	-0.02514912
72	0xbd22f7cf	-0.03978711
73	0x3de27e05	0.110591926
74	0xbd74f896	-0.059807383
75	0x3d18878f	0.037238654
76	0xbd0640da	-0.03277669
77	0xbdc97544	-0.0983682
78	0x3cd11bc3	0.025525933
79	0xbd5c4cf1	-0.053784315
80	0xbd79eb8f	-0.06101566
81	0x3b1a7c23	0.0023572526
82	0x3d2fc1b6	0.042909347
83	0x3dc25dbf	0.09490537
84	0xbc8a0e55	-0.016852537
85	0xbcbc3342	-0.02297366
86	0xbd6b1eb2	-0.05740232
87	0x3d8f12e9	0.06986029
88	0xbc4eca3c	-0.012621459
89	0xbcb1ce7c	-0.021704905
90	0xbd0bd5fe	-0.034139626
91	0xbd3c8d64	-0.046033278
92	0xbe139edb	-0.14416067
93	0x3bc9d716	0.0061596734
94	0x3e17e83e	0.14834687
95	0x3d71f43a	0.059070803
96	0xbc597cf0	-0.013274416
97	0x3dc3ce09	0.095607825
98	0x3dce8a87	0.10085016
99	0xbd3ec87e	-0.046577923
100	0x3c68ce50	0.014209345
101	0x3e55d501	0.20882036
102	0x3d4443ed	0.04791634
103	0x3be453b2	0.006967985
104	0x3d73b6a6	0.05950036
105	0x3dbd42ef	0.09241282
106	0x3e4bc015	0.19897492
107	0x3d8708ac	0.06593451
108	0x3debf7b6	0.115218565
109	0x3bb8b581	0.0056368713
110	0x3dc29a6f	0.09502112
111	0xbdbbcbf3	-0.091697596
112	0xbd1f47be	-0.038886778
113	0xbe2dc903	-0.16971211
114	0xbd371f51	-0.0447076
115	0xbb8d7079	-0.0043163863
116	0x3c30f854	0.010801394
117	0x3d41018d	0.04712062
118	0x3953e6c7	0.000202085
119	0x3e0d72a1	0.13813259
120	0x3d84c602	0.064830795
121	0x3e2e95c0	0.17049313
122	0x3cbc3581	0.022974731
123	0x3e449521	0.19197513
124	0xbcf705f0	-0.030154198
125	0x3e53509f	0.20636223
126	0xbc61ed6f	-0.013789519
127	0x3d1f1640	0.03883958
128	0x3c41d27b	0.011829968
129	0x3daa557d	0.08317087
130	0x3d4657fe	0.04842376
131	0x3d49f102	0.04930211
132	0x3bfcff4b	0.007720863
133	0x3d99f94a	0.07518251
134	0xbca83ac0	-0.020535827
135	0x3e3565b4	0.17714578
136	0x3dba5216	0.09097688
137	0xbd754fb9	-0.059890483
138	0xbd77adf7	-0.06046864
139	0x3dcd2bef	0.10018145
140	0x3e2af5b4	0.16695291
141	0x3c967bef	0.018369643
142	0x3e175586	0.14778718
143	0xbc1101bc	-0.008850511
144	0xbe030e96	-0.12798533
145	0xbdebe50f	-0.11518299
146	0xbd7600ea	-0.060059465
147	0xbd351613	-0.044210505
148	0x3db62765	0.08894233
149	0x3d855d3b	0.06511923
150	0xbd439460	-0.047748923
151	0x3cf414bb	0.029795041
152	0x3ddfe19c	0.109317034
153	0x3d345f6b	0.04403631
154	0x3ceccf0f	0.028907327
155	0x3b99612a	0.0046807723
156	0x3c975980	0.018475294
157	0xbe24e75c	-0.16103882
158	0xbd906628	-0.07050735
159	0x3e03672f	0.1283233
160	0xbd976284	-0.07391837
161	0xbd44d812	-0.048057623
162	0x3cf8d758	0.030376121
163	0x3d940222	0.07226969
164	0x3e2e1f68	0.17004168
165	0x3de91181	0.11380292
166	0x3e03a5ba	0.12856188
167	0xbd905151	-0.0704676
168	0xbdc24164	-0.094851285
169	0x3d23b2c7	0.039965417
170	0x3cb42a12	0.021992717
171	0xbb264966	-0.0025373339
172	0x3e18cba2	0.1492143
173	0xbcc75746	-0.024333607
174	0x3db110d0	0.08645785
175	0x3d293b15	0.04131611
176	0xbd504915	-0.050850946
177	0xbd573a8d	-0.052546073
178	0xbb17ccc3	-0.002316282
179	0xbdebe37f	-0.11518001
180	0xbc6b1235	-0.014347603
181	0x3d2efd61	0.04272211
182	0x3d9a99f1	0.07548893
183	0xbc87dbe9	-0.016584354
184	0x3cde1c62	0.027113143
185	0x3e056a10	0.13028741
186	0x3df08ea8	0.117459595
187	0xbccf86a1	-0.02533275
188	0x3de2a853	0.110672615
189	0xbdf1cb58	-0.11806363
190	0x3d50970d	0.050925303
191	0x3d5c4851	0.053779904
192	0x3cd01f99	0.025405692
193	0x3d72e5ff	0.059301373
194	0x3bb2a661	0.005451963
195	0x3df3fcf0	0.119134784
196	0xbd64b12e	-0.055833034
197	0xbca9eef8	-0.020743832
198	0x3ce84fe5	0.02835841
199	0x3c7be6d0	0.015374854
200	0xbd3357e2	-0.043784983
201	0x3d85d5bc	0.06534907
202	0xbe260e16	-0.16216311
203	0xbce3dd85	-0.02781559
204	0xbb92ece4	-0.004483806
205	0x3d44ac69	0.048015986
206	0x3d5eac52	0.054363556
207	0x3da2cd85	0.07949356
208	0x3d80b5a0	0.06284642
209	0xbe1551ba	-0.14581957
210	0xbd1f4d5f	-0.038892146
211	0x3e43b91a	0.1911358
212	0x3c01e718	0.007928632
213	0x3cb283eb	0.021791419
214	0xbd8e646f	-0.0695275
215	0x3d6eab2f	0.058268722
216	0xbd33cdfd	-0.043897618
217	0xba7d8523	-0.0009671023
218	0xbde506b9	-0.11182923
219	0x3e0ee234	0.13953477
220	0x3daba0f6	0.0838031
221	0x3dc2fdaf	0.095210426
222	0x3e0c471f	0.13699006
223	0xbe35b915	-0.17746384
224	0x3e492dee	0.19646427
225	0xbcc506db	-0.02405112
226	0x3d5495a5	0.051900525
227	0xbd1d8b15	-0.038462717
228	0xbb5d55db	-0.0033773098
229	0x3dbae3ca	0.091254786
230	0xbda526d7	-0.08064049
231	0xbb293e1e	-0.0025824378
232	0x3dc9aa75	0.09846965
233	0x3d9e54c0	0.077310085
234	0xbcd0d002	-0.02548981
235	0xbd847668	-0.06467897
236	0x3ddce058	0.10784978
237	0x3d3c0153	0.0458997
238	0x3d4f7e2c	0.050657436
239	0xbddfc8a5	-0.10926942
240	0x3e14e155	0.14539082
241	0xbc15098b	-0.0090965135
242	0x3de4aa92	0.11165346
243	0x3e2b0825	0.16702326
244	0x3de6e1ec	0.1127356
245	0xbe08141f	-0.13288926
246	0x3cedb173	0.029015278
247	0xbd6e72cc	-0.058214948
248	0xbdf49e34	-0.11944237
249	0x3dd614d2	0.1045319
250	0xbdb021a5	-0.08600167
251	0xbdf60053	-0.120117806
252	0xbcd1c36b	-0.025605878
253	0x3e48c24b	0.19605367
254	0x3e2db59c	0.1696381
255	0x3dd1ec4a	0.10250147

conv2.bias f4 [4]
0	0xbdbeb1b4	-0.09311238
1	0xbdbf56d8	-0.09342736
2	0x3dc196ad	0.09452567
3	0x3dc5a189	0.09649951

conv2.lin.weight f4 [4, 64]
0	0xbeaee24f	-0.34157035
1	0x3e15ae0f	0.1461718
2	0xbe12ae29	-0.1432425
3	0xbd48c2d9	-0.049013946
4	0xbdd1b332	-0.10239257
5	0x3dabdc9a	0.08391686
6	0xbec4f3e1	-0.38467315
7	0x3e52ed9c	0.20598453
8	0x3be56d49	0.007001553
9	0x3e355949	0.17709841
10	0x3ddd8ac1	0.10817481
11	0xbeaa5896	-0.3327071
12	0xbe316147	-0.17322265
13	0xbe9602cc	-0.2929901
14	0xbd916d2d	-0.07100902
15	0x3e2174e6	0.1576725
16	0x3e45995b	0.19296782
17	0xbdcc3c90	-0.09972489
18	0xbe5ebcc0	-0.2175169
19	0x3e6ccade	0.23124263
20	0x3e32e619	0.17470588
21	0xbe8aac5d	-0.27084628
22	0x3cd7b77c	0.02633261
23	0x3e848c15	0.25888124
24	0x3e4dde29	0.20104279
25	0xbcbcf0c9	-0.023064034
26	0x3e8e4ecf	0.277945
27	0x3e03e5dc	0.12880653
28	0x3cd037bd	0.025417203
29	0x3bd0eef7	0.006376143
30	0x3e902541	0.28153422
31	0x3e97132f	0.29506823
32	0xbe93894c	-0.28815687
33	0x3e7d9c38	0.24766624
34	0xbea5edeb	-0.3240808
35	0x3ccbd1a4	0.024880238
36	0x3e811deb	0.25218138
37	0xbe80aa76	-0.2513005
38	0xbdef8867	-0.116959386
39	0x3eb22d54	0.34800208
40	0x3e1baca4	0.15202576
41	0x3e51d917	0.2049297
42	0xbde99adf	-0.114064924
43	0x3e980694	0.2969252
44	0xbe852652	-0.260058
45	0xbe458a9b	-0.19291155
46	0x3e59ed3d	0.21281905
47	0x3e3c28e6	0.18374977
48	0xbe6fbc33	-0.23411636
49	0x3e4dc470	0.20094466
50	0x3dbe5ecd	0.092954256
51	0xbe2d4d9c	-0.16924137
52	0x3eb5ec5b	0.35531887
53	0xbe8692f4	-0.2628399
54	0x3e63d457	0.2224897
55	0x3e174e44	0.1477595
56	0xbeb1abc0	-0.34701347
57	0x3dd8ded6	0.105893776
58	0xbe48ab94	-0.19596702
59	0xbe83091d	-0.2559289
60	0xbe05fcbf	-0.13084696
61	0x3c10692f	0.00881414
62	0x3ea8251d	0.32840815
63	0xbe840c1d	-0.25790492
64	0xbe4a6b7c	-0.19767565
65	0xbe90a834	-0.2825333
66	0x3eb0ad9a	0.34507447
67	0x3d982f25	0.07430867
68	0x3eace0b3	0.33765182
69	0xbec2a823	-0.38018903
70	0xbe71b8d6	-0.23605666
71	0xbdfe0bb1	-0.12404574
72	0x3e810320	0.25197697
73	0xbdf85ec8	-0.12127453
74	0xbea3dda6	-0.32005042
75	0x3de4ce97	0.111722164
76	0xbe7c27c6	-0.24624547
77	0x3e88ccbd	0.26718703
78	0x3e7cc7d7	0.24685608
79	0xbc2e603c	-0.010643061
80	0x3eb7a6c7	0.3586943
81	0x3e89522c	0.26820505
82	0x3e18d03f	0.1492319
83	0xbc50aab2	-0.012736009
84	0xbe4d3bae	-0.20042297
85	0x3e412c9b	0.18864672
86	0xbe0f824a	-0.14014545
87	0x3e40ee3c	0.18840879
88	0xbe8659eb	-0.26240477
89	0xbd382946	-0.044961236
90	0x3e4dcf06	0.20098504
91	0x3e30d193	0.17267446
92	0x3d9ff7d1	0.07810939
93	0xbe8fde91	-0.28099492
94	0x3ec1adc7	0.37827894
95	0x3e3a9f4f	0.18224834
96	0x3e3189f6	0.17337784
97	0xbe9e553b	-0.309244
98	0x3eadc9a7	0.3394291
99	0x3dd5e158	0.104433715
100	0x3e42283d	0.18960662
101	0x3ebf73f8	0.37393165
102	0x3e92efbd	0.2869853
103	0x3c4f4f7d	0.012653229
104	0xbd78ec4a	-0.060772218
105	0x3dcac775	0.09901325
106	0xbc6098db	-0.013708319
107	0xbe8deca1	-0.27719596
108	0xbe8dcc75	-0.2769505
109	0x3e359644	0.17733103
110	0x3dfed6c4	0.12443307
111	0xbe2df30a	-0.16987243
112	0xbbab89a5	-0.0052349144
113	0x3e0f67ea	0.14004484
114	0x3ddef560	0.10886645
115	0xbe5c5c66	-0.21519622
116	0x3d1b3f96	0.037902437
117	0xbdb9acec	-0.09066185
118	0xbdd4d184	-0.103915244
119	0xbe4a1e39	-0.19738092
120	0xbcb6e324	-0.022325106
121	0x3cce5863	0.02518863
122	0xbeb7b4f0	-0.35880232
123	0x3e86245c	0.26199615
124	0xbc997978	-0.018734679
125	0x3e894fed	0.2681879
126	0xbca6422c	-0.020295225
127	0x3e85f298	0.26161647
128	0x3cce0d94	0.025152959
129	0x3da6d2c9	0.08145673
130	0xbec1b542	-0.378336
131	0x3e79f262	0.24408868
132	0x3e1dabe6	0.15397605
133	0x3d4d0eb2	0.050062843
134	0x3eafca45	0.34334007
135	0xbe54d387	-0.20783816
136	0x3ea25bca	0.31710654
137	0xbd9f3f17	-0.07775705
138	0x3e3ca506	0.18422326
139	0xbeb0cb90	-0.34530306
140	0x3e930e27	0.28721735
141	0x3e2f8a3d	0.17142577
142	0xbe8bf4cc	-0.27335203
143	0xbe827fe6	-0.25488204
144	0xbd94b098	-0.07260245
145	0x3eae9e9c	0.34105384
146	0xbe680f30	-0.22662044
147	0xbe008f92	-0.12554768
148	0x3e605750	0.21908307
149	0xbec3c11a	-0.38233262
150	0xbe74fa81	-0.23923685
151	0xba471a76	-0.00075951905
152	0xbeafd3d8	-0.3434131
153	0xbe5f2b2c	-0.21793813
154	0xbe34a833	-0.17642288
155	0xbc8c8353	-0.017152464
156	0xbe819003	-0.25305185
157	0xbe7b2c43	-0.24528603
158	0xbec15a18	-0.3776405
159	0xbe9c8808	-0.30572534
160	0xbea73cac	-0.32663476
161	0xbe79825f	-0.24366139
162	0x3d43e14a	0.047822274
163	0x3eacfa7b	0.3378485
164	0xbd17ad0c	-0.037030265
165	0xbd57f6b8	-0.052725524
166	0xbec398a7	-0.38202402
167	0xbab78bb1	-0.0014003423
168	0xbd0a112e	-0.03370779
169	0x3c6bf60a	0.014401922
170	0x3eb07a1f	0.3446817
171	0x3e7135c5	0.23555668
172	0x3dae63c4	0.085151225
173	0xbd167fa0	-0.036742806
174	0xbdf0dd37	-0.117609434
175	0xbea9c75b	-0.3315991
176	0x3eb1bab5	0.3471276
177	0xbe5a3b85	-0.21311767
178	0x3dca223e	0.098698124
179	0x3ebd0cfc	0.3692397
180	0x3e7843bd	0.2424459
181	0x3ec9c45c	0.39407623
182	0xbe118023	-0.14209037
183	0x3dd68833	0.10475197
184	0x3e55fbc2	0.20896819
185	0xbe8388c9	-0.25690296
186	0xbe9a4819	-0.3013313
187	0x3e0add2d	0.13560934
188	0x3e9d0e48	0.30674958
189	0x3e8f9b4c	0.2804817
190	0x3d27d109	0.040970836
191	0x3e8332a6	0.2562458
192	0x3e8b0623	0.2715312
193	0xbeaca1c9	-0.33717182
194	0xbec2f595	-0.3807799
195	0x3eb586f8	0.35454535
196	0xbe5690fa	-0.20953742
197	0x3d918b21	0.07106615
198	0xbd1eb0b9	-0.038742755
199	0x3e31fea9	0.17382301
200	0xbd896d45	-0.06710295
201	0x3eb29851	0.34881833
202	0x3d2c201e	0.042022817
203	0x3e224492	0.1584647
204	0xbe3912e9	-0.1807362
205	0x3e33027f	0.17481421
206	0xbb18ed8b	-0.0023334946
207	0x3e8058b0	0.25067663
208	0xbea8a772	-0.3294025
209	0xbe6c82c2	-0.23096755
210	0x3e258078	0.16162288
211	0xbebb8214	-0.3662268
212	0xbe791f86	-0.24328431
213	0x3e1b65aa	0.151755
214	0xbd610bec	-0.05494301
215	0xbdeb2ec3	-0.114835285
216	0x3d9ffdee	0.07812105
217	0x3ea45ccb	0.32102045
218	0xbcbce4f9	-0.023058401
219	0xbdf7bb00	-0.12096214
220	0xbeb7b72b	-0.35881934
221	0xbce69998	-0.028149411
222	0x3e3dc86d	0.18533488
223	0xbe906976	-0.2820546
224	0x3e9ea8f5	0.3098828
225	0x3dea645e	0.11444925
226	0x3e94ca8e	0.29060787
227	0xbda1d419	-0.079017825
228	0xbebffd7c	-0.3749808
229	0x3e1745b2	0.1477268
230	0xbea90caf	-0.3301749
231	0xbd3a128a	-0.045427836
232	0xbdfefaec	-0.12450203
233	0xbea67aac	-0.32515466
234	0x3c2b4a78	0.010454766
235	0xbe20dd5c	-0.15709442
236	0x3e6c5326	0.23078594
237	0xbe475101	-0.19464494
238	0xbe3dd190	-0.18536973
239	0xbeb61c9c	-0.35568702
240	0xbe87e342	-0.2654057
241	0x3eb9323c	0.36171138
242	0x3ec771d3	0.38954028
243	0x3e76bce1	0.24095489
244	0xbea0bb75	-0.31393018
245	0x3d55a88b	0.05216269
246	0xbe8ae8c6	-0.27130717
247	0x3e2c55e4	0.1682964
248	0x3e9f6154	0.31128943
249	0x3e08d53c	0.13362592
250	0x3e27f6f7	0.16402803
251	0xbdf2ca1f	-0.11854958
252	0xbe6e9de5	-0.2330242
253	0xbe397ec2	-0.1811476
254	0xbe16d01f	-0.1472783
255	0x3d938e7c	0.07204911
