my_gtn/experiment_logs/model_exp_160.pt (torch, 89497 bytes, 4 tensors)

conv1.bias f4 [64]
0.1155233 0.23798552 0.092595056 0.0784474 0.121960215 0.28258398 0.26849732 0.16940027
0.1694383 0.12152657 0.336441 0.18103163 0.22028731 0.25163177 0.12276046 0.05653253
0.18325874 0.1716282 0.055452604 0.124400795 0.31961095 0.08233776 0.090150654 -0.1621155
0.09653899 0.077841304 -0.020528074 -0.004870538 0.04184799 0.10216398 0.07740964 0.054261938
0.12143137 0.13633722 0.24278049 0.24292259 0.18333513 0.10794485 0.03840458 0.08731521
0.1866796 0.111525044 0.011541537 0.27759272 0.20798127 -0.0019330685 0.081837624 0.05831331
0.2434783 0.112547114 0.10194318 0.21787475 0.28650776 0.19782458 0.12797762 0.20797552
0.3171904 0.09118537 0.12231608 0.052985094 0.24519418 0.211114 0.0024936257 0.26484725
00000000: 7b97 ec3d 7ab2 733e 7aa2 bd3d 08a9 a03d
00000010: 47c6 f93d d9ae 903e 7b78 893e 4477 2d3e
00000020: 3c81 2d3e ece2 f83d ff41 ac3e 5b60 393e
00000030: ff92 613e e1d5 803e d669 fb3d a78e 673d
00000040: 2ea8 3b3e 4ebf 2f3e 4522 633d d8c5 fe3d
00000050: 0ca4 a33e b3a0 a83d e8a0 b83d 9b01 26be
00000060: 3cb6 c53d 436b 9f3d 7e2a a8bc 0999 9fbb
00000070: cc68 2b3d 593b d13d f288 9e3d c441 5e3d
00000080: 03b1 f83d fc9b 0b3e 739b 783e b3c0 783e
00000090: 34bc 3b3e 3112 dd3d 1f4e 1d3d 51d2 b23d
000000a0: f028 3f3e 3e67 e43d b718 3d3c a220 8e3e
000000b0: 0bf9 543e 045f fdba 7c9a a73d f0d9 6e3d
000000c0: 6052 793e 1a7f e63d 96c7 d03d 8f1a 5f3e
000000d0: 25b1 923e 8792 4a3e 910c 033e 89f7 543e
000000e0: c866 a23e 65bf ba3d da80 fa3d e606 593d
000000f0: 2f14 7b3e 452e 583e 196c 233b 0f9a 873e

conv1.lin.weight f4 [64, 334]
0.025853192 0.041281495 0.04712504 0.09132899 0.0035981822 -0.0030519373 0.0044712583 -0.0031367834
0.12563743 -0.027964698 -0.073775925 -0.019972438 0.049378 0.024885729 -0.110290736 -0.051980857
-0.0034704232 -0.021504752 -0.06986669 -0.007472288 -0.013252543 -0.024501724 -0.06222321 -0.013868962
0.057566714 0.008108745 0.033717595 0.029950494 -0.037566386 0.009259703 -0.061469052 -0.025559587
0.15133853 -0.07851242 -0.02021004 0.14691214 0.030885292 0.05448055 0.12613337 0.16068132
0.23084675 0.05814755 -0.06906493 -0.0336859 0.033974085 -0.041471783 0.07427464 -0.15592271
-0.07185274 0.021284724 -0.016158052 -0.00034428874 -0.020583482 -0.04336867 0.010115309 -0.15554741
0.019638197 -0.020280445 0.0060690055 0.029460045 -0.059919827 0.074242026 0.10516413 -0.27795163
-0.21289998 -0.14154209 -0.15700586 -0.014385604 0.044360477 -0.0061475094 -0.03762767 -0.07510085
-0.22460687 0.054881994 -0.060265526 -0.03523661 0.1693729 -0.122245766 -0.053370204 -0.056150626
-0.066597335 0.18392165 0.044863887 0.101464115 -0.009106314 -0.036686804 -0.38482904 0.08254191
-0.16461788 0.06662926 0.018430287 -0.0006687679 -0.18212663 -0.0063600494 0.08864898 -0.03226631
0.0009968181 0.11725301 -0.025188226 0.04652586 -0.018667959 0.10646682 -0.09087756 -0.19724587
0.13266562 0.14978635 0.048431903 0.047959644 -0.040580988 0.09050205 -0.04578502 -0.06634435
0.10423628 -0.12733442 -0.09591139 0.012103331 0.026491975 -0.014046322 0.12748767 -0.050702572
-0.015651707 0.021518366 -0.1461443 0.07498227 0.06376006 0.02493758 0.09169094 0.14370775
-0.04634247 -0.06250578 -0.12724689 0.13421321 0.1114593 -3.5045105e-05 -0.05440306 0.28986287
0.07383738 -0.07300731 -0.040774655 0.01992764 -0.08807687 -0.13830587 0.07874485 -0.024281051
0.01701164 -0.026843032 0.053558003 0.041029453 0.17167784 0.10791871 0.037627615 0.07863885
0.04253998 -0.026800467 -0.037870266 0.0047843335 -0.06634085 -0.0083423 -0.041371826 -0.13197605
-0.045682736 0.0210867 -0.19552392 0.11471309 -0.084018596 -0.12656122 -0.030804941 -0.14764997
0.09577339 -0.0028229773 -0.43773532 -0.11364578 0.016439514 -0.061125487 0.09699116 -0.054032877
-0.1427896 0.047946155 0.021021077 0.00741368 -0.04063619 0.20063733 -0.11095129 -0.11243806
-0.026396947 -0.0308288 0.11659721 -0.030161235 0.16012937 -0.16014567 0.066271536 0.023759643
-0.037043616 -0.005704299 -0.12729783 0.024713317 0.02300738 -0.023105029 0.0063837254 -0.020742668
-0.075833455 -0.091740415 -0.038162984 0.050825156 -0.013805961 0.0058581387 -0.1827284 -0.027165757
0.11849396 -0.18218465 0.01503409 -0.0248946 0.050435662 -0.079788715 -0.06316552 -0.0060324506
-0.00016777885 -0.04553264 -0.029489618 0.015043812 -0.059069473 -0.0049016587 0.13341045 -0.0055160704
0.107931525 -0.062409345 0.028432108 -0.10788804 0.02170976 0.2056368 -0.0018084645 0.10253047
0.056919757 0.09532615 -0.21077307 -0.058105752 0.23240739 0.053491015 0.03921496 0.03644621
0.101782024 0.135992 0.4070725 0.025169954 -0.019902054 -0.08823006 -0.2848241 0.09416565
-0.12485825 0.0053352704 0.011003135 -0.11279042 -0.0019661253 0.273679 0.23706195 0.053133663
00000000: 13ca d33c c916 293d 3006 413d b20a bb3d
00000010: 7bcf 6b3b 0303 48bb a283 923b 7e92 4dbb
00000020: 19a7 003e 3916 e5bc d517 97bd 3d9d a3bc
00000030: 9640 4a3d 28dd cb3c 1ce0 e1bd e1e9 54bd
00000040: 0a70 63bb bc2a b0bc 4416 8fbd 18da f4bb
00000050: 3221 59bc d7b7 c8bc c4dd 7ebd a53a 63bc
00000060: 13cb 6b3d 8bda 043c 761b 0a3d bd5a f53c
00000070: 36df 19bd 02b6 173c f9c6 7bbd 5762 d1bc
00000080: 7df8 1a3e 1fcb a0bd 878f a5bc 2370 163e
00000090: 2703 fd3c ff26 5f3d 1b29 013e a589 243e
000000a0: 1763 6c3e 202c 6e3d ea71 8dbd 3afa 09bd
000000b0: 6928 0b3d 51de 29bd 4d1d 983d 34aa 1fbe
000000c0: 8827 93bd 4d5d ae3c e45d 84bc a781 b4b9
000000d0: b19e a8bc 59a3 31bd aeba 253c d247 1fbe
000000e0: 49e0 a03c 2d23 a6bc 82de c63b 3156 f13c
000000f0: 7e6e 75bd 340c 983d 4b60 d73d ad4f 8ebe
00000100: 7402 5abe 69f0 10be 25c6 20be 99b1 6bbc
00000110: 55b3 353d 0c71 c9bb 791f 1abd 79ce 99bd
00000120: 58ff 65be f1cb 603d fcd8 76bd 4354 10bd
00000130: 1770 2d3e fd5b fabd b79a 5abd 33fe 65bd
00000140: 2f64 88bd f555 3c3e 32c3 373d 6bcc cf3d
00000150: a632 15bc e744 16bd 5008 c5be bc0b a93d
00000160: 9791 28be ec74 883d 1dfb 963c 4150 2fba
00000170: 677f 3abe f667 d0bb 998d b53d ae29 04bd
00000180: aaa7 823a 5922 f03d 8a57 cebc e691 3e3d
00000190: 8ced 98bc 470b da3d 041e babd d2fa 49be
000001a0: 7fd9 073e 9861 193e 8860 463d 5571 443d
000001b0: 4038 26bd 2459 b93d 1389 3bbd 8cdf 87bd
000001c0: d579 d53d f463 02be 316d c4bd 0d4d 463c
000001d0: b305 d93c 8b22 66bc 218c 023e 80ad 4fbd
000001e0: 0238 80bc 4947 b03c daa6 15be 4e90 993d
000001f0: a294 823d e549 cc3c 76c8 bb3d 2028 133e
00000200: 9ad1 3dbd 0803 80bd 024d 02be 306f 093e
00000210: c644 e43d 65fd 12b8 bed5 5ebd e868 943e
00000220: 0d38 973d db84 95bd 5303 27bd 4a3f a33c
00000230: a561 b4bd 0ea0 0dbe fb44 a13d 0ee9 c6bc
00000240: ff5b 8b3c ebe5 dbbc a35f 5b3d 800e 283d
00000250: 51cc 2f3e 7c04 dd3d 6a1f 1a3d 680d a13d
00000260: 673e 2e3d a78c dbbc da1d 1bbd e6c5 9c3b
00000270: b6dd 87bd 24ae 08bc 8175 29bd bb24 07be
00000280: d21d 3bbd 04be ac3c 6c37 48be b2ee ea3d
00000290: f111 acbd 4499 01be a55a fcbc 8e31 17be
000002a0: d724 c43d b301 39bb d81e e0be 1ebf e8bd
000002b0: 29ac 863c b85e 7abd 4da3 c63d 9451 5dbd
000002c0: 7037 12be 3063 443d 6534 ac3c 75ee f23b
000002d0: 2272 26bd df73 4d3e 6e3a e3bd ed45 e6bd
000002e0: 693e d8bc ae8c fcbc 85ca ee3d b214 f7bc
000002f0: f4f8 233e 3afd 23be 5fb9 873d 95a3 c23c
00000300: 0cbb 17bd 21eb babb 5d5a 02be 9573 ca3c
00000310: f979 bc3c c246 bdbc 922e d13b 87ec a9bc
00000320: 924e 9bbd 66e2 bbbd ca50 1cbd 0a2e 503d
00000330: 6632 62bc a1f5 bf3b 271d 3bbe b98a debc
00000340: f6ac f23d 9d8e 3abe 8b51 763c c3ef cbbc
00000350: a095 4e3d 4468 a3bd ed5c 81bd ddab c5bb
00000360: cbed 2fb9 6f80 3abd 3694 f1bc 527a 763c
00000370: d5f2 71bd 189e a0bb c09c 083e 27c0 b4bb
00000380: 340b dd3d f1a0 7fbd 74ea e83c 68f4 dcbd
00000390: abd8 b13c 7492 523e 000a edba 7ffb d13d
000003a0: b124 693d 5b3a c33d e5d4 57be 4c00 6ebd
000003b0: 34fc 6d3e 6519 5b3d de9f 203d 9f48 153d
000003c0: 1873 d03d 7d41 0b3e cf6b d03e 3831 ce3c
000003d0: a209 a3bc f6b1 b4bd 77d4 91be ecd9 c03d
000003e0: afb5 ffbd 7ed3 ae3b 7e46 343c aafe e6bd
000003f0: 1cda 00bb a71f 8c3e 5ec0 723e afa2 593d

conv2.bias f4 [4]
-0.47883937 -0.15474857 0.066348076 0.5997871
00000000: 6f2a f5be 6976 1ebe 80e1 873d a68b 193f

conv2.lin.weight f4 [4, 64]
-0.56542027 0.43971962 -0.017379383 -0.4668402 -0.38015807 0.28615788 -0.79362315 0.41191867
-0.17353247 0.27331045 0.35256675 -0.39701578 0.03908051 -0.68598574 -0.0712939 0.06781727
0.22039287 -0.31898016 -0.33902687 0.45209897 0.43165517 -0.53518766 0.2962995 0.14215
0.3715671 -0.13204107 0.3126088 -0.10122252 0.058669146 0.5200642 0.300953 0.42859423
-0.40003398 0.5121328 -0.72432685 0.002945061 0.25728056 -0.6609206 -0.07763241 0.6385496
0.39978004 0.33915868 -0.3710769 0.5553942 -0.51404226 -0.29892763 0.31931943 0.5561219
-0.60143715 0.24382271 -0.07242954 -0.52801985 0.36625084 -0.675968 0.46798542 0.44471416
-0.8326408 0.22206442 0.021217745 -0.47320208 -0.1994859 -0.35149926 0.5810011 -0.48508787
-0.57456636 -0.63095343 0.41175056 -0.5034039 0.5917878 -0.8862162 -0.43327555 -0.47597492
0.2451293 -0.42942688 -0.88127226 0.29327437 -0.7559854 0.3588483 0.37089556 0.1274215
0.5762346 0.43492696 0.70108294 0.28109053 -0.36124182 0.5319133 -0.41049653 -0.09122111
-0.45778665 0.042333737 0.072055556 0.36359692 0.24783628 -0.5501592 0.46668306 0.34119436
0.40827817 -0.683022 0.3842039 -0.0051617683 0.24303581 0.85247934 0.5731241 0.07727085
-0.39491725 0.3013165 0.08446803 -0.58201337 -0.49138436 0.37625438 0.30111226 -0.116568044
0.10818998 0.066106215 -0.24169412 -0.47844353 0.23095079 -0.0568377 -0.17925963 -0.728289
0.022588836 -0.024118511 -0.7763675 0.4528207 -0.027902443 0.46522233 -0.24012947 0.3410173
0.049128115 0.5622631 -0.615049 0.18390618 0.41618264 0.37073043 0.7614896 -0.77384627
0.5906698 -0.27142686 0.5125498 -0.80348015 0.8392741 0.4030327 -0.60110015 -0.7974981
-0.11895216 0.4672407 -0.15793121 -0.47240728 0.43069747 -0.85137886 -0.46556115 -0.04186873
-0.9094495 -0.69051033 -0.24530938 -0.13799702 -0.5670524 -0.68228114 -0.8691097 -0.78994226
-0.897987 -0.66263527 0.28188607 0.6439994 -0.16001871 -0.47109294 -0.8830678 -0.5984728
0.19970179 -0.45306635 0.6627073 0.5364161 0.36413687 0.05278774 -0.70658034 -0.7046936
0.59891564 -0.71667624 -0.27236202 0.69344974 0.335182 0.6049903 -0.24506988 -0.09926578
0.3965395 -0.61832 -0.3882339 0.24640429 0.59588826 0.483252 -0.32242018 0.5008137
0.6309167 -0.7606985 -0.5752137 0.78625786 -0.47303593 0.26196814 0.05860005 0.61585695
-0.58774465 0.5908568 0.18805063 0.3581605 -0.4969528 0.21900912 0.021209616 0.4812157
-0.87744373 -0.6632469 -0.2842326 -0.8185974 -0.6833111 0.43296784 0.20036457 0.023359995
0.36676696 0.588193 -0.09896399 -0.07637419 -0.48584217 0.15702759 0.2647332 -0.35683364
0.6202267 0.52163357 0.40014926 -0.59916496 -0.81874526 0.17022264 -0.6027862 -0.40035883
-0.44016296 -0.70934445 -0.31726062 -0.4950006 0.43082875 -0.47113433 -0.17693658 -0.80228734
-0.67653507 0.64612824 0.7670875 0.42392957 -0.818366 0.070270166 -0.59777623 0.38529903
0.46269605 0.26363504 0.4487932 -0.51177716 -0.80074793 -0.48192367 -0.10562099 0.046158135
00000000: 62bf 10bf ee22 e13e 355f 8ebc ae05 efbe
00000010: 14a4 c2be 4983 923e e32a 4bbf 01e7 d23e
00000020: 7fb2 31be 59ef 8b3e a183 b43e a745 cbbe
00000030: e312 203d c39c 2fbf 8902 92bd c8e3 8a3d
00000040: abae 613e 5e51 a3be ee94 adbe 8479 e73e
00000050: e801 dd3e 0f02 09bf 91b4 973e c58f 113e
00000060: 0b3e be3e c635 07be 430e a03e c14d cfbd
00000070: 0f4f 703d ed22 053f 8316 9a3e b470 db3e
00000080: 41d1 ccbe 231b 033f 7c6d 39bf ed01 413b
00000090: 47ba 833e 1832 29bf befd 9ebd fd77 233f
000000a0: f8af cc3e 35a6 ad3e cbfd bdbe 502e 0e3f
000000b0: 4698 03bf 0b0d 99be d67d a33e 015e 0e3f
000000c0: c9f7 19bf a9ac 793e f055 94bd 4f2c 07bf
000000d0: 3b85 bb3e 3d0c 2dbf c99b ef3e 93b1 e33e
000000e0: f327 55bf db64 633e d6d0 ad3c 8b47 f2be
000000f0: 0846 4cbe b6f7 b3be 7dbc 143f 705d f8be
00000100: c816 13bf 2a86 21bf f8d0 d23e 14df 00bf
00000110: 687f 173f 11df 62bf 4bd6 ddbe fcb2 f3be
00000120: 2d03 7b3e d7dd dbbe 0f9b 61bf 0f28 963e
00000130: 4288 41bf f7ba b73e 06e6 bd3e c87a 023e
00000140: 1c84 133f bfae de3e 2c7a 333f 19eb 8f3e
00000150: b0f4 b8be 782b 083f 9a2c d2be 22d2 babd
00000160: 0363 eabe 2466 2d3d dd91 933d 6029 ba3e
00000170: cbc8 7d3e 3cd7 0cbf 15f1 ee3e 07b1 ae3e
00000180: d609 d13e 88da 2ebf 60b6 c43e 0d24 a9bb
00000190: 61de 783e 163c 5a3f 43b8 123f 2e40 9e3d
000001a0: 9832 cabe 2846 9a3e 93fd ac3d d4fe 14bf
000001b0: bb96 fbbe 6aa4 c03e 632b 9a3e 3abb eebd
000001c0: b592 dd3d b262 873d aa7e 77be 8df6 f4be
000001d0: 5d7e 6c3e a6ce 68bd d68f 37be 2671 3abf
000001e0: 390c b93c 2f94 c5bc 05c0 46bf 1dd8 e73e
000001f0: aa93 e4bc 9f31 ee3e 80e4 75be d299 ae3e
00000200: 903a 493d 79f0 0f3f da73 1dbf e751 3c3e
00000210: e415 d53e 61d0 bd3e fcf0 423f ca1a 46bf
00000220: 2336 173f 76f8 8abe 7736 033f e0b0 4dbf
00000230: abda 563f 4d5a ce3e b3e1 19bf d628 4cbf
00000240: 319d f3bd 2c3a ef3e b8b8 21be 5edf f1be
00000250: 6184 dc3e f7f3 59bf 085e eebe 8c7e 2bbd
00000260: afd1 68bf 49c5 30bf 6232 7bbe 174f 0dbe
00000270: 592a 11bf faa9 2ebf f97d 5ebf a839 4abf
00000280: 7ae2 65bf 77a2 29bf 5f53 903e 25dd 243f
00000290: f2db 23be 1833 f1be bb10 62bf 8335 19bf
000002a0: a07e 4c3e 50f8 e7be 30a7 293f 9152 093f
000002b0: 2670 ba3e f537 583d 73e2 34bf cd66 34bf
000002c0: 8952 193f 1878 37bf 0973 8bbe ec85 313f
000002d0: fa9c ab3e a5e0 1a3f 99f3 7abe db4b cbbd
000002e0: 3a07 cb3e 384a 1ebf 98c6 c6be 6851 7c3e
000002f0: 228c 183f ce6c f73e 4214 a5be 5435 003f
00000300: c283 213f 23bd 42bf 3441 13bf 3248 493f
00000310: c431 f2be b020 863e 9b06 703d cda8 1d3f
00000320: 6f76 16bf 6442 173f 5890 403e d060 b73e
00000330: 9970 febe ed43 603e cabf ad3c e761 f63e
00000340: 27a0 60bf 8dca 29bf ef86 91be 998f 51bf
00000350: 7aed 2ebf f6ad dd3e 5f2c 4d3e 765d bf3c
00000360: e1c8 bb3e d193 163f a2ad cabd 126a 9cbd
00000370: 4ec0 f8be d7cb 203e 1c8b 873e e6b2 b6be
00000380: 2dc7 1e3f c789 053f 5de0 cc3e e062 19bf
00000390: 4a99 51bf d84e 2e3e 3250 1abf d5fb ccbe
000003a0: 0a5d e1be 9997 35bf fc6f a2be b870 fdbe
000003b0: 9695 dc3e 8538 f1be dd2e 35be b462 4dbf
000003c0: 6731 2dbf a968 253f d95f 443f 4c0d d93e
000003d0: 6f80 51bf cee9 8f3d dd07 19bf ea45 c53e
000003e0: 7fe6 ec3e 2cfb 863e 39c8 e53e d403 03bf
000003f0: d1fd 4cbf b3be f6be d14f d8bd 5010 3d3d
