my_gtn/experiment_logs/model_exp_224.pt (torch, 176281 bytes, 4 tensors)

conv1.bias f4 [128]
000000 c5 e4 74 3d 6c 86 c4 3b 50 fc 15 3d 5b e2 60 3d
       0.059788484 0.0059974696 0.036617577 0.05490337
000010 d0 4c 55 3d 65 8e 7c 3d 70 9f 4e 3d f3 fd 3a 3d
       0.052075207 0.061659236 0.05044502 0.04565234
000020 b6 c5 56 3d 31 9c 6d 3d b3 83 6d 3d d1 e4 73 3d
       0.052434646 0.058010284 0.057986926 0.05954439
000030 7e ca 14 3d 6e 1b 66 3d f4 42 60 3d ea d7 71 3c
       0.036325924 0.056178503 0.05475135 0.014760951
000040 85 93 1b 3d 3d 2b 0a 3d e1 10 57 3d ca ac 6c 3d
       0.037982482 0.03373264 0.05250633 0.057781972
000050 6c a5 14 3d f1 64 68 bb d0 93 47 3d 55 b8 8d bc
       0.03629057 -0.0035460556 0.04872495 -0.01729981
000060 b9 74 85 3c bc 29 34 3d 42 7e 03 3d 09 0e 6d 3b
       0.01629101 0.043985114 0.03210283 0.0036171696
000070 8d 8b 74 3d fb 1e 98 3c b2 f0 81 3d 33 d9 5d 3d
       0.0597034 0.01856946 0.06344737 0.054162215
000080 ce cc 27 3d cc 5b 39 3d 4d 07 82 3d db fe 7c 3d
       0.0409668 0.04525356 0.06349049 0.061766487
000090 63 39 7b 3d 3e 0a 56 3d 2b 02 ca 3c 9d d7 54 3d
       0.061334025 0.05225586 0.024659237 0.051963437
0000a0 67 35 4a bc 27 74 25 3d 05 79 72 3d 95 71 60 3d
       -0.012341834 0.040393975 0.059197444 0.05479582
0000b0 fa b1 aa 3c 01 fc ce 3c cd b4 17 3d fd df 6a 3d
       0.020836819 0.02526665 0.03703766 0.057342518
0000c0 99 d1 1d 3d 18 a1 99 3c 02 c2 10 3d 5b 4e 15 3d
       0.038529966 0.018753573 0.03534127 0.03645168
0000d0 e5 32 4e 3d f5 b6 3c bb 11 4f 63 3d 96 e1 47 3d
       0.050341506 -0.0028795574 0.055495325 0.04879912
0000e0 55 96 69 3d 53 b1 4f 3d 28 45 21 3d af fa 61 3d
       0.057028133 0.05070622 0.039372593 0.05517071
0000f0 c9 b2 68 3d 89 e3 6d 3d 3a d7 17 3d 6b ec 2f 3c
       0.056811128 0.058078323 0.03707049 0.010737519
000100 4e 83 9a 3c 44 c5 0c 3d 1b e1 83 3d da 36 43 3d
       0.01886144 0.034367815 0.0643942 0.047659732
000110 b9 6e 42 3d ea e8 66 3d b7 7c 50 3d 6e e4 59 3c
       0.047468875 0.056374468 0.050900187 0.013299091
000120 33 8b 60 3d ad c3 79 3d 2b 37 4d 3c 84 ec 2b 3d
       0.05482025 0.060977627 0.01252536 0.041973606
000130 a0 54 85 3d 29 6f 67 3d f7 f1 2d 3d e2 7e 78 3d
       0.065102816 0.056502495 0.042467084 0.06066788
000140 65 ec 39 3d 4c cb 81 3d 10 c2 5e 3d 1e 8a 61 3d
       0.04539146 0.06337604 0.05438429 0.05506336
000150 0f f5 54 3d ca 7f 7e 3d 89 43 69 3d 1c 4d 5a 3d
       0.05199152 0.062133588 0.056949172 0.053296193
000160 f2 6c 7e 3d 4b ea 90 3c 1f 2e 10 3d 33 31 69 3d
       0.062115617 0.017689845 0.035200235 0.056931686
000170 a0 d1 0d 3c 46 ab 74 3d 52 05 85 3d 21 84 6e 3d
       0.0086559355 0.05973365 0.064951554 0.058231477
000180 d2 e4 68 3d 19 fa 6e 3d f0 7a 97 3c dd 99 1c 3b
       0.056858845 0.05834398 0.018491238 0.002389542
000190 18 96 84 3d 8d 84 48 3d a0 6a 71 3d 5b fb ad 3c
       0.064739406 0.048954535 0.058939576 0.02123802
0001a0 43 e1 72 3d 7e 4b 1a 3d a6 21 1c 3d 71 15 6c 3d
       0.059296858 0.03766965 0.038118027 0.057637636
0001b0 e1 0d 0d 3d 8f df 8a 3d 24 a0 7d 3d cb 7e 7f 3d
       0.034437064 0.06780922 0.0619203 0.06237678
0001c0 58 5c 60 3d 36 29 5f 3d 24 81 79 3d d0 77 4e 3d
       0.054775566 0.05448266 0.060914174 0.05040723
0001d0 79 b8 79 3d dd 96 6e 3d 5c 92 13 3d 25 72 5c 3d
       0.060966942 0.058249343 0.03602825 0.053819794
0001e0 80 49 7d 3d b3 de 09 3d a1 25 48 3d 49 74 53 3d
       0.061837673 0.03365965 0.04886401 0.05162457
0001f0 5f 7f 45 3d 5c f8 6c 3d 37 fe 1c 3d b3 8b 3a 3d
       0.048217174 0.05785404 0.038328376 0.045543384

conv1.lin.weight f4 [128, 334]
000000 46 98 04 bd 03 75 41 bc 8e 5f 78 3d 1c 3c cb 3d
       -0.03237178 -0.011807683 0.060638003 0.09923574
000010 08 be e2 3c 8b ea 95 3d c6 b3 06 3d c3 01 93 3d
       0.027678505 0.07320126 0.03288629 0.071780704
000020 56 c4 37 bc a7 0d 21 bd ea cf 09 bb b1 49 14 bd
       -0.011216244 -0.03931966 -0.0021028467 -0.03620309
000030 a5 b0 00 bd 57 e1 99 3d 78 43 8a 3a 15 96 61 3c
       -0.03141846 0.07513683 0.0010548672 0.0137686925
000040 c3 54 de 39 7c 69 0c 3d fe 15 8c 3c 77 bd f4 bd
       0.00042406292 0.034280285 0.01710033 -0.119502
000050 f7 bc 85 bb c3 1a 8a bd ef 2c 9b bd 9c 26 e8 3c
       -0.0040813643 -0.06743386 -0.0757693 0.028338723
000060 73 3e 8d bd 52 a8 aa 3d fb 00 4b 3d 23 0f 38 bd
       -0.06896677 0.08332886 0.049561482 -0.04493631
000070 21 66 85 3c e0 cb 03 3e 29 90 8b bd 32 4a 0f bd
       0.01628405 0.12870741 -0.06814606 -0.034982868
000080 e1 2b 8e 3d e0 4c ab 3d d9 0b 2c 3d 41 db cd 3d
       0.06941963 0.08364272 0.042003486 0.10051585
000090 99 b5 2a bd 67 6c d7 3d 3c f4 cd bd 48 a5 9c 3b
       -0.04167709 0.10518723 -0.1005635 0.0047804452
0000a0 51 13 66 3b 3b eb 77 bd 77 9f 18 3d 24 17 a0 bc
       0.0035106728 -0.060527068 0.037261453 -0.019542284
0000b0 be 18 a8 bd b8 72 92 3d a5 c5 76 bd 58 23 5c 3d
       -0.08207844 0.07150787 -0.060247082 0.053744644
0000c0 4d 21 cc 3d bd 76 0a 3e 65 f1 6f bd bf b6 b0 bd
       0.09967289 0.13521858 -0.05857982 -0.08628606
0000d0 97 47 06 bd 1b 6f ca 3d 95 e7 64 3c 00 93 9c 3c
       -0.032783117 0.09884473 0.013971229 0.019113064
0000e0 80 bc 86 bc 18 0f 87 bc 01 69 cc 3d 18 62 16 3e
       -0.016447306 -0.01648669 0.099809654 0.14685857
0000f0 27 b1 33 3d 52 09 8d 3d ed 35 0f 3d 05 6e 83 bd
       0.043870118 0.06886543 0.034963537 -0.06417469
000100 c5 86 20 be d0 78 18 3d b3 42 a1 3c d6 b3 2f bd
       -0.1567641 0.03722459 0.019685125 -0.042896114
000110 37 8a b6 3d c5 d0 af bc a4 f6 84 3b 6e 35 18 3d
       0.08913081 -0.021461854 0.004057722 0.03716033
000120 38 d4 15 3d 03 1c 42 3d 3a 91 e8 bc 87 f1 ff 3c
       0.03657934 0.047389995 -0.028389562 0.031243099
000130 b6 c8 f6 3c 79 6b e5 bd 1c c4 94 bd 6c 5d d9 bd
       0.030125003 -0.112021394 -0.072639674 -0.10613522
000140 17 6d 93 3d 50 43 dd 3c ed f4 c2 bd 86 9d 18 3e
       0.071985416 0.027009636 -0.09519372 0.1490384
000150 f9 b1 a0 3c 21 6d d4 3d 1e 1f bb 3d 7e 24 0c 3d
       0.019616114 0.10372377 0.091367945 0.03421449
000160 70 36 29 bd 70 b6 ca bd 84 4a c4 3c a3 bf 97 3d
       -0.04131168 -0.098980784 0.023961313 0.07409599
000170 e0 15 77 bd 4b 7d 0d bd 1c f8 43 bd 08 9a 0c bd
       -0.060323596 -0.034543317 -0.047844037 -0.034326583
000180 9d 2e 99 bd 68 26 01 3c d1 09 95 3c 9e d7 6a 3d
       -0.07479594 0.007882692 0.018193157 0.057334535
000190 09 0a 71 3d 8a 86 85 bd 24 c5 ad bd a9 c4 e6 bc
       0.05884746 -0.06519802 -0.08484867 -0.028169947
0001a0 bb 68 11 3e 00 db 4d bd b3 fa c8 bd be 57 f6 3c
       0.14200108 -0.050257683 -0.09813442 0.030071136
0001b0 72 c1 9b 3d 66 87 80 bc ba 33 9e bc 07 17 2f bd
       0.07605256 -0.015689563 -0.019311775 -0.04274657
0001c0 b2 81 0f 3d 13 ec a3 bd 0e 44 1f 3e 85 41 38 3d
       0.035035796 -0.08004012 0.15553305 0.04498436
0001d0 c8 92 4d 3c 3d b3 c4 3d 8a d7 a4 3c 7d f2 c8 3d
       0.012547202 0.096044995 0.020122308 0.09811876
0001e0 fb 21 76 bc f0 cd 41 bd c5 ac f3 bd 57 4e bf 3c
       -0.01502275 -0.047315538 -0.118981875 0.023352785
0001f0 40 a1 a3 ba 5c 58 4d bd 23 e8 20 3d ef c6 28 3e
       -0.0012483969 -0.050133094 0.039283883 0.16482137
000200 ab db 0a 3d 67 33 0c 3c 79 fe 82 3d ec 6b 0c bd
       0.033900898 0.008557177 0.06396193 -0.03428261
000210 a7 cd 0f 3b 33 80 31 3d ba 80 d5 3d 16 fb 83 bd
       0.0021942647 0.04333515 0.10424943 -0.06444375
000220 70 33 37 bd af 4c bd bc 98 7c 1e 3e 59 eb 8f bb
       -0.04472679 -0.023107855 0.15477216 -0.0043920693
000230 55 fa 02 3d 22 d8 87 bd 79 d7 cb bc 20 f4 82 3d
       0.031977016 -0.06633021 -0.024883019 0.063942194
000240 bf b6 20 bc 97 ee 13 bd f9 a7 7d bd 26 10 e3 3d
       -0.009809195 -0.03611621 -0.06192777 0.110870644
000250 23 ca 43 3d be cc b3 3d 32 d0 b3 3b 10 e3 86 3d
       0.047800194 0.08779286 0.0054874653 0.065862775
000260 f0 f3 c3 3d 88 cb c4 3d 71 eb 06 3e 48 9c d2 3d
       0.09568012 0.09609133 0.13175751 0.102837145
000270 e6 9b 95 3d 56 24 be 3d 23 92 52 bc ac fb 77 3d
       0.07305126 0.09284274 -0.0128522245 0.060542747
000280 a7 e8 a6 bc f5 76 27 3c 34 9c e7 ba d2 b2 60 3d
       -0.02037461 0.010221233 -0.0017670454 0.054858036
000290 07 74 a1 3d 7b 94 35 3c 24 c4 d0 bc 5a 9b fa 3c
       0.078834586 0.011082764 -0.025484152 0.030591656
0002a0 16 51 51 bd 16 38 1b bd 7d 3a a4 3c a7 14 a1 3d
       -0.05110272 -0.037895285 0.02004742 0.07865267
0002b0 29 af ac bc 8f d5 f6 bb 8b d4 13 bc 57 1b ac 3c
       -0.021079617 -0.0075327824 -0.009022842 0.02100913
0002c0 0f 19 eb 3d 0e c2 c3 bb 33 4d 11 bd bb 7a 27 3d
       0.11479389 -0.005974061 -0.035474014 0.04088853
0002d0 d1 83 84 3d a3 31 47 3d 83 56 18 3d 66 e4 ec bc
       0.064704545 0.04863132 0.03719188 -0.028917503
0002e0 59 aa 43 3d a0 f5 ab bd 15 a2 c1 3c 1d 4e 26 bd
       0.047769878 -0.083964586 0.023636857 -0.04060184
0002f0 b2 18 07 3d 48 5a 3d bd 37 e8 0c 3e 82 a8 d6 3c
       0.032982536 -0.046228677 0.13760458 0.026203398
000300 98 d5 37 bd 16 43 65 3c e2 bc 9f bd b0 78 21 bd
       -0.044881433 0.013993045 -0.077996984 -0.039421737
000310 84 59 73 bb 6c 2a 3f bd 3d f2 98 3c fa 78 39 bc
       -0.0037132213 -0.046671316 0.018670196 -0.011320347
000320 f3 d0 c6 3c f6 32 3c 3d ed c5 16 3d 7f d0 89 bc
       0.024269557 0.045947038 0.03680985 -0.016823051
000330 62 40 94 bd 61 d4 d7 3c 96 31 d5 3c 9b 70 1f 3d
       -0.072388425 0.026346387 0.026024621 0.03892575
000340 54 85 cd 3d 6f 92 42 bd a3 e9 46 bc 13 56 8f 3d
       0.10035196 -0.04750293 -0.012140664 0.06998839
000350 6d 44 f2 3c 6b b2 2b bc 06 58 88 3d 80 85 5a bd
       0.029573644 -0.01047955 0.06657414 -0.05334997
000360 44 03 2b bd 2c 34 f4 3d 16 70 03 3e e1 81 12 3e
       -0.04175116 0.119240135 0.12835726 0.14307357
000370 bd f3 cf bd 29 b5 4c 3d de e6 53 bd 26 cc 7e 3c
       -0.10153911 0.049977455 -0.051733844 0.0155516025
000380 15 0e 81 3d e2 43 b7 bc e5 2e 3e bd 27 16 24 bc
       0.06301514 -0.022371236 -0.04643144 -0.010015047
000390 fb 8a 6a 3d 51 a7 a1 ba 66 f7 24 3d 81 2d 35 3b
       0.05726145 -0.0012333189 0.040275 0.002764553
0003a0 c6 ef f9 3d f6 e5 94 3d 3e a2 a1 bb a0 67 2a 3c
       0.12203936 0.07270424 -0.004932671 0.010400683
0003b0 bb 37 55 3d 0c f5 b0 3d c9 53 c5 3c d0 07 4f 3d
       0.0520551 0.08640489 0.024087803 0.05054456
0003c0 ab 6f 63 bd 57 0d db 3d 2b 59 52 3d 1b 4e 16 3e
       -0.055526417 0.10695904 0.05135457 0.14678232
0003d0 46 e0 be 3d 6c 4a 52 bd 13 2a 3e 3a 64 26 98 3b
       0.093201205 -0.051340505 0.00072541944 0.0046432484
0003e0 92 b5 85 bd dc ff 98 3d 46 c9 24 3c af 0a 78 bc
       -0.065287724 0.07470676 0.010057753 -0.015139266
0003f0 af 09 cf bc 57 8a 92 bb a2 03 a0 3d 84 af 03 3e
       -0.025273172 -0.004472058 0.07813193 0.12859923

conv2.bias f4 [4]
000000 ee fe f7 bc 2e d3 49 bd a7 bf 27 3d b9 8e 09 3d
       -0.030272927 -0.049273662 0.04095426 0.033583377

conv2.lin.weight f4 [4, 128]
000000 d6 8e 29 be e0 cb 53 3d 6f 10 7c 3e 82 ee 33 3e
       -0.16558394 0.051708102 0.24615644 0.17571452
000010 66 49 4a be a5 80 ee 3d fd fd 2b bc 11 3b 50 be
       -0.19754562 0.11645631 -0.010497567 -0.20335032
000020 f2 38 40 bd 5b b6 0c be 8b 6e 88 be 34 af 2f 3d
       -0.046929307 -0.13741438 -0.26646838 0.042891696
000030 e9 84 71 be f2 b4 77 3e 9e c7 80 be a6 c4 a1 3d
       -0.23585857 0.24190119 -0.25152296 0.07898836
000040 06 37 0c 3e 44 ef 65 3e b3 f7 8a be 70 25 c2 bd
       0.13692865 0.22454554 -0.27142105 -0.09479797
000050 e6 fd 3e be 37 77 ae 3d c8 3b e6 3d 17 03 04 bd
       -0.18651542 0.08518832 0.11241871 -0.03222951
000060 b9 4b 17 bd f2 d5 c0 3d b4 43 20 be f9 da 88 3d
       -0.03693745 0.09415807 -0.15650827 0.06682391
000070 f7 78 d1 3d fb c5 64 be ed e9 a8 3c 91 bd 89 3e
       0.1022815 -0.22341149 0.020619357 0.2690244
000080 72 98 82 3e fc f9 53 be 6e ce 17 3e 30 d5 87 3d
       0.25506932 -0.2070083 0.1482484 0.06632459
000090 97 52 cb 3d 35 c8 19 be b0 ef 1f bc 36 79 dd bc
       0.09927862 -0.15017779 -0.009761736 -0.027035337
0000a0 a3 f7 22 3e 93 dc ba bd 8a f6 ff 3c 60 d2 ac 3d
       0.15914778 -0.091241024 0.031245489 0.08438563
0000b0 26 e7 60 3e 11 d6 07 3e bc 22 39 be 07 72 3b be
       0.21963176 0.13265254 -0.18079656 -0.18305217
0000c0 af 76 d6 bc 1c 8c 36 3d 8e 85 04 be d7 c3 2f be
       -0.02617964 0.044567212 -0.12941572 -0.1716455
0000d0 81 2c 23 3e 29 8b 5a 3e 6f 29 ed bd 95 ec 77 be
       0.15934946 0.21342148 -0.115801685 -0.24211343
0000e0 8e 04 d0 3d bd 24 30 be 07 10 60 3e ca 79 71 3e
       0.10157119 -0.17201515 0.21881114 0.23581615
0000f0 a9 de 6c 3e 8b 09 b5 3d 6a 7e 03 be e4 66 f8 3d
       0.23131813 0.08839711 -0.12841192 0.12129
000100 df f9 1a 3e f2 58 4e 3d 03 89 30 3e 57 f8 ac 3c
       0.15134381 0.050377794 0.17239766 0.021114511
000110 20 af c1 3d 04 c3 0f 3e 8e 60 18 be 1f d0 92 bd
       0.094572306 0.14039236 -0.14880583 -0.07168602
000120 09 62 42 bc 28 46 88 3e 30 7b 25 be 79 5d 38 be
       -0.011864194 0.26616025 -0.16160274 -0.18004407
000130 d7 3a 07 bd 77 82 0e be 0d b5 87 3e 5c cb 81 3e
       -0.0330151 -0.13916956 0.26505318 0.25350463
000140 d3 ae 55 be 57 a7 cf 3d a3 e1 74 be f2 84 34 be
       -0.20867471 0.101393394 -0.23914199 -0.1762884
000150 86 63 64 3e 86 35 79 be 47 ad ee 3d f2 c4 d4 bd
       0.2230359 -0.24336824 0.11654144 -0.10389127
000160 6d 44 87 3e e2 0d 08 bd 37 20 45 be 73 aa 02 be
       0.26419392 -0.033216365 -0.1925057 -0.12760334
000170 61 3c 92 bc 9c 56 a5 3d 43 00 4f 3e 75 7b 8a 3b
       -0.017851057 0.0807316 0.20214944 0.004226143
000180 94 70 0e 3e 32 c3 55 3e e8 ce 0e 3e 60 12 65 3e
       0.13910133 0.20875242 0.13946116 0.22370291
000190 c0 52 32 3e a4 68 5e 3e 54 07 5b be ea ae 26 be
       0.17414379 0.21719605 -0.21389514 -0.16277662
0001a0 04 8c 52 bd 3a ef dd bd 4d dc 1b be 13 43 76 bd
       -0.05140306 -0.108366445 -0.15220757 -0.06012256
0001b0 f1 c1 0d be c9 cb a2 3c 88 84 5f 3d 93 a4 a4 bd
       -0.13843514 0.019872563 0.05456975 -0.080392025
0001c0 69 20 1c 3e 36 66 78 3e 2e 69 07 be 2f 2f 1c 3e
       0.15246738 0.2425774 -0.13223717 0.15252374
0001d0 94 c1 72 be b0 3c 61 be 55 89 50 be 2b ae e6 bd
       -0.23706657 -0.21995807 -0.20364888 -0.11263689
0001e0 24 86 1e be f1 13 96 bc 3c 89 48 3e fa 21 b2 bd
       -0.15480858 -0.018320056 0.19583601 -0.08697887
0001f0 e3 3b 04 bc 10 46 32 3e db b1 56 be 77 df 4c be
       -0.008070919 0.17409539 -0.20966284 -0.2000712
000200 f3 fe 5b be b0 6c 4b be 93 84 71 3e 3c 4f 4b 3e
       -0.21483974 -0.1986568 0.2358573 0.19854444
000210 78 fd dd 3d ad e2 77 be 76 cb 70 be f9 47 29 3e
       0.10839361 -0.24207564 -0.23515114 0.16531362
000220 d9 2c 5a 3e 4f 02 23 bc b6 f9 34 be 72 a1 6f be
       0.2130617 -0.009949281 -0.17673382 -0.2340143
000230 17 a6 e4 bd d8 93 18 be 51 b3 6f 3e e7 e3 f3 3d
       -0.111644916 -0.14900148 0.23408248 0.11908703
000240 17 c0 28 3e a7 2a 8d 3c 32 7f 1c 3e a8 a7 60 3e
       0.16479526 0.017232252 0.15282896 0.21938956
000250 30 f8 e6 3d d1 f5 02 3c 5d 2a 05 be 70 a7 15 3e
       0.11277807 0.0079931775 -0.13004442 0.14614654
000260 91 9a c7 3c e3 2f 36 3e 91 99 e8 3b 51 ce 39 3e
       0.024365695 0.17791705 0.0070983847 0.1814511
000270 63 10 55 be dc f3 5f 3d e6 8f cf bd 95 03 61 3e
       -0.20807032 0.05467592 -0.10134868 0.21974023
000280 e2 87 06 3e 4e b6 78 3e 79 6b 45 be 6b 37 82 be
       0.13137773 0.24288294 -0.19279279 -0.25432906
000290 27 59 55 be db d2 78 be 0b 2c 5d be 12 76 5c be
       -0.2083479 -0.24299185 -0.21598832 -0.21529415
0002a0 97 e6 3b 3e 54 61 81 bd 11 7d 8a be 32 11 80 be
       0.18349682 -0.06317392 -0.27048543 -0.2501312
0002b0 4a 9c 11 3e 0c 92 5f 3e 5c e5 ba 3c d0 8b 14 3e
       0.14219776 0.21833056 0.022814445 0.14506459
0002c0 91 3c b5 bd bf f7 88 3e ba 85 32 3b 89 f5 cf 3d
       -0.08849443 0.26751515 0.0027240352 0.10154254
0002d0 da 98 1d be 68 5b 1f bd 68 d5 8b 3e 31 99 7d be
       -0.1539034 -0.03890553 0.27311254 -0.24765469
0002e0 34 f3 89 be 6a ef 5a be 39 12 56 3e 36 84 52 3e
       -0.26943362 -0.21380392 0.20905389 0.20558247
0002f0 2d 42 68 3e 7b ad e6 3d 2c a9 15 be 5b f7 5b 3e
       0.22681494 0.112635575 -0.14615315 0.21481077
000300 ac 20 88 3e e1 1a 22 3d 16 0d 8b be 3d 14 cd bb
       0.26587427 0.039576415 -0.2715842 -0.006258516
000310 fb 43 6a 3e 3a d0 76 be d9 e1 6f bd 45 79 32 be
       0.22877495 -0.2410287 -0.058564994 -0.17429073
000320 1a 3d 7e be f3 d5 20 be 4b d3 22 3e 85 40 c6 3d
       -0.24827996 -0.15706615 0.15900914 0.09680275
000330 e6 72 89 bd 2c 06 5c be 75 55 6f 3d 49 7d bf bc
       -0.06711368 -0.2148673 0.058431108 -0.02337517
000340 c9 e4 36 3e fd 42 c1 3d 9d 21 35 3e 51 41 d3 3d
       0.17860712 0.09436605 0.17688604 0.103151925
000350 e4 a6 43 3e 0c 47 22 be 67 81 7a be 31 87 6d 3e
       0.19106632 -0.15847415 -0.24463426 0.23196103
000360 59 ef 55 bc 83 1b ae bd d9 fa 8c 3e af d3 64 3e
       -0.013057553 -0.08501341 0.27535132 0.22346376
000370 c9 8b db 3d ee 61 f0 bd f6 7b bf 3c 3c 1e 1d be
       0.10720021 -0.117374286 0.023374539 -0.15343565
000380 b4 b9 81 3e 48 f5 8a be ce ac 1c be ac 79 9f 3d
       0.25336993 -0.2714026 -0.15300295 0.07786879
000390 73 b4 56 bd bd 1f 92 3d d6 ba c0 3d 62 79 89 3e
       -0.052418184 0.0713496 0.09410636 0.2685042
0003a0 0e 14 ad bd 21 37 fc 3d 0e 4d 22 3c fb 1f 0e 3e
       -0.08451091 0.123152025 0.009906067 0.13879387
0003b0 3a b5 30 3e da f7 4b be 37 45 b4 bd fb cc 72 be
       0.17256632 -0.19918767 -0.08802264 -0.23711006
0003c0 aa ca 16 3e f2 a7 62 be 76 8a 58 3e 47 23 92 bc
       0.14725748 -0.22134379 0.21146569 -0.017839087
0003d0 a8 c0 60 3e 02 2d 87 be 68 67 7d 3e bb e8 14 be
       0.21948493 -0.26401526 0.24746478 -0.14541905
0003e0 1b 29 d8 bd f1 fc 0e be 4e ad cc bd b8 13 30 bd
       -0.10554715 -0.13963677 -0.09993993 -0.042987555
0003f0 04 cd 30 3e 8b 1e 12 be 75 d2 ab bd 5a 18 22 3d
       0.17265707 -0.14269464 -0.08389751 0.039574005
