my_gtn/experiment_logs/model_exp_198.pt (torch, 176281 bytes, 4 tensors)

conv1.bias f4 [128]
0	0x3d74e4c5	0.059788484
1	0x3bc4866b	0.005997469
2	0x3d15fc50	0.036617577
3	0x3d60e25b	0.05490337
4	0x3d554cd0	0.052075207
5	0x3d7c8e62	0.061659224
6	0x3d4e9f6e	0.050445013
7	0x3d3afdf3	0.04565234
8	0x3d56c5b7	0.05243465
9	0x3d6d9c31	0.058010284
10	0x3d6d83b1	0.05798692
11	0x3d73e4cf	0.05954438
12	0x3d14ca7f	0.036325928
13	0x3d661b6f	0.056178506
14	0x3d6042f5	0.054751355
15	0x3c71d7ed	0.014760953
16	0x3d1b9386	0.037982486
17	0x3d0a2b3e	0.033732645
18	0x3d5710e2	0.052506335
19	0x3d6cacca	0.057781972
20	0x3d14a56d	0.036290575
21	0xbb6864db	-0.0035460505
22	0x3d4793d1	0.048724953
23	0xbc8db855	-0.01729981
24	0x3c8574b9	0.01629101
25	0x3d3429bc	0.043985114
26	0x3d037e42	0.03210283
27	0x3b6d0e07	0.003617169
28	0x3d748b8e	0.059703402
29	0x3c981efc	0.018569462
30	0x3d81f0b3	0.06344738
31	0x3d5dd933	0.054162215
32	0x3d27ccce	0.0409668
33	0x3d395bce	0.045253567
34	0x3d82074d	0.06349049
35	0x3d7cfedb	0.061766487
36	0x3d7b3963	0.061334025
37	0x3d560a3e	0.05225586
38	0x3cca022b	0.024659237
39	0x3d54d79d	0.051963437
40	0xbc4a3567	-0.012341834
41	0x3d257427	0.040393975
42	0x3d727903	0.059197437
43	0x3d607194	0.054795817
44	0x3caab1fa	0.020836819
45	0x3ccefc03	0.025266653
46	0x3d17b4cd	0.03703766
47	0x3d6adffd	0.057342518
48	0x3d1dd199	0.038529966
49	0x3c99a116	0.01875357
50	0x3d10c203	0.035341274
51	0x3d154e5b	0.03645168
52	0x3d4e32e5	0.050341506
53	0xbb3cb6ff	-0.0028795598
54	0x3d634f10	0.05549532
55	0x3d47e197	0.048799124
56	0x3d699655	0.057028133
57	0x3d4fb153	0.05070622
58	0x3d214528	0.039372593
59	0x3d61faaf	0.05517071
60	0x3d68b2c8	0.056811124
61	0x3d6de387	0.058078315
62	0x3d17d73a	0.03707049
63	0x3c2fec66	0.010737514
64	0x3c9a8351	0.018861445
65	0x3d0cc544	0.034367815
66	0x3d83e11b	0.0643942
67	0x3d4336da	0.047659732
68	0x3d426eb8	0.04746887
69	0x3d66e8ea	0.056374468
70	0x3d507cb7	0.050900187
71	0x3c59e46e	0.013299091
72	0x3d608b31	0.054820243
73	0x3d79c3ad	0.060977627
74	0x3c4d372d	0.012525362
75	0x3d2bec85	0.04197361
76	0x3d8554a0	0.065102816
77	0x3d676f29	0.056502495
78	0x3d2df1f6	0.04246708
79	0x3d787ee2	0.06066788
80	0x3d39ec65	0.04539146
81	0x3d81cb4d	0.06337605
82	0x3d5ec210	0.05438429
83	0x3d618a1d	0.055063356
84	0x3d54f50f	0.05199152
85	0x3d7e7fca	0.062133588
86	0x3d694389	0.056949172
87	0x3d5a4d1c	0.053296193
88	0x3d7e6cf3	0.06211562
89	0x3c90ea4b	0.017689845
90	0x3d102e1f	0.035200235
91	0x3d693132	0.056931682
92	0x3c0dd1a1	0.008655936
93	0x3d74ab46	0.05973365
94	0x3d850553	0.06495156
95	0x3d6e8420	0.058231473
96	0x3d68e4d2	0.056858845
97	0x3d6efa1a	0.058343984
98	0x3c977af0	0.018491238
99	0x3b1c99eb	0.0023895453
100	0x3d849617	0.0647394
101	0x3d48848d	0.048954535
102	0x3d716a9d	0.058939565
103	0x3cadfb5c	0.021238022
104	0x3d72e142	0.059296854
105	0x3d1a4b7e	0.03766965
106	0x3d1c21a7	0.03811803
107	0x3d6c156f	0.05763763
108	0x3d0d0de2	0.034437068
109	0x3d8adf8e	0.06780921
110	0x3d7da024	0.0619203
111	0x3d7f7ecc	0.062376782
112	0x3d605c59	0.05477557
113	0x3d5f2936	0.05448266
114	0x3d798124	0.060914174
115	0x3d4e77d0	0.05040723
116	0x3d79b879	0.060966942
117	0x3d6e96dd	0.058249343
118	0x3d13925a	0.036028244
119	0x3d5c7225	0.053819794
120	0x3d7d4980	0.061837673
121	0x3d09deb3	0.03365965
122	0x3d4825a1	0.04886401
123	0x3d53744b	0.051624577
124	0x3d457f5e	0.04821717
125	0x3d6cf85c	0.05785404
126	0x3d1cfe38	0.03832838
127	0x3d3a8bb3	0.045543384

conv1.lin.weight f4 [128, 334]
0	0xbd049847	-0.032371785
1	0xbc417505	-0.011807685
2	0x3d785f8f	0.060638007
3	0x3dcb3c1b	0.099235736
4	0x3ce2be0a	0.027678508
5	0x3d95ea8b	0.07320126
6	0x3d06b3c7	0.032886293
7	0x3d9301c3	0.071780704
8	0xbc37c45d	-0.01121625
9	0xbd210da6	-0.039319657
10	0xbb09cfea	-0.0021028467
11	0xbd1449b1	-0.03620309
12	0xbd00b0a7	-0.03141847
13	0x3d99e157	0.07513683
14	0x3a8a435c	0.0010548639
15	0x3c619612	0.01376869
16	0x39de551f	0.0004240656
17	0x3d0c697d	0.03428029
18	0x3c8c15ff	0.017100332
19	0xbdf4bd76	-0.11950199
20	0xbb85bcf5	-0.0040813633
21	0xbd8a1ac3	-0.06743386
22	0xbd9b2cf2	-0.07576932
23	0x3ce8269b	0.028338721
24	0xbd8d3e73	-0.06896677
25	0x3daaa852	0.08332886
26	0x3d4b00fb	0.049561482
27	0xbd380f23	-0.04493631
28	0x3c856621	0.01628405
29	0x3e03cbe0	0.12870741
30	0xbd8b9029	-0.06814606
31	0xbd0f4a32	-0.034982868
32	0x3d8e2be1	0.06941963
33	0x3dab4ce1	0.08364273
34	0x3d2c0bd9	0.042003486
35	0x3dcddb41	0.10051585
36	0xbd2ab598	-0.041677088
37	0x3dd76c67	0.10518723
38	0xbdcdf43c	-0.1005635
39	0x3b9ca544	0.0047804434
40	0x3b661358	0.0035106745
41	0xbd77eb3d	-0.060527075
42	0x3d189f77	0.037261453
43	0xbca01722	-0.01954228
44	0xbda818bd	-0.082078435
45	0x3d9272b8	0.07150787
46	0xbd76c5a9	-0.060247097
47	0x3d5c2358	0.053744644
48	0x3dcc214d	0.09967289
49	0x3e0a76bd	0.13521858
50	0xbd6ff165	-0.05857982
51	0xbdb0b6bf	-0.08628606
52	0xbd064797	-0.032783117
53	0x3dca6f1b	0.09884473
54	0x3c64e795	0.013971229
55	0x3c9c9301	0.019113066
56	0xbc86bc80	-0.016447306
57	0xbc870f1b	-0.016486695
58	0x3dcc6901	0.099809654
59	0x3e166219	0.14685859
60	0x3d33b127	0.043870118
61	0x3d8d0952	0.06886543
62	0x3d0f35ed	0.034963537
63	0xbd836e05	-0.06417469
64	0xbe2086c5	-0.1567641
65	0x3d1878ce	0.037224583
66	0x3ca142b3	0.019685125
67	0xbd2fb3d5	-0.04289611
68	0x3db68a37	0.08913081
69	0xbcafd0c3	-0.02146185
70	0x3b84f6a4	0.004057722
71	0x3d18356e	0.03716033
72	0x3d15d438	0.03657934
73	0x3d421c03	0.047389995
74	0xbce89139	-0.02838956
75	0x3cfff189	0.031243103
76	0x3cf6c8b7	0.030125005
77	0xbde56b79	-0.112021394
78	0xbd94c41c	-0.072639674
79	0xbdd95d6c	-0.10613522
80	0x3d936d17	0.071985416
81	0x3cdd4350	0.027009636
82	0xbdc2f4ee	-0.09519373
83	0x3e189d86	0.1490384
84	0x3ca0b1f8	0.019616112
85	0x3dd46d21	0.10372377
86	0x3dbb1f1d	0.09136794
87	0x3d0c247e	0.03421449
88	0xbd29366f	-0.041311678
89	0xbdcab670	-0.098980784
90	0x3cc44a84	0.023961313
91	0x3d97bfa3	0.07409599
92	0xbd7715e0	-0.060323596
93	0xbd0d7d4c	-0.03454332
94	0xbd43f81d	-0.04784404
95	0xbd0c9a08	-0.034326583
96	0xbd992e9d	-0.07479594
97	0x3c012665	0.007882689
98	0x3c9509d1	0.018193157
99	0x3d6ad79e	0.057334535
100	0x3d710a07	0.058847453
101	0xbd85868a	-0.06519802
102	0xbdadc524	-0.08484867
103	0xbce6c4a7	-0.028169943
104	0x3e1168bb	0.14200108
105	0xbd4ddb01	-0.050257687
106	0xbdc8fab3	-0.09813442
107	0x3cf657be	0.030071136
108	0x3d9bc172	0.07605256
109	0xbc808766	-0.015689563
110	0xbc9e33ba	-0.019311775
111	0xbd2f1706	-0.042746566
112	0x3d0f81b2	0.035035796
113	0xbda3ec13	-0.08004012
114	0x3e1f440e	0.15553305
115	0x3d384185	0.04498436
116	0x3c4d92c6	0.012547201
117	0x3dc4b33d	0.096044995
118	0x3ca4d788	0.020122305
119	0x3dc8f27d	0.09811876
120	0xbc7621fb	-0.01502275
121	0xbd41cdf2	-0.047315545
122	0xbdf3acc5	-0.118981875
123	0x3cbf4e57	0.023352785
124	0xbaa3a137	-0.0012483959
125	0xbd4d585b	-0.05013309
126	0x3d20e822	0.03928388
127	0x3e28c6ef	0.16482137
128	0x3d0adbaa	0.033900894
129	0x3c0c3365	0.008557175
130	0x3d82fe79	0.06396193
131	0xbd0c6bec	-0.03428261
132	0x3b0fcda2	0.0021942635
133	0x3d318033	0.04333515
134	0x3dd580b9	0.104249425
135	0xbd83fb16	-0.06444375
136	0xbd373370	-0.04472679
137	0xbcbd4caf	-0.023107855
138	0x3e1e7c99	0.15477218
139	0xbb8feb5d	-0.004392071
140	0x3d02fa56	0.03197702
141	0xbd87d822	-0.06633021
142	0xbccbd77b	-0.024883023
143	0x3d82f421	0.0639422
144	0xbc20b6c0	-0.009809196
145	0xbd13ee98	-0.036116213
146	0xbd7da7f8	-0.061927766
147	0x3de31027	0.11087065
148	0x3d43ca24	0.0478002
149	0x3db3ccbe	0.08779286
150	0x3bb3d031	0.005487465
151	0x3d86e310	0.065862775
152	0x3dc3f3f1	0.095680125
153	0x3dc4cb88	0.09609133
154	0x3e06eb71	0.13175751
155	0x3dd29c47	0.10283714
156	0x3d959be6	0.07305126
157	0x3dbe2456	0.09284274
158	0xbc529223	-0.0128522245
159	0x3d77fbac	0.060542747
160	0xbca6e8a7	-0.02037461
161	0x3c2776fa	0.010221237
162	0xbae79c10	-0.0017670412
163	0x3d60b2d1	0.054858033
164	0x3da17407	0.078834586
165	0x3c359479	0.011082762
166	0xbcd0c425	-0.025484154
167	0x3cfa9b5a	0.030591656
168	0xbd515115	-0.051102716
169	0xbd1b3816	-0.037895285
170	0x3ca43a7e	0.020047422
171	0x3da114a7	0.07865267
172	0xbcacaf2a	-0.021079618
173	0xbbf6d58a	-0.00753278
174	0xbc13d48b	-0.009022842
175	0x3cac1b57	0.02100913
176	0x3deb190f	0.11479389
177	0xbbc3c20d	-0.0059740604
178	0xbd114d33	-0.035474014
179	0x3d277abb	0.04088853
180	0x3d8483d1	0.064704545
181	0x3d4731a3	0.04863132
182	0x3d185683	0.03719188
183	0xbcece464	-0.028917499
184	0x3d43aa59	0.047769878
185	0xbdabf59f	-0.08396458
186	0x3cc1a213	0.023636853
187	0xbd264e1d	-0.04060184
188	0x3d0718b2	0.032982536
189	0xbd3d5a49	-0.04622868
190	0x3e0ce837	0.13760458
191	0x3cd6a882	0.026203398
192	0xbd37d597	-0.04488143
193	0x3c65431a	0.013993049
194	0xbd9fbce3	-0.07799699
195	0xbd2178b0	-0.039421737
196	0xbb735998	-0.003713226
197	0xbd3f2a6e	-0.046671323
198	0x3c98f23e	0.018670198
199	0xbc3978fc	-0.011320349
200	0x3cc6d0f3	0.024269557
201	0x3d3c32f6	0.045947038
202	0x3d16c5ed	0.03680985
203	0xbc89d080	-0.016823053
204	0xbd944062	-0.072388425
205	0x3cd7d463	0.026346391
206	0x3cd53193	0.026024615
207	0x3d1f709b	0.03892575
208	0x3dcd8554	0.10035196
209	0xbd42926f	-0.04750293
210	0xbc46e99f	-0.012140661
211	0x3d8f5613	0.06998839
212	0x3cf2446e	0.029573645
213	0xbc2bb26b	-0.01047955
214	0x3d885807	0.06657415
215	0xbd5a8580	-0.05334997
216	0xbd2b0340	-0.041751146
217	0x3df4342c	0.119240135
218	0x3e037016	0.12835726
219	0x3e1281e1	0.14307357
220	0xbdcff3bd	-0.10153911
221	0x3d4cb529	0.049977455
222	0xbd53e6dd	-0.05173384
223	0x3c7ecc20	0.015551597
224	0x3d810e15	0.06301514
225	0xbcb743e2	-0.022371236
226	0xbd3e2ee4	-0.046431437
227	0xbc241627	-0.010015047
228	0x3d6a8afb	0.05726145
229	0xbaa1a76a	-0.0012333218
230	0x3d24f765	0.040274996
231	0x3b352d81	0.002764553
232	0x3df9efc6	0.12203936
233	0x3d94e5f7	0.07270425
234	0xbba1a240	-0.004932672
235	0x3c2a67a0	0.010400683
236	0x3d5537bb	0.0520551
237	0x3db0f50c	0.08640489
238	0x3cc553c6	0.024087798
239	0x3d4f07d0	0.05054456
240	0xbd636fab	-0.055526417
241	0x3ddb0d57	0.10695904
242	0x3d52592b	0.05135457
243	0x3e164e1b	0.14678232
244	0x3dbee046	0.093201205
245	0xbd524a6c	-0.051340505
246	0x3a3e2a1b	0.0007254199
247	0x3b982663	0.004643248
248	0xbd85b594	-0.06528774
249	0x3d98ffdd	0.07470677
250	0x3c24c948	0.010057755
251	0xbc780aae	-0.015139265
252	0xbccf09b0	-0.025273174
253	0xbb928a65	-0.0044720643
254	0x3da003a2	0.07813193
255	0x3e03af84	0.12859923

conv2.bias f4 [4]
0	0xbcf7feee	-0.030272927
1	0xbd49d32e	-0.049273662
2	0x3d27bfa8	0.040954262
3	0x3d098eb8	0.033583373

conv2.lin.weight f4 [4, 128]
0	0xbe298ed6	-0.16558394
1	0x3d53cbe0	0.051708102
2	0x3e7c106f	0.24615644
3	0x3e33ee82	0.17571452
4	0xbe4a4966	-0.19754562
5	0x3dee80a5	0.11645631
6	0xbc2bfdfa	-0.010497564
7	0xbe503b11	-0.20335032
8	0xbd4038f3	-0.04692931
9	0xbe0cb65a	-0.13741437
10	0xbe886e8b	-0.26646838
11	0x3d2faf35	0.0428917
12	0xbe7184e9	-0.23585857
13	0x3e77b4f2	0.24190119
14	0xbe80c79e	-0.25152296
15	0x3da1c4a6	0.07898836
16	0x3e0c3706	0.13692865
17	0x3e65ef44	0.22454554
18	0xbe8af7b3	-0.27142105
19	0xbdc22570	-0.09479797
20	0xbe3efde6	-0.18651542
21	0x3dae7736	0.085188314
22	0x3de63bc8	0.11241871
23	0xbd040317	-0.03222951
24	0xbd174bb9	-0.03693745
25	0x3dc0d5f2	0.09415807
26	0xbe2043b4	-0.15650827
27	0x3d88daf9	0.06682391
28	0x3dd178f7	0.1022815
29	0xbe64c5fb	-0.22341149
30	0x3ca8e9f5	0.020619372
31	0x3e89bd90	0.26902437
32	0x3e829871	0.2550693
33	0xbe53f9fc	-0.2070083
34	0x3e17ce6e	0.1482484
35	0x3d87d531	0.0663246
36	0x3dcb5296	0.099278614
37	0xbe19c835	-0.15017779
38	0xbc1fefb0	-0.009761736
39	0xbcdd7934	-0.027035333
40	0x3e22f7a3	0.15914778
41	0xbdbadc92	-0.09124102
42	0x3cfff68a	0.031245489
43	0x3dacd261	0.08438564
44	0x3e60e726	0.21963176
45	0x3e07d611	0.13265254
46	0xbe3922bc	-0.18079656
47	0xbe3b7207	-0.18305217
48	0xbcd676ab	-0.026179632
49	0x3d368c1a	0.044567205
50	0xbe04858e	-0.12941572
51	0xbe2fc3d7	-0.1716455
52	0x3e232c81	0.15934946
53	0x3e5a8b29	0.21342148
54	0xbded296e	-0.11580168
55	0xbe77ec95	-0.24211343
56	0x3dd0048e	0.10157119
57	0xbe3024bd	-0.17201515
58	0x3e601007	0.21881114
59	0x3e7179ca	0.23581615
60	0x3e6cdea9	0.23131813
61	0x3db5098b	0.08839711
62	0xbe037e6a	-0.12841192
63	0x3df866e4	0.12129
64	0x3e1af9df	0.15134381
65	0x3d4e58f0	0.050377786
66	0x3e308903	0.17239766
67	0x3cacf857	0.021114511
68	0x3dc1af22	0.09457232
69	0x3e0fc304	0.14039236
70	0xbe18608e	-0.14880583
71	0xbd92d01f	-0.07168602
72	0xbc42620c	-0.0118641965
73	0x3e884628	0.26616025
74	0xbe257b30	-0.16160274
75	0xbe385d79	-0.18004407
76	0xbd073ad6	-0.033015095
77	0xbe0e8277	-0.13916956
78	0x3e87b50d	0.26505318
79	0x3e81cb5c	0.25350463
80	0xbe55aed3	-0.20867471
81	0x3dcfa757	0.101393394
82	0xbe74e1a3	-0.23914199
83	0xbe3484f4	-0.17628843
84	0x3e646386	0.2230359
85	0xbe793586	-0.24336824
86	0x3deead47	0.11654144
87	0xbdd4c4f1	-0.10389126
88	0x3e87446d	0.26419392
89	0xbd080de3	-0.03321637
90	0xbe452037	-0.1925057
91	0xbe02aa73	-0.12760334
92	0xbc923c61	-0.017851057
93	0x3da5569c	0.0807316
94	0x3e4f0044	0.20214945
95	0x3b8a7b72	0.0042261416
96	0x3e0e7094	0.13910133
97	0x3e55c332	0.20875242
98	0x3e0ecee7	0.13946114
99	0x3e651260	0.22370291
100	0x3e3252c0	0.17414379
101	0x3e5e68a4	0.21719605
102	0xbe5b0754	-0.21389514
103	0xbe26aeea	-0.16277662
104	0xbd528c04	-0.05140306
105	0xbdddef3b	-0.10836645
106	0xbe1bdc4d	-0.15220757
107	0xbd764317	-0.060122576
108	0xbe0dc1f1	-0.13843514
109	0x3ca2cbca	0.019872565
110	0x3d5f848c	0.054569766
111	0xbda4a493	-0.080392025
112	0x3e1c2069	0.15246738
113	0x3e786636	0.2425774
114	0xbe07692e	-0.13223717
115	0x3e1c2f2f	0.15252374
116	0xbe72c194	-0.23706657
117	0xbe613cb0	-0.21995807
118	0xbe508956	-0.2036489
119	0xbde6ae2b	-0.11263689
120	0xbe1e8624	-0.15480858
121	0xbc9613f1	-0.018320056
122	0x3e48893d	0.19583602
123	0xbdb221fa	-0.08697887
124	0xbc043be8	-0.008070923
125	0x3e32460f	0.17409538
126	0xbe56b1db	-0.20966284
127	0xbe4cdf77	-0.2000712
128	0xbe5bfef2	-0.21483973
129	0xbe4b6cb0	-0.1986568
130	0x3e718493	0.2358573
131	0x3e4b4f3c	0.19854444
132	0x3dddfd7a	0.108393624
133	0xbe77e2ad	-0.24207564
134	0xbe70cb76	-0.23515114
135	0x3e2947f9	0.16531362
136	0x3e5a2cd8	0.21306169
137	0xbc230250	-0.009949282
138	0xbe34f9b5	-0.1767338
139	0xbe6fa172	-0.2340143
140	0xbde4a618	-0.11164492
141	0xbe1893d7	-0.14900146
142	0x3e6fb351	0.23408248
143	0x3df3e3e9	0.11908705
144	0x3e28c017	0.16479526
145	0x3c8d2aa7	0.017232252
146	0x3e1c7f32	0.15282896
147	0x3e60a7a8	0.21938956
148	0x3de6f82a	0.11277802
149	0x3c02f5ca	0.007993171
150	0xbe052a5d	-0.13004442
151	0x3e15a770	0.14614654
152	0x3cc79a91	0.024365695
153	0x3e362fe3	0.17791705
154	0x3be899a0	0.0070983917
155	0x3e39ce52	0.18145111
156	0xbe551064	-0.20807034
157	0x3d5ff3dc	0.05467592
158	0xbdcf8fe5	-0.101348676
159	0x3e610395	0.21974023
160	0x3e0687e1	0.13137771
161	0x3e78b64e	0.24288294
162	0xbe456b79	-0.19279279
163	0xbe82376b	-0.25432906
164	0xbe555927	-0.2083479
165	0xbe78d2db	-0.24299185
166	0xbe5d2c09	-0.2159883
167	0xbe5c7612	-0.21529415
168	0x3e3be697	0.18349682
169	0xbd816153	-0.06317391
170	0xbe8a7d10	-0.2704854
171	0xbe801132	-0.2501312
172	0x3e119c4b	0.14219777
173	0x3e5f920c	0.21833056
174	0x3cbae55c	0.022814445
175	0x3e148bd0	0.14506459
176	0xbdb53c93	-0.08849444
177	0x3e88f7c0	0.26751518
178	0x3b3285ad	0.0027240322
179	0x3dcff589	0.10154254
180	0xbe1d98db	-0.15390341
181	0xbd1f5b68	-0.03890553
182	0x3e8bd568	0.27311254
183	0xbe7d9931	-0.24765469
184	0xbe89f334	-0.26943362
185	0xbe5aef69	-0.2138039
186	0x3e561239	0.20905389
187	0x3e528436	0.20558247
188	0x3e68422e	0.22681496
189	0x3de6ad7b	0.112635575
190	0xbe15a92c	-0.14615315
191	0x3e5bf75b	0.21481077
192	0x3e8820ac	0.26587427
193	0x3d221ae0	0.03957641
194	0xbe8b0d16	-0.2715842
195	0xbbcd1437	-0.0062585133
196	0x3e6a43fa	0.22877494
197	0xbe76d03b	-0.24102871
198	0xbd6fe1d9	-0.058564994
199	0xbe327945	-0.17429073
200	0xbe7e3d1a	-0.24827996
201	0xbe20d5f3	-0.15706615
202	0x3e22d34b	0.15900914
203	0x3dc64087	0.09680276
204	0xbd8972e6	-0.06711368
205	0xbe5c062c	-0.2148673
206	0x3d6f5575	0.058431108
207	0xbcbf7d49	-0.02337517
208	0x3e36e4c8	0.1786071
209	0x3dc142fc	0.094366044
210	0x3e35219d	0.17688604
211	0x3dd34150	0.10315192
212	0x3e43a6e4	0.19106632
213	0xbe22470b	-0.15847413
214	0xbe7a8167	-0.24463426
215	0x3e6d8731	0.23196103
216	0xbc55ef59	-0.013057553
217	0xbdae1b84	-0.08501342
218	0x3e8cfad9	0.27535132
219	0x3e64d3af	0.22346376
220	0x3ddb8bc9	0.10720021
221	0xbdf061ee	-0.117374286
222	0x3cbf7bfa	0.023374546
223	0xbe1d1e3c	-0.15343565
224	0x3e81b9b5	0.25336996
225	0xbe8af549	-0.27140263
226	0xbe1cacce	-0.15300295
227	0x3d9f79ad	0.0778688
228	0xbd56b474	-0.052418187
229	0x3d921fbd	0.0713496
230	0x3dc0bad7	0.09410637
231	0x3e897962	0.2685042
232	0xbdad140e	-0.08451091
233	0x3dfc371f	0.12315201
234	0x3c224d0b	0.009906064
235	0x3e0e1ffb	0.13879387
236	0x3e30b53b	0.17256634
237	0xbe4bf7da	-0.19918767
238	0xbdb44537	-0.08802264
239	0xbe72ccfb	-0.23711006
240	0x3e16caa9	0.14725746
241	0xbe62a7f2	-0.22134379
242	0x3e588a76	0.21146569
243	0xbc92234a	-0.017839093
244	0x3e60c0a8	0.21948493
245	0xbe872d02	-0.26401526
246	0x3e7d6768	0.24746478
247	0xbe14e8bb	-0.14541905
248	0xbdd8291b	-0.10554715
249	0xbe0efcf1	-0.13963677
250	0xbdccad4d	-0.09993992
251	0xbd3013b8	-0.042987555
252	0x3e30cd04	0.17265707
253	0xbe121e8b	-0.14269464
254	0xbdabd275	-0.08389751
255	0x3d221858	0.039573997
