my_gtn/experiment_logs/model_exp_059.pt (torch, 46105 bytes, 4 tensors)

conv1.bias f4 [32]
0.125277 0.061795715 0.01924204 0.13150848 0.01772145 0.059630547 0.057276264 0.09436901
0.11168495 0.11965877 0.10138329 0.11879681 0.084877595 0.13289204 0.10693652 0.06730741
0.099980555 0.063831404 0.09656069 0.1099684 0.13712424 0.13361725 0.052190382 0.12819694
0.105044946 0.030631887 0.078534745 0.11898027 0.11974143 0.11577445 0.123138376 0.12452272
00000000: 9d48 003e 811d 7d3d 7ca1 9d3c 29aa 063e
00000010: 932c 913c 293f 743d 849a 6a3d 8a44 c13d
00000020: 14bb e43d a80f f53d 0ba2 cf3d be4b f33d
00000030: 4ed4 ad3d da14 083e 8901 db3d 78d8 893d
00000040: 9bc2 cc3d 0aba 823d 9cc1 c53d 1d37 e13d
00000050: 4c6a 0c3e f6d2 083e 95c5 553d 0f46 033e
00000060: ce21 d73d b9ef fa3c d3d6 a03d eeab f33d
00000070: ff3a f53d 281b ed3d f92f fc3d c505 ff3d

conv1.lin.weight f4 [32, 334]
0.19356741 0.08418399 -0.056558676 0.15341403 -0.057969138 -0.034267027 0.16841835 0.02504874
0.030691834 0.0033631877 0.0155973155 0.11152679 0.17130898 0.04525045 0.06234558 0.09030153
0.0004891624 0.010978848 0.14186296 -0.074677825 -0.05920207 0.16784623 0.20655449 0.1676213
0.0007607535 -0.089824386 -0.07268058 -0.04846249 -0.035927627 0.1762112 0.0010398721 -0.010772958
0.11566824 -0.10695113 -0.18971208 -0.040537406 -0.13516161 0.00422937 0.05784695 -0.071912356
0.20695804 0.036850955 0.08433243 -0.058593296 0.077085994 -0.050686862 0.12082243 -0.046484195
0.060681123 0.000627579 0.15792283 0.07264762 0.0976834 0.01720034 0.12789138 -0.064808026
-0.014395261 0.073613755 -0.006694212 0.025378592 0.18339698 0.07840317 -0.03188023 -0.05380759
0.09754208 0.058929913 -0.063434035 0.1489821 -0.034051605 0.08719019 -0.09391135 -0.030290414
0.11534516 -0.048638605 -0.16708882 0.04758827 0.011028314 -0.0401378 -0.15951665 -0.038717438
0.1537774 0.1512248 0.21301956 0.058755677 -0.013254963 -0.062283505 0.0035885358 0.001369485
-0.07051862 0.24394895 -0.03999681 0.10084104 -0.056174558 0.08249948 0.17171404 0.0173184
0.015274561 0.054959062 0.025813017 0.016889894 0.17952901 0.2342929 -0.09419421 -0.10933019
0.16288696 0.16072278 0.020453546 -0.03324747 0.119945124 0.09293344 0.092649914 0.0064612827
-0.011904427 -0.025045492 0.08897026 -0.012985513 -0.006402683 0.036775317 0.055535242 -0.029394511
-0.12412693 -0.03182413 -0.0010746864 -0.0842413 -0.059907135 0.13445784 0.04783302 0.14182559
0.00946252 -0.008272423 -0.026049044 0.04107864 -0.053165324 -0.121230334 -0.004572906 0.14901428
0.08743178 0.17566897 0.022977972 0.008806654 0.028446622 0.059585955 0.20686388 0.048646487
0.04641647 0.042177957 -0.005158605 -0.079453945 0.015446383 0.1710415 -0.018623086 -0.1381592
-0.11246284 0.07654541 0.008607416 0.1405808 -0.024992326 0.081925415 -0.00032607254 0.018195545
-0.009898802 0.049104676 0.099848 0.035575267 0.06444273 -0.030245263 -0.0030533324 0.14154474
-0.012319109 0.01367967 -0.1686782 0.12334584 0.09866343 0.087338075 0.12870374 0.08983473
-0.037412006 0.060744748 -0.047944285 0.16283253 0.09825718 0.109445184 -0.118944496 -0.13443974
-0.12438609 -0.063252255 0.1357827 0.13883471 0.15578791 0.07369024 -0.037990972 0.17873584
0.0013424343 0.028997967 0.15042299 -0.0075126286 -0.011364759 0.071877696 -0.03651388 0.110065006
0.08956039 -0.042471234 0.026489403 0.03315335 -0.1920142 0.04879472 0.10689974 -0.04292192
-0.108614124 -0.039711792 -0.16195412 0.22469392 0.01897162 -0.006409468 -0.010447696 0.08081824
0.1311241 0.1138705 -0.014218856 0.14756194 -0.1323077 0.2234834 0.17713778 0.051609803
0.20916936 0.055701748 -0.052249447 0.16827504 0.20365866 0.027205378 0.08581424 -0.03366838
0.19498585 0.16690439 0.10549673 0.018705165 0.094826646 0.06797056 0.034770224 0.17773317
-0.07843464 0.1278369 0.13959578 0.11051133 -0.18003717 -0.1243869 -0.040826846 0.0019332785
-0.08378925 -0.029107247 -0.012591049 0.17719516 0.1261025 0.20493603 0.032066736 0.08556791
00000000: 8936 463e a868 ac3d 12aa 67bd 9118 1d3e
00000010: 0c71 6dbd 955b 0cbd dc75 2c3e 0433 cd3c
00000020: 716d fb3c ed68 5c3b e28b 7f3c 2868 e43d
00000030: 9f6b 2f3e 8958 393d 145e 7f3d 02f0 b83d
00000040: 223b 003a a0e0 333c 8644 113e b0f0 98bd
00000050: df7d 72bd e2df 2b3e 0583 533e eba4 2b3e
00000060: 4e6d 473a d9f5 b7bd 8ed9 94bd 9b80 46bd
00000070: d928 13bd b570 343e 514c 883a 1081 30bc
00000080: 78e3 ec3d 3209 dbbd e243 42be 8d0a 26bd
00000090: ce67 0abe 8796 8a3b ecf0 6c3d c946 93bd
000000a0: cfec 533e 07f1 163d 7bb6 ac3d 86ff 6fbd
000000b0: 43df 9d3d 079d 4fbd c071 f73d 3666 3ebd
000000c0: c58c 783d 1d84 243a 86b6 213e 47c8 943d
000000d0: 3c0e c83d bae7 8c3c f5f5 023e 12ba 84bd
000000e0: 1ada 6bbc cfc2 963d 1f5b dbbb c4e6 cf3c
000000f0: 6bcc 3b3e d791 a03d d894 02bd 5965 5cbd
00000100: 24c4 c73d 7e60 713d b4e9 81bd c38e 183e
00000110: b279 0bbd c590 b23d 9854 c0bd 9a23 f8bc
00000120: 153a ec3d 4639 47bd 5519 2bbe ebeb 423d
00000130: 1ab0 343c 8967 24bd 5558 23be 2d96 1ebd
00000140: d377 1d3e adda 1a3e cd21 5a3e cba9 703d
00000150: 582b 59bc fd1c 7fbd a42d 6b3b 4b80 b33a
00000160: 116c 90bd c1cd 793e b2d3 23bd bf85 ce3d
00000170: 4b17 66bd 7df5 a83d ced5 2f3e 51df 8d3c
00000180: 2742 7a3c c11c 613d d275 d33c ad5c 8a3c
00000190: 74d6 373e 7aea 6f3e e5e8 c0bd 82e8 dfbd
000001a0: d7cb 263e 8394 243e 328e a73c 802e 08bd
000001b0: caa5 f53d e353 be3d 3dbf bd3d 2bb9 d33b
000001c0: c90a 43bc 342c cdbc 0a36 b63d 30c1 54bc
000001d0: 99cd d1bb b7a1 163d ec78 633d c2cc f0bc
000001e0: 4336 febd 055a 02bd 7edc 8cba b486 acbd
000001f0: 2f61 75bd 51af 093e 8fec 433d ba3a 113e
00000200: af08 1b3c 0f89 07bc ce64 d5bc 1342 283d
00000210: e2c3 59bd 9c47 f8bd 51d8 95bb 3397 183e
00000220: 6f0f b33d 91e2 333e 4d3c bc3c c949 103c
00000230: e408 e93c 6710 743d 20d4 533e 8a41 473d
00000240: 321f 3e3d cbc2 2c3d 8409 a9bb c0b8 a2bd
00000250: d312 7d3c 8125 2f3e 718f 98bc 9b79 0dbe
00000260: eb52 e6bd d7c3 9c3d 1f06 0d3c 6af4 0f3e
00000270: b5bc ccbc 83c8 a73d b7f4 aab9 d30e 953c
00000280: 962e 22bc fc21 493d 1c7d cc3d 5fb7 113d
00000290: 8dfa 833d eac4 f7bc 6b1a 48bb 1bf1 103e
000002a0: 17d6 49bc b220 603c fab9 2cbe be9c fc3d
000002b0: 0d10 ca3d 4ede b23d eaca 033e 45fb b73d
000002c0: 553d 19bd 7ccf 783d 3a61 44bd 92bd 263e
000002d0: 0f3b c93d cc24 e03d 2c99 f3bd 92aa 09be
000002e0: 22be febd 668a 81bd 9f0a 0b3e b02a 0e3e
000002f0: de86 1f3e e9ea 963d 6c9c 1bbd 8706 373e
00000300: 9ff4 af3a 258d ed3c 7c08 1a3e 7f2c f6bb
00000310: 4133 3abc 9d34 933d 948f 15bd c369 e13d
00000320: 706b b73d 51f6 2dbd 4e00 d93c cfcb 073d
00000330: 5f9f 44be f9dc 473d 40ee da3d e5ce 2fbd
00000340: 1571 debd d5a8 22bd 4dd7 25be 2a16 663e
00000350: 5f6a 9b3c 8406 d2bb d02c 2bbc 0984 a53d
00000360: 6545 063e f034 e93d 34f6 68bc 7a1a 173e
00000370: ab7b 07be d5d8 643e 9b63 353e cd64 533d
00000380: 7e30 563e 8427 643d 8403 56bd 4b50 2c3e
00000390: e58b 503e d0dd de3c 60bf af3d dbe7 09bd
000003a0: 5faa 473e fce8 2a3e ab0e d83d 933b 993c
000003b0: 7934 c23d 2634 8b3d 396b 0e3d afff 353e
000003c0: 57a2 a0bd ade7 023e 32f2 0e3e c453 e23d
000003d0: aa5b 38be 8fbe febd 0d3a 27bd 1066 fd3a
000003e0: b399 abbd 5272 eebc b04a 4ebc a672 353e
000003f0: 0421 013e c0da 513e 6958 033d 3a3e af3d

conv2.bias f4 [4]
-0.079297684 -0.13392182 -0.019734716 0.14610252
00000000: d366 a2bd cd22 09be b3aa a1bc e69b 153e

conv2.lin.weight f4 [4, 32]
0.3602607 0.15087865 0.063746326 0.31053483 -0.18900613 -0.039239075 0.15374057 0.42072523
0.35883078 -0.06958321 -0.4434453 0.28880322 0.379767 0.09914867 0.34364077 -0.049663957
-0.3551642 -0.046349622 -0.2501562 -0.5053688 -0.15638863 0.0667425 -0.44801164 -0.08276355
0.120655514 -0.004994176 0.1296816 -0.31163654 -0.22312982 -0.4768318 -0.14715672 0.37358257
-0.14890055 0.12690337 0.47819087 0.37167343 0.5089172 0.48962697 0.34517282 -0.12882087
-0.5215082 -0.083114214 0.35818022 -0.13833949 0.33872813 -0.47207937 -0.14260636 0.5032052
-0.4177956 0.055160474 0.32047397 -0.49222672 -0.33389667 -0.34370497 0.40875617 -0.2205648
0.1343898 0.48103264 0.23069143 -0.059529223 0.33248693 -0.30544147 0.4432047 -0.2740455
0.28387696 -0.28476334 0.31307256 0.51743203 -0.2658396 -0.06680282 -0.36362758 0.26711828
-0.31132704 0.44931173 -0.42755407 -0.29651818 -0.2472475 0.5091033 0.27146053 0.12737882
0.29373932 -0.5210061 -0.13796861 0.4752795 -0.23866458 -0.3581277 -0.3622338 0.48912117
0.1984948 -0.059480283 -0.29828566 0.35796964 -0.17415363 0.50971144 0.4044487 -0.5059908
0.49244618 -0.38760167 -0.19054686 -0.099148065 -0.38932377 -0.17420956 -0.3330325 -0.25135058
0.019026715 -0.22726494 0.2973211 -0.24424227 -0.07510849 0.11592747 -0.27828276 -0.55865335
0.34952837 -0.4793964 0.20116441 0.39703056 0.549455 -0.3477965 0.425547 -0.38241154
-0.3928282 -0.016736323 -0.29693708 -0.44481662 0.19977486 0.49745482 0.39764982 0.31098673
00000000: 1774 b83e ef7f 1a3e 6f8d 823d 6cfe 9e3e
00000010: d38a 41be 27b9 20bd 2b6e 1d3e 4c69 d73e
00000020: abb8 b73e a481 8ebd 430b e3be 04de 933e
00000030: d270 c23e 750e cb3d aff1 af3e 6f6c 4bbd
00000040: 15d8 b5be 1ad9 3dbd 7914 80be da5f 01bf
00000050: 5724 20be 4bb0 883d c861 e5be f07f a9bd
00000060: 3d1a f73d 2fa6 a3bb 41cb 043e d38e 9fbe
00000070: 257c 64be 4c23 f4be 40b0 16be 3746 bf3e
00000080: 6379 18be f5f2 013e 6fd5 f43e fb4b be3e
00000090: 6648 023f 63b0 fa3e 7eba b03e 9ee9 03be
000000a0: 9081 05bf c937 aabd 6663 b73e dea8 0dbe
000000b0: c66d ad3e 63b4 f1be 6707 12be 0ed2 003f
000000c0: 4ee9 d5be f3ef 613d 2a15 a43e 2405 fcbe
000000d0: 81f4 aabe 19fa afbe 7d48 d13e bddb 61be
000000e0: 7b9d 093e e949 f63e 603a 6c3e ead4 73bd
000000f0: ba3b aa3e d362 9cbe baeb e23e b14f 8cbe
00000100: 5258 913e 80cc 91be 0c4b a03e 6d76 043f
00000110: 211c 88be ebcf 88bd 652d babe bac3 883e
00000120: 4266 9fbe 300c e63e 5ee8 dabe 3bd1 97be
00000130: 732e 7dbe 9854 023f e0fc 8a3e 986f 023e
00000140: 0065 963e a860 05bf a547 0dbe d657 f33e
00000150: 7d64 74be 845c b7be b576 b9be 176e fa3e
00000160: 3942 4b3e 99a1 73bd e6b8 98be cc47 b73e
00000170: 5455 32be 737c 023f e613 cf3e 9d88 01bf
00000180: e821 fc3e ba73 c6be b71e 43be 240e cbbd
00000190: 7255 c7be fe63 32be 3c83 aabe 06b1 80be
000001a0: eadd 9b3c 24b8 68be 793a 983e a51a 7abe
000001b0: 7bd2 99bd 626b ed3d 147b 8ebe e803 0fbf
000001c0: 62f5 b23e 7273 f5be 0bfe 4d3e 9747 cb3e
000001d0: 15a9 0c3f 6212 b2be 4ce1 d93e 72cb c3be
000001e0: c720 c9be 9d1a 89bc 2308 98be 01bf e3be
000001f0: c891 4c3e 66b2 fe3e c298 cb3e a739 9f3e
