my_gtn/experiment_logs/model_exp_236.pt (torch, 176281 bytes, 4 tensors)

conv1.bias f4 [128]
00000000: 0d3f cc3b 54e3 eabd bb5e 163d d762 d0bc
00000010: 6f42 ee3c 6fa9 dd3d 590a debd dfaa 5cbc
00000020: 8fcd 173d ab75 fb3d 1d45 123e 3761 363e
00000030: 2184 fcbc 6fa5 873d 571d d13d d97d 34bd
00000040: 74a6 4c3c 8148 9ebd 92d7 113a 01b4 2f3d
00000050: f7dc 67bd b634 01be 88cc 3d3c fc5b dfbd
00000060: 26e7 b9bd d61f 40bd d399 39bd 7a49 85bd
00000070: 5026 803d b45c 8dbd 9503 c73d 6279 61bd
00000080: 74f3 47bd b0c6 c63c 0107 d03d 11a7 083e
00000090: af74 173d e000 113c 8d05 1abe 16d0 f13d
000000a0: 08c1 12be 7746 93bd fbce 073e 5d81 293d
000000b0: f474 ddbd d460 9bbc ce1c e5bd e3a0 be3d
000000c0: d063 78bd bbbe debc de0f eebc 7e4a 1bbd
000000d0: aadf f9bc f613 febd abba 433c b25a 69bb
000000e0: 209b ab3d 0ab6 033c db24 b63c d102 833a
000000f0: d7f5 e2bb b5d0 1c3c aeb6 673a 843a efbd
00000100: effc 1f3d 2586 923c d3d0 293e 5e50 b8bd
00000110: 4d6e 683d 1f37 013e 4e90 ae3c 2685 d8bd
00000120: 0418 183e 494e 623d 9de8 d7bd eb8a 09bd
00000130: f5f5 413d 3f66 2a3d 8a6d 443c 4eb8 4b3d
00000140: 6f76 e4bb 1919 093c d1b6 3bbc dbf0 1dbb
00000150: 7a40 843d 11b3 c93d 1846 c43d 9d2d ba3c
00000160: b392 283b 80c0 f5bd 9bdb b93d 8418 153d
00000170: c24b 99bd b8d1 093d 5fb1 863d 9486 ef3d
00000180: dab3 ac3c 4894 d33d 5075 b8bd a5e6 8fbd
00000190: c6da 193e 0ed8 c03c 31cd 9c3d 7cf3 13bd
000001a0: 8651 0d3d 49aa 1f3c 72d5 53bc 8aed 193d
000001b0: c6de ad3c 321f 133d 5c8d 233e 97a2 ef3d
000001c0: 0ea9 943c 0656 1e3d a55a a03d 1e40 353d
000001d0: 9700 b53d 9e89 e83d 9539 a7bc 386b 043d
000001e0: e83f d23d c777 c13c b484 a0bd f01d 9d3c
000001f0: de5b c5bc f331 303d 25d1 92bd 63cc e73b
0.006233102 -0.11469141 0.036711436 -0.025437756 0.029084412 0.108233325 -0.108418174 -0.013468473
0.03706127 0.12278303 0.14284177 0.17810522 -0.030824723 0.06623351 0.10210674 -0.04406533
0.012490857 -0.07728673 0.00055634335 0.042896274 -0.056607213 -0.12617764 0.011584409 -0.109062165
-0.09077291 -0.04690536 -0.045312714 -0.06508155 0.062573075 -0.06902447 0.0971748 -0.0550474
-0.04881616 0.024264663 0.10157586 0.13344981 0.036976513 0.008850306 -0.1504118 0.11807267
-0.14331448 -0.071911745 0.1326255 0.041383136 -0.10813323 -0.01896707 -0.11187135 0.093080305
-0.060642064 -0.027190557 -0.0290603 -0.03791284 -0.03050216 -0.12406151 0.011946361 -0.0035607037
0.08379197 0.008039007 0.022234371 0.0009995346 -0.006926279 0.009571244 0.0008839172 -0.11681083
0.039059576 0.01788623 0.16583566 -0.08999704 0.056745816 0.12618683 0.021309044 -0.10572271
0.14852911 0.05525044 -0.10542414 -0.033579748 0.047353704 0.041601416 0.011989007 0.049736314
-0.006972126 0.0083678 -0.011457161 -0.002409986 0.064576104 0.09848607 0.09583682 0.022726828
0.0025722205 -0.11999607 0.090750895 0.036400333 -0.07485153 0.03364727 0.065767996 0.116955906
0.021081854 0.10331017 -0.090067506 -0.07026414 0.15024862 0.023540523 0.07656325 -0.036120877
0.034501575 0.009745189 -0.012929307 0.03758005 0.02122439 0.035918422 0.15971893 0.117009334
0.018147018 0.038656257 0.07829789 0.0442506 0.08838003 0.113543734 -0.0204132 0.032328814
0.102660954 0.023616685 -0.07837811 0.019179314 -0.024091657 0.043016385 -0.071687974 0.0070739253

conv1.lin.weight f4 [128, 334]
00000000: 100e 26be f417 b3bd 9d9d aabc 238e 503e
00000010: 135a 62bd 6a73 303d 7eac 283e 29d7 483e
00000020: 4bcc bfbd 89fd 753d 9bdc eabd 1822 36be
00000030: b4bf 1abe 4222 58bd 5a5c 92bd 7e6a 92bd
00000040: 9e32 873d a8a6 88bd 0541 313e 673b 60be
00000050: 16b3 d9bd 5c3f 34be ee58 67be cf13 f93d
00000060: 073f 24be 1294 303e 9d29 15bd 4f8c 023d
00000070: d0ef 37be 3310 823e fe7b 33be 3f73 ae3d
00000080: 2da7 ae3d b9a3 3e3e ab93 e0bd 164f 48bd
00000090: ba0a 45be 42cc 5d3e b2f0 83be 5d52 94bd
000000a0: be73 1fbe 3a1a 4fbe f1b6 40bd 22b7 8fbd
000000b0: dfe9 55be f343 323e 97c5 66be ac53 d53c
000000c0: 47eb cabb 2ab5 853e 780e a0bd d461 60be
000000d0: 34b9 8abe ff3d 273b 34b6 27be 175d d5bd
000000e0: d3bf eabd 5bfc 2bbe a03e 57bd 6fb5 7a3d
000000f0: a194 f1bc 7ef2 a8bc bf00 92bd 2467 11be
00000100: 892d 59be ac7b 1bbd d0a9 a3bd 976a edbd
00000110: 00d2 4a3e 76e1 c63d 67f6 dc3d d274 173e
00000120: 87d3 793d de4c 3d3e 470e 00be f48d 123e
00000130: 7c99 8fbd 923e 6ebe 8baa 1bbe 8f2e 6abe
00000140: 413f 20bd 26f2 d03d 4eea 3bbe 8945 913e
00000150: ed58 52bd 40c4 99bd c3f6 2fbd 5058 5ebd
00000160: 990f 25be 4e73 68be 558e 9a3c b279 583e
00000170: 85e2 45be 8a4a 4cbe a9a4 dcbd d1b9 1cbe
00000180: 9faf 74be 4cc8 a93d 5220 113e 833e 313e
00000190: fe14 c2bd ee02 75be ec21 73be f9ba d7bd
000001a0: dedf 423e 07ef 2ebe f7a0 87be d402 9fbd
000001b0: 542a 523e 5ba4 0dbe 27de 32be 510a ffbd
000001c0: 3208 adbc 358d a3bd 6dc2 963e 1b6c b4bd
000001d0: 3dc7 8ebd 7643 8cbb 942e 763d 44fd 7c3e
000001e0: 28bd 1abe 9f8c 13be 50f2 66be e5b4 c1bd
000001f0: cd20 edbd 2dc3 74bd 2af4 d2bd b9ba 813e
00000200: 51c4 98bd 7b60 c0bd 4075 b3bd 087b f1bd
00000210: f4e1 0ebd 7cad 203e 8bcc 5a3e 72a3 62be
00000220: 235e 1fbe ced7 0ebe 3725 883e f846 6ebd
00000230: e6f1 cabd f244 67be 9285 17bd f7ba 423e
00000240: 208b b9bd 5da4 edbd 09c8 21be bc8f 6e3d
00000250: 992f 163e 527a 0c3e 64e5 d5bd ed99 80bc
00000260: a338 563e 9c16 6c3e 6d75 803e 2f44 a4bd
00000270: 7dbf 7abc 1af8 453e ed87 32be 67d5 3d3e
00000280: 52e5 bc3d 84de 05be 0ba8 a4bd f4fb bdbc
00000290: b5e2 0d3e 97ba 9fbd 1c49 86be 6ab0 303e
000002a0: 9304 1dbe 6fae 20be f97e 7ebd 9ffc 123e
000002b0: bd0e d23d 97a5 0b3e e837 4b3d 6c4d cabd
000002c0: 8f1f 783e 76c5 32bd b66c eebd ab3f 38bd
000002d0: f3b3 37bd 362c 9f3d 31fe 5dbd c089 04be
000002e0: a049 463e 0dd5 68be 3606 c83d b02c 2ebe
000002f0: 4722 fb3d d6c0 ddbd 7271 853e d645 92bd
00000300: 4451 8b3d 531d f1bd 6083 75be 9afa 61be
00000310: 19dc 92bd 9c2a 33be a8d7 9fbd 9300 003e
00000320: fe47 05be 9956 493e 56b6 3abd 3903 c8bd
00000330: e077 23be ba65 7cbd 0580 8dbd 449c 183e
00000340: 6170 debb 685d 0dbe 597d b9bd 1dde 033e
00000350: ad3c e2bd 6540 da3d e187 bb3d 5c28 28be
00000360: 919a 143d a270 553e b08b 753e 60e0 883e
00000370: 1e65 49be 1b8f fbbc 82cf 07be 189a bfbd
00000380: db62 a339 e41c 4abe db93 4fbe 29c8 06be
00000390: f434 323e 399e df3d 2df4 8f3b 7fc7 3abb
000003a0: aaf0 4d3e 8083 433e cff6 b2bd eafb 58bd
000003b0: a5a4 573e a2cb 4f3e b254 77bd 872b 4d3e
000003c0: fea2 6bbe e8d7 283e b6c9 f3bd 30c8 853e
000003d0: 9dd2 a13c f8d0 a63d 7d5b b4bd af56 9cbd
000003e0: ed43 65be 6255 7e3c 7840 033e 5024 b7bd
000003f0: 3117 cebd 7398 1abe 8a61 603e 5339 783e
-0.16216302 -0.08744803 -0.020827109 0.20366721 -0.055261683 0.043078817 0.1647205 0.19613327
-0.09365138 0.060056243 -0.114678584 -0.17786443 -0.15112191 -0.052767046 -0.07146521 -0.07149218
0.06601451 -0.06672412 0.17309959 -0.2189766 -0.10629861 -0.17602295 -0.22592518 0.12161981
-0.16039668 0.17243984 -0.03641664 0.03187209 -0.17962575 0.25402984 -0.17527768 0.08518075
0.0852798 0.18617143 -0.109656654 -0.048903547 -0.19242373 0.2165995 -0.25769573 -0.07242272
-0.15571496 -0.20224848 -0.047049467 -0.07017352 -0.20889996 0.17408733 -0.22536312 0.026040874
-0.006192598 0.2611478 -0.0781526 -0.21912318 -0.27094424 0.002551913 -0.16378099 -0.10418146
-0.11462369 -0.16795485 -0.05254996 0.061208185 -0.029489817 -0.020623442 -0.071290486 -0.14199501
-0.21208777 -0.03795974 -0.079913735 -0.11592596 0.19806671 0.09710972 0.10789185 0.14790657
0.060992744 0.18486354 -0.12505446 0.14311963 -0.07011697 -0.23266056 -0.15201776 -0.22869323
-0.039122824 0.10202436 -0.18351099 0.28373364 -0.051354337 -0.07508135 -0.04295994 -0.05428344
-0.16119231 -0.22700235 0.018866697 0.21140173 -0.19324692 -0.1995031 -0.10773594 -0.15305258
-0.23895119 0.08290157 0.14172485 0.17309003 -0.0947666 -0.23926899 -0.23743409 -0.10533709
0.19030711 -0.17083369 -0.26489994 -0.07764211 0.2052396 -0.13832228 -0.17467557 -0.124531396
-0.021122072 -0.079859175 0.2944521 -0.08809682 -0.069715954 -0.004280503 0.060103014 0.24705988
-0.1511122 -0.14409111 -0.22553372 -0.09458331 -0.11578522 -0.059756447 -0.10300477 0.2533777
-0.074593194 -0.09393402 -0.08762598 -0.117910445 -0.034883454 0.15691179 0.2136709 -0.22132662
-0.15563254 -0.1394951 0.26590893 -0.05817315 -0.0990942 -0.22584894 -0.036992617 0.19016634
-0.09059739 -0.116036154 -0.15798964 0.058242545 0.14666595 0.13718536 -0.104441434 -0.015698398
0.20920043 0.230555 0.2508959 -0.080208175 -0.015304443 0.19332924 -0.17434664 0.18538438
0.09223427 -0.13073164 -0.08039864 -0.02319143 0.13856013 -0.07799261 -0.26227653 0.17254797
-0.15333776 -0.15691541 -0.06213281 0.1435418 0.10256717 0.13637386 0.049613863 -0.09878048
0.24230789 -0.043645345 -0.11641829 -0.044982594 -0.044849347 0.077721044 -0.054197494 -0.12943172
0.19364023 -0.22737522 0.0976681 -0.17009234 0.12262397 -0.10827796 0.26063114 -0.071422264
0.068026096 -0.11773171 -0.23975897 -0.22068253 -0.071708865 -0.17496723 -0.07804805 0.12500219
-0.13015744 0.1966194 -0.045584045 -0.0976624 -0.15963697 -0.06162045 -0.069091834 0.1490336
-0.006788299 -0.13805163 -0.09057111 0.12877698 -0.11046729 0.106568135 0.09156776 -0.16421646
0.03628022 0.20843747 0.23979068 0.26733685 -0.1966748 -0.030707886 -0.13262752 -0.09355563
0.00031163436 -0.19737583 -0.20271246 -0.13162293 0.17403013 0.109188505 0.0043931217 -0.0028500257
0.20111337 0.19093132 -0.08738481 -0.05297462 0.210589 0.20292524 -0.060383506 0.20036136
-0.23011395 0.16488612 -0.11903708 0.26129293 0.019753749 0.081453264 -0.088065125 -0.07633721
-0.22389193 0.015523287 0.12817562 -0.08942473 -0.10063017 -0.15097217 0.21912208 0.24240617

conv2.bias f4 [4]
00000000: 7794 783c 49de 0ebe e3cc 8e3d 900d 453c
0.0151721155 -0.13951983 0.06972673 0.012027159

conv2.lin.weight f4 [4, 128]
00000000: ee8d eabd 656d 7ebd 9453 1b3e b92a a33d
00000010: 7031 09be c688 2f3e 9d47 233d 53b1 0bbe
00000020: 7431 323c 402c 15be 86c5 bdbe a64b 933d
00000030: 1560 1ebe eb7f 823e be9d 81be 7e7b f93c
00000040: d04c 013e c358 0b3e a04e 7abe 0d95 35bd
00000050: ac0e 43bd 0605 123c 3de3 5b3c f06b 16be
00000060: b770 26bd 909e b83d 8050 6fbd a2d2 8abb
00000070: 6efd d23d 2b82 a9be 6277 543d a79a 903e
00000080: 54a6 2d3e dee4 93be 57d8 233e 7493 463d
00000090: 30e0 943d d546 bdbc f872 8fbd bc1b d2bd
000000a0: f694 703d 357c 4cbe 4271 b53c fb09 df3d
000000b0: 3668 c33d d98b f93d 65af 50bd d801 61be
000000c0: 82ff 1dbe 8b9c d5bb a609 7abe 0a91 cebd
000000d0: c8c0 913d 33da e83d 7bcc 08be aa62 35be
000000e0: 8a4d d53d 4b92 17be 5abd 763e 4f29 4a3e
000000f0: 04fc 6b3e 968d 6f3d 19fd 7fbe c4f4 753d
00000100: 2ab0 153e 5df1 563d db8e 0a3e 67ad 793c
00000110: 7d02 183e fe16 7f3e 121a 80be 0467 ec3c
00000120: 208c 9a3b 9df7 883e a683 a5bc 6dba ffbd
00000130: 7a83 f23c 7761 b3bd 1c71 8b3e 26fc 503e
00000140: d7c0 4cbe d1a1 8a3d b4dd 88be 7674 0abe
00000150: c8ce 7f3e 6d55 68be 724f 033e 3af3 12bd
00000160: a713 693e bee1 eb3d ad69 00be 4a6f 16be
00000170: 0f58 c13d c967 c03d 9152 933e 8117 2c3d
00000180: 3d6a 043e 8b79 db3d 7b16 a43d 3dc4 683e
00000190: 34da 183e 3083 623e def1 7bbe c6af 81bd
000001a0: b18e 0f3b 5ace 5abe 4701 1bbe 3c54 75bc
000001b0: 54a9 6fbe fd24 763c a02e ae3d 2fd3 143c
000001c0: 9977 f73d 033f 553e 6adb 0ebe 1c94 843e
000001d0: 3fc5 86be 19a8 90be 5b63 11be c11e e1bd
000001e0: 4538 fabd 190a 243c 5bab db3d 2eb3 28bd
000001f0: 29a9 093c 677a 2b3e 35c7 b1bd 17e8 07be
00000200: fd22 04be 83dd bbbd 83ff 883e bcbf 5d3e
00000210: bbc4 4d3e dcbf 74be 351d f2bd 50fe fa3d
00000220: e746 2d3e 42b2 cbbd 0741 02be 3512 9cbe
00000230: bbac 51bc 89bf 76be c113 a13d ce51 f93d
00000240: 8ddb 403e c2f5 2cbb 98b8 413e d01f 963e
00000250: 8b4f 7dba 5063 a13d 8554 97bd 70c0 9c3d
00000260: 90d0 ef3d df0f 2c3e 270b cebd cfa9 db3d
00000270: 7215 9bbe f40c b43c 5003 6ebd 3c2f 223e
00000280: cb1f eb3d 358c 8b3e d1a5 94be 8252 abbe
00000290: 2156 a2be df68 f0bd 7630 19be 216d 38be
000002a0: 9959 f83d 7b8b 6a3d ae77 a8be daf6 a7be
000002b0: 0047 cb3d 0447 023e 1cf8 86bd 76d4 e93c
000002c0: 1461 edbc 1a22 a33e 580c 8ebd d3e3 953d
000002d0: e035 f1bd edbf 8e3d 503e 3e3e bf04 babe
000002e0: 1371 c0be 3fa5 2ebe b1ea 773e a431 693e
000002f0: 659a 083e bbd6 093e e425 37bd 0da3 653e
00000300: c4c6 9b3e b129 32bd 24d6 acbe 89f0 93bd
00000310: d0e3 183e 4a3d 51be a1fc 313d 5498 59bd
00000320: 4bf1 aabe f8da 21be 7513 933d d017 123d
00000330: 1daa 3dbe 3701 aabe 7810 0d3d b3e0 5ebc
00000340: a3a4 163e 9f7f 8c3d aa91 073d e3ed 493e
00000350: 2531 353e b349 5ebe dd99 76be 6ca6 9e3e
00000360: f600 c7bb 3746 633d 69a8 9e3e 5452 803e
00000370: db50 3b3e 59a4 1abe 093b 92bd 6dbc 61be
00000380: a23c 3b3e 5e70 b3be a02c 8bbe 1ff9 0a3d
00000390: 65a3 11be b173 093d 28e5 933c 7ac4 6b3e
000003a0: 79dd 3bbe 88f2 f23b acaa b8bd e8db f63d
000003b0: 9fe8 893e e571 a2be b620 88bd 2eba 95be
000003c0: cbfb cd3d ae78 a0be 3561 713e d674 c0bd
000003d0: 8ade 883e 3b62 a7be dfa8 583e 871a 8abd
000003e0: 0397 78bd da97 9abd 5115 cebc e4d0 23be
000003f0: b98c 3a3e 4aba 0dbe 0620 1bbe e669 2b3c
-0.11452852 -0.062116046 0.15168601 0.07967133 -0.13397765 0.17142019 0.039863218 -0.13641863
0.010876048 -0.14567661 -0.3706476 0.07192163 -0.1546634 0.2548822 -0.2531566 0.030454393
0.12626958 0.13608079 -0.24444056 -0.0443316 -0.047621414 0.0089123305 0.013420877 -0.14689612
-0.040634837 0.090146184 -0.05842638 -0.004236535 0.10302244 -0.33107123 0.051871665 0.2824299
0.1695798 -0.2888555 0.16000496 0.048480466 0.07269323 -0.023105064 -0.070043504 -0.10259196
0.05873581 -0.19969256 0.022148732 0.108905755 0.09541361 0.12184877 -0.05094852 -0.2197336
-0.154295 -0.0065189055 -0.24417743 -0.10086258 0.07116848 0.11369743 -0.13359253 -0.17713419
0.1041518 -0.148019 0.2409567 0.1974232 0.23045355 0.058484636 -0.24998893 0.06004788
0.14617983 0.052476276 0.13531058 0.015239096 0.14844699 0.24911115 -0.2501989 0.028857715
0.0047164112 0.26751414 -0.020204376 -0.1248673 0.029603709 -0.08758824 0.27234733 0.20408687
-0.19995438 0.06769145 -0.26731646 -0.13520989 0.24981225 -0.22688837 0.12823275 -0.03587649
0.22761403 0.11517666 -0.12540312 -0.14690891 0.09440624 0.093947954 0.2877393 0.042014603
0.12931152 0.10716542 0.080121 0.22731109 0.14926988 0.22120357 -0.24603984 -0.06332354
0.002190512 -0.2136778 -0.15137206 -0.014973696 -0.23404437 0.015023467 0.08504987 0.009083553
0.12083358 0.20824818 -0.13950887 0.25894248 -0.26322362 -0.28253248 -0.14198057 -0.10992194
-0.12217764 0.010012173 0.10726043 -0.041186504 0.008402147 0.16745912 -0.08680574 -0.13272129
-0.12903972 -0.091731094 0.2675744 0.21655172 0.20094578 -0.23901314 -0.11821977 0.122555375
0.16921578 -0.09946109 -0.12720118 -0.3048264 -0.01279753 -0.24096502 0.07865096 0.12173806
0.18833752 -0.00263916 0.18918073 0.29321146 -0.0009663037 0.078802705 -0.07389168 0.07653892
0.11709702 0.1680293 -0.10060721 0.10725748 -0.302898 0.021978833 -0.058108628 0.15838331
0.114806734 0.27255407 -0.29032758 -0.33461386 -0.31706336 -0.117387526 -0.14959893 -0.1801038
0.121264644 0.057261925 -0.32903808 -0.3280552 0.099256516 0.12722403 -0.06590292 0.028543692
-0.028976955 0.31861955 -0.06935948 0.07318845 -0.11777854 0.06970201 0.18578458 -0.36331746
-0.3758627 -0.17055224 0.24210621 0.22772843 0.13340147 0.1346082 -0.04471387 0.2242548
0.30425084 -0.04349679 -0.33757126 -0.07223613 0.14930654 -0.20433536 0.043453816 -0.053123787
-0.33387217 -0.15806186 0.071814455 0.03566724 -0.18521924 -0.33204052 0.034439534 -0.013603377
0.14711241 0.06860279 0.0330979 0.19719653 0.17694528 -0.21707802 -0.24082132 0.30986345
-0.0060731126 0.055486884 0.30987862 0.2506281 0.18292563 -0.15101756 -0.07140166 -0.22044535
0.18284848 -0.35046667 -0.27182484 0.033928987 -0.14222486 0.033557598 0.018053606 0.23024169
-0.18346204 0.007414166 -0.09016928 0.120536625 0.26935288 -0.3172752 -0.06646864 -0.29243606
0.10057791 -0.3134207 0.23572238 -0.09397285 0.26732284 -0.3269213 0.21158169 -0.06743341
-0.06069089 -0.07548495 -0.025156649 -0.15997654 0.18217744 -0.13840595 -0.15148935 0.01046226
