my_gtn/experiment_logs/model_exp_127.pt (torch, 89497 bytes, 4 tensors)

conv1.bias f4 [64]
000000 9c 1a 55 3d 64 c6 38 3e 2c c8 d0 3c a3 fd 83 3d
       0.05202733 0.1804443 0.025486074 0.06444862
000010 9c ff 4a 3d 9c 8e 27 3e 1d 54 2c 3e 22 76 2a 3e
       0.049560174 0.16362995 0.16828962 0.16646627
000020 02 0c 30 3d 9c 30 70 3d f8 3c 2c 3e b9 91 2b 3e
       0.0429802 0.058640108 0.16820133 0.16754808
000030 ae d0 8d 3d 8d dd 7d 3d 8a 32 2c bc a8 67 43 bd
       0.06924568 0.061978865 -0.010510096 -0.047706276
000040 8a d5 34 3e ed b6 60 3d 30 b8 d7 bd 1b 42 7d 3d
       0.17659584 0.05486195 -0.10533178 0.06183062
000050 96 05 29 3e 42 02 ca 3c 5f 71 92 bd 70 fa e3 bd
       0.16506037 0.02465928 -0.0715053 -0.111317515
000060 77 d9 dd 3c 59 19 16 3e 0b dd cc bd 28 26 ae bd
       0.027081234 0.14658107 -0.10003098 -0.085033715
000070 d6 a2 50 bc 6f 04 27 3e 8f 42 85 3d c1 da b9 3b
       -0.012734136 0.16310285 0.06506836 0.0056718295
000080 8c 80 cb 3c cd 59 2b 3e 69 97 0d 3e 15 ab 42 3e
       0.02484157 0.16733475 0.1382729 0.19010575
000090 07 84 7a 3d 50 d6 11 3d bb 7d 3f 3d 55 b5 29 3e
       0.061161067 0.035604775 0.046750765 0.16573079
0000a0 da 3b 82 bd 24 0d 9b bd 32 1a 44 bd d7 ed 47 3d
       -0.06359072 -0.07570866 -0.047876544 0.048810806
0000b0 29 7a 2e 3e 1f f8 25 bd c5 ac 83 bc 30 2c 9b 3d
       0.17038788 -0.04051983 -0.016073594 0.075767875
0000c0 4a ed 30 3e af 15 bd bb f0 12 27 3e db 7c 2a 3e
       0.17278019 -0.005770407 0.16315818 0.16649191
0000d0 b5 23 3d 3e c4 bb 2c 3e 8b ee 22 bd ea df 2f 3e
       0.18470652 0.16868502 -0.039778274 0.1717526
0000e0 a0 64 30 3e fa 35 bb bc a3 93 21 3e aa c3 51 bd
       0.17225885 -0.022852886 0.15778975 -0.05121199
0000f0 9d f7 32 3e c2 c1 8a bc ec 15 fd bc 80 fb 59 3d
       0.1747727 -0.016938094 -0.030894242 0.053218365

conv1.lin.weight f4 [64, 334]
000000 39 43 20 3e 08 75 4e 3d ae a8 00 3e 0a e0 97 3e
       0.15650643 0.05040458 0.12564346 0.29663116
000010 7c 19 aa bd 2a b0 4f 3c 1d aa 2d 3e 31 44 d8 bc
       -0.08305642 0.012676278 0.16959424 -0.026399704
000020 46 d5 f3 bd d2 52 38 3d 3d ad 15 be 23 65 6c 3d
       -0.11905913 0.04500086 -0.14616866 0.05771364
000030 93 d4 9c 3e c6 42 f7 3c 58 65 43 be 12 6f de bc
       0.3063093 0.030183207 -0.19081628 -0.027152572
000040 33 c0 5f bd 05 0f 3c be b1 03 60 bd 8f bc 01 be
       -0.054626655 -0.18365104 -0.05469102 -0.12669586
000050 6f 4c c7 bd a7 be b4 3d ce 9f ef bb 2f da 6a 3d
       -0.097313754 0.088254265 -0.0073127514 0.057336982
000060 09 fc 4a be 9f 3f 7a 3e 80 41 1d 3e e8 fb 58 3e
       -0.19822706 0.24438332 0.15357018 0.21189845
000070 e0 5f 2a 3e 3e ea 40 3e 47 ca 2e be 16 fb 54 3e
       0.16638136 0.18839356 -0.1706935 0.20798907
000080 5b fc 6b 3e 6b 5b 6c 3b 27 68 32 bc 8e 61 ce 3d
       0.23045485 0.0036065232 -0.01088909 0.10077201
000090 92 74 c1 bd f8 bb 48 3e 24 ad 7f 3e 90 fb 1a bc
       -0.09446062 0.19602954 0.24968392 -0.009459391
0000a0 99 6f 41 3e e1 ac a7 3d e5 07 66 3e 68 51 2b 3e
       0.18890227 0.08187271 0.22463949 0.16730273
0000b0 86 14 44 be 42 65 48 be 74 7a d9 bd b6 8d 29 bd
       -0.19148454 -0.19569877 -0.10619059 -0.04139491
0000c0 ce 1c 8f bd b1 ab 92 3e 1f 52 85 3d 68 c1 4d bd
       -0.06987916 0.28646615 0.06509804 -0.050233275
0000d0 86 a7 9b 3e 84 8c be bd 12 eb eb bc 27 9e 0e be
       0.30401248 -0.09304145 -0.028798614 -0.13927518
0000e0 14 15 0c 3e f1 d2 bc 3d f0 82 99 3d 9d 11 6e be
       0.13679916 0.092199214 0.074956775 -0.23248906
0000f0 5b 55 3a bd a8 b7 92 bd 41 ec 98 3d f1 c2 62 be
       -0.045491558 -0.07163936 0.07466937 -0.22144677
000100 a9 7c 96 bd 12 c3 3f be dd ab 6a be 95 f8 35 be
       -0.07347996 -0.18726757 -0.22917123 -0.17770608
000110 3c a9 1f be 35 b6 68 bc 90 75 0b be a6 bc ea bd
       -0.15591902 -0.014203598 -0.13619065 -0.11461763
000120 cc 5e cb bd 6a d4 ce 3d 2b 30 8f bd c9 94 8c 3d
       -0.099301904 0.100991085 -0.06991609 0.06864316
000130 ad 28 25 be d4 3e 47 be 37 89 64 bc 15 45 33 be
       -0.16128798 -0.19457561 -0.01394873 -0.17506821
000140 6e 35 0a be b4 c0 ca 3d a3 cc f9 3d 12 09 49 3e
       -0.13496944 0.099000365 0.121972345 0.19632366
000150 84 e5 ec bd 2a 6e bb bd 34 c6 51 be ce 1c 7f bc
       -0.11567214 -0.091518715 -0.20485765 -0.015570832
000160 ac a1 8e bd 51 48 a9 bd 7e da fa bd 3f a9 ca bd
       -0.0696443 -0.082657464 -0.12248705 -0.098955624
000170 db 64 51 be 93 9b 05 bc 78 85 74 3e b2 d3 16 3e
       -0.2044863 -0.008154768 0.2387904 0.14729193
000180 1d ab 9a bd bf 37 35 3e fc 33 35 3e e7 b9 c1 bd
       -0.075521685 0.17697047 0.17695612 -0.09459286
000190 87 15 e0 bc 62 88 a1 3e f2 76 4e 3c 32 af d2 bd
       -0.027354015 0.31549364 0.012601601 -0.10287322
0001a0 83 cb 1d 3e 79 50 40 3e 53 b5 94 3e 98 97 27 3e
       0.15409665 0.18780698 0.2904459 0.16366422
0001b0 2e 30 44 3e 13 fc 73 bd ed d4 2b 3d 65 c6 3b be
       0.19159004 -0.05956657 0.04195111 -0.183374
0001c0 1b 0f a2 bd 24 30 70 be ec b5 09 be 9a 68 c8 bd
       -0.079130374 -0.23455864 -0.13448304 -0.09785576
0001d0 5a ab 7d bd ef e1 29 bc 12 c1 9e 3d a6 86 6c 3e
       -0.06193099 -0.010368808 0.07751669 0.2309824
0001e0 76 9f 42 3e 47 12 96 3e 60 50 98 bc 47 9a 8f 3e
       0.19006142 0.2931082 -0.018593013 0.28047392
0001f0 0b 8a bc bd d5 09 96 3e 45 4d ff bc c4 f7 03 3e
       -0.09206017 0.29304376 -0.031164775 0.12887484
000200 d0 3f 69 bd b7 ba 42 3e 9d 95 18 bc 88 b2 41 bb
       -0.056945622 0.19016539 -0.009313014 -0.0029555876
000210 dc 8f 64 bd 68 1b 56 3d 75 e0 78 bd 9b 53 88 3e
       -0.055801257 0.05227223 -0.060760934 0.26626286
000220 37 0d 3f 3d ab 44 f0 bd 23 6b 45 be a5 6d b1 3d
       0.046643462 -0.117318474 -0.1927915 0.08663491
000230 f9 f9 87 3e ed bb 6b bd f9 94 6e 3e ad cd 9f bd
       0.26557902 -0.057552267 0.23299016 -0.078029014
000240 7a 0e 44 be 1e 49 4b be d9 86 17 be 62 8d 76 bd
       -0.19146147 -0.1985211 -0.14797534 -0.060193427
000250 e3 a5 34 3e 8c 48 16 3e 5a 0b 69 3d 6d 23 20 bd
       0.17641406 0.14676112 0.05689559 -0.039096285
000260 92 95 55 3e 7f 6f e4 3a 2d 99 29 bc 81 3e 07 bc
       0.20857838 0.0017428248 -0.010351461 -0.008254648
000270 26 5b 66 bd 7a 70 54 be c4 94 e7 bd 5d 5e 79 3e
       -0.05623927 -0.20746031 -0.11307672 0.24352403
000280 ef fd 01 be 25 be ba bd 70 bc 07 bd b2 64 c1 3d
       -0.12694524 -0.091182984 -0.033138692 0.09443034
000290 6d 46 91 3e af 6f 16 3c 06 1a 51 3e b9 45 12 be
       0.28374043 0.009181901 0.20420083 -0.1428441
0002a0 23 a7 44 be 3b 77 6d bc 3b b9 9f bd fe 4a 4c bd
       -0.19204383 -0.014493759 -0.07799002 -0.049876206
0002b0 42 cb 76 3e 3d 2b 6e 3d de f7 2a 3e 75 5f af bc
       0.24100974 0.058146704 0.16696116 -0.021407822
0002c0 55 33 4c be e4 1f b4 bd b3 ee 9a bd b1 83 51 be
       -0.19941457 -0.08795145 -0.075650595 -0.20460393
0002d0 7e 7f 6d bd b7 10 fb 3d 48 d7 0e bd f1 c5 1b be
       -0.057982914 0.122590475 -0.034873277 -0.15212227
0002e0 26 ef cc bb c5 ca df 3d b2 c5 53 3e 78 aa 53 bd
       -0.0062540947 0.10927347 0.20680884 -0.051676244
0002f0 b8 d8 d6 3d 56 e9 2e be 4b 0d 9c bb 38 ae 02 3e
       0.104905546 -0.17081198 -0.004762327 0.12761772
000300 bc 11 b9 3c 9c e2 17 3e a7 da 6a bd 8b ee 98 3d
       0.022591464 0.14832538 -0.05733743 0.074673735
000310 23 22 cf bd e7 93 b4 bd e4 3b a2 3d e1 55 5b bd
       -0.10113933 -0.08817273 0.079215795 -0.053548697
000320 9a e4 24 be bd 5f 6e bc 01 f8 52 be 87 ea da bd
       -0.1610283 -0.014549193 -0.20602418 -0.10689264
000330 69 57 95 bd 84 42 0e bc 5a f7 b2 bc 31 18 3d 3e
       -0.07292063 -0.008682851 -0.021846462 0.1846626
000340 c8 32 34 3d 38 5d 56 be 39 7a f3 bd 69 f7 88 3e
       0.04399374 -0.20933998 -0.118885465 0.2675126
000350 22 c8 26 3c 1d 25 60 bd ff 72 30 be 78 f8 81 3b
       0.010179551 -0.054722894 -0.17231368 0.0039663874
000360 5c 11 c8 bc cb c8 d7 bd bd 7d 36 be ff 82 60 3e
       -0.02442234 -0.10536345 -0.17821403 0.21924971
000370 bd 11 2f 3e fe 6e 28 3d cf 48 08 3e b8 16 5f be
       0.1709661 0.041121475 0.13309024 -0.2178601
000380 fe 9e 92 3e 47 42 52 bd 98 b2 0c 3e de 5c a6 bd
       0.28636926 -0.05133274 0.13740003 -0.08123182
000390 4a d3 a2 3d c8 58 32 3e d1 e2 10 be c6 6e 24 bd
       0.079504564 0.1741668 -0.14149024 -0.040144704
0003a0 26 8f 4c 3e fe ed 32 3e 9e 85 ae bd d8 de ff bd
       0.19976482 0.174736 -0.08521579 -0.12493676
0003b0 bc 4c 48 3e 23 a7 6d 3c 8c 92 b4 3c df bc 28 be
       0.19560522 0.0145051805 0.022042535 -0.16478299
0003c0 4b 26 83 3e c8 93 bc 3d b0 f4 4c 3e ff 55 86 3e
       0.25615153 0.092078745 0.20015216 0.26237485
0003d0 19 85 2e 3d 46 d5 56 be eb aa 1b bd c9 63 0f be
       0.0426074 -0.20979795 -0.038004797 -0.14002909
0003e0 ab b0 48 be 10 ed 57 3e 6c 55 37 be 47 17 4e be
       -0.19598643 0.21086526 -0.1790368 -0.20126067
0003f0 61 92 74 bd 68 15 96 3e a9 a1 84 3e f4 95 bb 3d
       -0.05970991 0.29313207 0.25904587 0.09159461

conv2.bias f4 [4]
000000 4d 17 1e be aa 4d 21 be 69 06 25 3e 0b 4c 37 3e
       -0.15438576 -0.15752283 0.16115727 0.17900102

conv2.lin.weight f4 [4, 64]
000000 d4 b5 9d be 2b c4 59 3e 5e 06 02 be 68 90 f1 bc
       -0.30802786 0.21266238 -0.12697741 -0.029487804
000010 b8 ab 31 be c7 d0 f2 3d b6 2f f3 be 6b a5 47 3e
       -0.17350662 0.11856227 -0.47497338 0.19496696
000020 21 99 63 3d d4 25 d4 3d 64 f2 fa 3d 72 7e a5 be
       0.055565957 0.10358778 0.122532636 -0.32323033
000030 e5 50 9e bd 57 eb c0 be 26 fd e6 bd be d6 01 3e
       -0.07730273 -0.3767955 -0.11278753 0.12679574
000040 68 00 14 3e fe 49 91 bd 1b a0 a1 be f1 a7 a3 3e
       0.1445328 -0.07094191 -0.31567463 0.31964067
000050 f1 89 31 3e 5b 36 69 be 67 35 35 3c c7 dc 4c 3e
       0.17337777 -0.22774641 0.011060095 0.20006095
000060 91 3f 17 3e 8b e1 51 bc 4c f5 4f 3e ef d7 49 3d
       0.14770342 -0.012810121 0.20308417 0.049278196
000070 f0 28 bd bc d2 ff b7 3d e9 11 e7 3d 23 ed b9 3e
       -0.02309081 0.08984341 0.11282713 0.36313733
000080 ff 1c 71 be 31 24 a7 3e 69 c3 c7 be af 4d 10 3d
       -0.23546217 0.326448 -0.39016274 0.035230335
000090 0d 88 04 3e d0 12 71 be df f7 cd bd 77 f6 db 3e
       0.12942524 -0.23542333 -0.10057043 0.42961475
0000a0 2b d4 f7 3d 72 b6 0f 3e 1e d8 36 be cb ab 7e 3e
       0.12101015 0.14034441 -0.1785588 0.24870221
0000b0 e5 97 b3 be d5 a7 32 be cb b9 3e 3e 75 b2 8f 3e
       -0.35076824 -0.17446835 0.18625562 0.2806584
0000c0 2d ab a2 be a0 db 09 3e 2d cf d6 3d 09 bc 7d be
       -0.31771222 0.13462687 0.104887344 -0.24778761
0000d0 6c ce ac 3e 12 b0 b4 be b5 b6 4a 3e 3a e0 65 3e
       0.33751237 -0.3529058 0.1979626 0.22448817
0000e0 d0 30 e0 be c1 c2 18 3e f8 05 56 be 84 05 46 be
       -0.4378724 0.14918043 -0.20900714 -0.19338042
0000f0 64 7f e3 bd 16 17 a5 bd f1 62 d2 3e 7c 3a 7f be
       -0.11108282 -0.08061044 0.4109111 -0.24924654
000100 38 65 96 be 76 3a c0 be d2 2f ac 3e 76 a6 ce bc
       -0.293741 -0.37544602 0.33630234 -0.02522586
000110 75 2e d5 3e 19 2b e9 be 3b b0 9d be 25 f5 4e be
       0.41637006 -0.45540693 -0.30798516 -0.20210703
000120 de 7d 45 3e 19 50 c9 bd cc 50 cc be de 90 4e 3e
       0.19286296 -0.098297305 -0.39905393 0.2017245
000130 74 df 54 be 5f 60 a3 3e 60 56 73 3e e3 7f 61 3d
       -0.20788366 0.31909463 0.23763418 0.055053603
000140 5b 69 dd 3e eb 13 84 3e b7 81 bc 3d d8 11 78 3d
       0.43244442 0.25796446 0.09204429 0.060563892
000150 77 72 8e be 3c 6c 3f 3e 56 df 3d be 2a 00 fc 3d
       -0.27821705 0.18693632 -0.18542227 0.12304719
000160 c5 9e a4 be 2d da de bd 00 8b 2d 3e 1e ec 26 3e
       -0.32152382 -0.108814575 0.16947556 0.16301009
000170 f6 ef 98 3d 68 85 89 be 27 7f f6 3e 70 32 55 3e
       0.07467644 -0.26859593 0.48143885 0.20820022
000180 ee 92 80 3e cb 23 c6 be b3 c1 b2 3e d5 a0 01 3e
       0.25112098 -0.38699183 0.34913406 0.12659009
000190 46 a1 30 3e 99 96 eb 3e 51 bb 90 3e b1 fd 7a 3d
       0.17249021 0.46013334 0.2826791 0.061277095
0001a0 04 f7 ae bd d8 6f 44 3e 0a 70 71 3d 72 68 ae be
       -0.08543208 0.1918329 0.05894474 -0.3406406
0001b0 7f 18 8a be c3 5d 2d 3e 92 0b 59 3e a8 f4 68 be
       -0.26971814 0.16930299 0.2119582 -0.22749579
0001c0 92 21 94 3b 35 2a fc 3d fe a1 f5 3c 79 88 99 be
       0.0045206035 0.12312738 0.02998447 -0.29986933
0001d0 c0 cf e7 3d c1 3c b0 bd 49 5a d5 bd f4 36 91 be
       0.11318922 -0.08605338 -0.10417611 -0.28362238
0001e0 9e 1e 5d bb 57 fc 29 bd f3 66 e5 be 45 93 4e 3e
       -0.0033740173 -0.041500416 -0.44805107 0.20173366
0001f0 1e 18 ef bb d2 67 8c 3e c5 4f ec bd 3e 09 9f 3e
       -0.007296576 0.2742296 -0.11538652 0.3106174
000200 9b f8 36 bd c6 0c 2e 3e 48 46 f8 be 01 cd 8f 3d
       -0.044670682 0.1699706 -0.4849112 0.07021523
000210 4b 33 6f 3e e5 47 0d 3e d3 4b d8 3e 8f 58 97 be
       0.2335941 0.13796957 0.4224535 -0.29559752
000220 bc a9 d2 3e f5 20 6a bd 67 78 38 3e 54 91 e3 be
       0.41145122 -0.057160337 0.1801468 -0.44446814
000230 c1 36 8f 3e 18 d6 87 3e 75 87 8d be e5 35 76 be
       0.2797146 0.26530528 -0.27642408 -0.24043997
000240 c1 b5 9f 3b da 08 a0 3e 75 61 14 be 6c 9f 52 be
       0.0048739617 0.31256753 -0.14490302 -0.20568627
000250 d8 a3 99 3e 31 f4 f1 be 2e f9 6c be b1 65 82 3d
       0.30007815 -0.47256616 -0.2314193 0.06367052
000260 45 e2 de be 4f 5b 98 be 73 08 dd bd f6 4e de 3c
       -0.43532005 -0.29757163 -0.10792627 0.02713726
000270 25 73 80 be 8e 32 a9 be aa d0 ea be 13 3c cc be
       -0.25087848 -0.33046383 -0.45862323 -0.39889583
000280 0e d2 db be ab 65 a7 be bb 5e e3 3d 44 33 ac 3e
       -0.42933697 -0.32694754 0.11102053 0.33632863
000290 f2 83 95 bd 48 04 20 be ef cf f8 be 75 e8 cb bd
       -0.07300557 -0.15626633 -0.4859614 -0.09956447
0002a0 1d d5 e3 3c bd 46 6d bc 57 2b a6 3e 49 e0 9d 3e
       0.027811581 -0.014482197 0.3245494 0.30835178
0002b0 71 63 3f 3e a9 92 2e bd ed 51 5e be fe db d4 be
       0.18690278 -0.042620335 -0.2171094 -0.4157409
0002c0 7c 42 b1 3e 86 9e 46 be 72 0b 36 3c f0 91 e3 3e
       0.34621036 -0.1939641 0.011111127 0.4444728
0002d0 af f9 9a 3e 3a fc ec 3e 8d b2 cd bd 6b 89 70 bd
       0.30268618 0.46286184 -0.100438215 -0.058724802
0002e0 ba 66 98 3e c6 bc 70 be 98 b3 9c be bb 4f 4e 3e
       0.29765874 -0.23509511 -0.3060577 0.20147602
0002f0 df b3 9b 3e c8 e4 b1 3e 2f 6b 06 bd b8 18 b7 3e
       0.30410668 0.3474486 -0.032817062 0.35761046
000300 01 69 87 3e 06 04 ad be ab 94 f3 be db a1 e7 3e
       0.264473 -0.33792132 -0.47574362 0.45240673
000310 0b 3e 55 be 15 5a 9d 3d a0 5d d6 3b 92 74 81 3e
       -0.20824449 0.076831974 0.0065419227 0.2528425
000320 fa b9 2a be 1e 7f db 3e 25 63 df 3d f7 23 19 3e
       -0.16672507 0.4287042 0.10907582 0.14955126
000330 70 52 7a be 62 e9 12 3e 88 9e 00 3d f6 4d 4f 3e
       -0.2444551 0.14346841 0.031401187 0.20244583
000340 07 bf d4 be 91 40 a8 be 50 75 7e 3d ab 2f ec be
       -0.41551992 -0.3286176 0.062123597 -0.46130118
000350 a1 cd a6 be 7d 6f fb 3d 97 c0 9b bc 49 84 4c bd
       -0.32578757 0.12277124 -0.019012732 -0.049930844
000360 6d f3 27 3e db 78 c6 3e 7c f2 9c bc 2d f3 b2 bd
       0.16401453 0.3876408 -0.019158594 -0.08737788
000370 22 88 b6 be 85 ad 60 bd d4 41 4d 3e 42 bf 8b be
       -0.35650736 -0.05485298 0.20044643 -0.27294356
000380 5f d5 98 3e ed d4 43 3e 4a cd 93 3e b6 86 35 be
       0.2985029 0.19124193 0.2886756 -0.1772717
000390 a4 3a ed be 01 f2 12 3e c2 e7 db be 56 89 06 be
       -0.46333802 0.1435013 -0.42950255 -0.13138327
0003a0 25 79 64 be d8 68 9d be f4 71 5d bd 39 78 0f be
       -0.22311838 -0.30744052 -0.054063752 -0.14010705
0003b0 ba 76 59 3e 8f b5 94 be c6 a6 11 be dd d3 e9 be
       0.21236697 -0.29044768 -0.14223775 -0.4566945
0003c0 31 13 bb be 3a b9 e5 3e 58 01 ee 3e 2e 00 6a 3e
       -0.3653808 0.4486788 0.464854 0.22851631
0003d0 78 92 ce be b5 87 7b 3d 59 54 bc be 5c ce 34 3e
       -0.40346122 0.061408717 -0.36783102 0.17656845
0003e0 db 3d a0 3e c6 da 01 3e 0b 6f 78 3e 62 ba 69 be
       0.31297192 0.12681112 0.2426111 -0.22825006
0003f0 10 18 aa be 09 09 18 be 36 13 c1 bd 7b 43 96 3d
       -0.33221483 -0.14847197 -0.09427492 0.0733709
