my_gtn/experiment_logs/model_exp_182.pt (torch, 176281 bytes, 4 tensors)

conv1.bias f4 [128]
000000 0f 3f cc 3b 54 e3 ea bd ba 5e 16 3d d9 62 d0 bc
       0.006233103 -0.11469141 0.036711432 -0.02543776
000010 6b 42 ee 3c 6d a9 dd 3d 59 0a de bd e5 aa 5c bc
       0.029084405 0.10823331 -0.108418174 -0.013468479
000020 8f cd 17 3d ad 75 fb 3d 1d 45 12 3e 37 61 36 3e
       0.03706127 0.12278304 0.14284177 0.17810522
000030 21 84 fc bc 6f a5 87 3d 57 1d d1 3d d9 7d 34 bd
       -0.030824723 0.06623351 0.10210674 -0.04406533
000040 74 a6 4c 3c 80 48 9e bd f2 d7 11 3a 01 b4 2f 3d
       0.012490857 -0.07728672 0.00055634894 0.042896274
000050 f7 dc 67 bd b6 34 01 be 87 cc 3d 3c fc 5b df bd
       -0.056607213 -0.12617764 0.011584408 -0.109062165
000060 26 e7 b9 bd d0 1f 40 bd d1 99 39 bd 7a 49 85 bd
       -0.09077291 -0.04690534 -0.045312706 -0.06508155
000070 50 26 80 3d b3 5c 8d bd 96 03 c7 3d 62 79 61 bd
       0.062573075 -0.069024466 0.09717481 -0.0550474
000080 76 f3 47 bd b0 c6 c6 3c ff 06 d0 3d 11 a7 08 3e
       -0.048816167 0.024264663 0.101575844 0.13344981
000090 b0 74 17 3d da 00 11 3c 8d 05 1a be 15 d0 f1 3d
       0.036976516 0.008850301 -0.1504118 0.118072666
0000a0 09 c1 12 be 78 46 93 bd fb ce 07 3e 5c 81 29 3d
       -0.1433145 -0.07191175 0.1326255 0.041383132
0000b0 f5 74 dd bd d4 60 9b bc ce 1c e5 bd e2 a0 be 3d
       -0.108133234 -0.01896707 -0.11187135 0.0930803
0000c0 d0 63 78 bd bd be de bc de 0f ee bc 7d 4a 1b bd
       -0.060642064 -0.02719056 -0.0290603 -0.037912834
0000d0 a6 df f9 bc f6 13 fe bd ac ba 43 3c ec 5a 69 bb
       -0.030502152 -0.12406151 0.0119463615 -0.0035607172
0000e0 20 9b ab 3d 0a b6 03 3c d8 24 b6 3c be 02 83 3a
       0.08379197 0.008039007 0.022234365 0.0009995324
0000f0 cb f5 e2 bb b6 d0 1c 3c 8e b6 67 3a 84 3a ef bd
       -0.0069262735 0.009571245 0.00088391535 -0.11681083
000100 ef fc 1f 3d 28 86 92 3c d1 d0 29 3e 60 50 b8 bd
       0.039059576 0.017886236 0.16583563 -0.08999705
000110 4e 6e 68 3d 1f 37 01 3e 4e 90 ae 3c 26 85 d8 bd
       0.05674582 0.12618683 0.021309044 -0.10572271
000120 04 18 18 3e 4a 4e 62 3d 9d e8 d7 bd eb 8a 09 bd
       0.14852911 0.055250444 -0.10542414 -0.033579748
000130 f9 f5 41 3d 42 66 2a 3d 8d 6d 44 3c 4f b8 4b 3d
       0.04735372 0.041601427 0.01198901 0.049736317
000140 6a 76 e4 bb 17 19 09 3c d0 b6 3b bc d3 f0 1d bb
       -0.006972124 0.008367798 -0.01145716 -0.0024099841
000150 7a 40 84 3d 11 b3 c9 3d 18 46 c4 3d 9c 2d ba 3c
       0.064576104 0.09848607 0.09583682 0.022726826
000160 ca 92 28 3b 80 c0 f5 bd 9a db b9 3d 85 18 15 3d
       0.0025722259 -0.11999607 0.09075089 0.036400337
000170 c2 4b 99 bd b8 d1 09 3d 60 b1 86 3d 94 86 ef 3d
       -0.07485153 0.03364727 0.065768 0.116955906
000180 da b3 ac 3c 46 94 d3 3d 50 75 b8 bd a5 e6 8f bd
       0.021081854 0.10331015 -0.090067506 -0.07026414
000190 c5 da 19 3e 0c d8 c0 3c 31 cd 9c 3d 7b f3 13 bd
       0.1502486 0.02354052 0.07656325 -0.036120873
0001a0 86 51 0d 3d 4c aa 1f 3c 6c d5 53 bc 8b ed 19 3d
       0.034501575 0.009745192 -0.012929302 0.037580054
0001b0 c5 de ad 3c 31 1f 13 3d 5b 8d 23 3e 97 a2 ef 3d
       0.021224389 0.03591842 0.15971892 0.117009334
0001c0 0b a9 94 3c 06 56 1e 3d a5 5a a0 3d 20 40 35 3d
       0.018147012 0.038656257 0.07829789 0.044250607
0001d0 97 00 b5 3d 9e 89 e8 3d 96 39 a7 bc 35 6b 04 3d
       0.08838003 0.113543734 -0.020413201 0.032328803
0001e0 e7 3f d2 3d c5 77 c1 3c b3 84 a0 bd f1 1d 9d 3c
       0.10266095 0.02361668 -0.0783781 0.019179316
0001f0 e0 5b c5 bc f3 31 30 3d 25 d1 92 bd 5f cc e7 3b
       -0.024091661 0.043016385 -0.071687974 0.0070739235

conv1.lin.weight f4 [128, 334]
000000 0f 0e 26 be f3 17 b3 bd 9e 9d aa bc 23 8e 50 3e
       -0.162163 -0.08744802 -0.02082711 0.20366721
000010 13 5a 62 bd 69 73 30 3d 7f ac 28 3e 29 d7 48 3e
       -0.055261683 0.043078814 0.16472052 0.19613327
000020 4b cc bf bd 8b fd 75 3d 9b dc ea bd 18 22 36 be
       -0.09365138 0.06005625 -0.114678584 -0.17786443
000030 b4 bf 1a be 3e 22 58 bd 5a 5c 92 bd 7b 6a 92 bd
       -0.15112191 -0.05276703 -0.07146521 -0.07149216
000040 a0 32 87 3d a8 a6 88 bd 05 41 31 3e 67 3b 60 be
       0.06601453 -0.06672412 0.17309959 -0.2189766
000050 16 b3 d9 bd 5c 3f 34 be ee 58 67 be d0 13 f9 3d
       -0.10629861 -0.17602295 -0.22592518 0.12161982
000060 09 3f 24 be 13 94 30 3e 9d 29 15 bd 4f 8c 02 3d
       -0.16039671 0.17243986 -0.03641664 0.03187209
000070 d1 ef 37 be 33 10 82 3e fe 7b 33 be 3f 73 ae 3d
       -0.17962576 0.25402984 -0.17527768 0.08518075
000080 2d a7 ae 3d b9 a3 3e 3e ab 93 e0 bd 17 4f 48 bd
       0.0852798 0.18617143 -0.109656654 -0.04890355
000090 ba 0a 45 be 42 cc 5d 3e b2 f0 83 be 5d 52 94 bd
       -0.19242373 0.2165995 -0.25769573 -0.07242272
0000a0 bf 73 1f be 3b 1a 4f be f2 b6 40 bd 22 b7 8f bd
       -0.15571497 -0.2022485 -0.04704947 -0.07017352
0000b0 df e9 55 be f3 43 32 3e 97 c5 66 be b4 53 d5 3c
       -0.20889996 0.17408733 -0.22536312 0.02604089
0000c0 4a eb ca bb 2a b5 85 3e 78 0e a0 bd d4 61 60 be
       -0.0061925994 0.2611478 -0.0781526 -0.21912318
0000d0 34 b9 8a be d5 3d 27 3b 34 b6 27 be 18 5d d5 bd
       -0.27094424 0.0025519032 -0.16378099 -0.10418147
0000e0 d3 bf ea bd 5b fc 2b be a0 3e 57 bd 6f b5 7a 3d
       -0.11462369 -0.16795485 -0.05254996 0.061208185
0000f0 a2 94 f1 bc 7f f2 a8 bc be 00 92 bd 24 67 11 be
       -0.029489819 -0.020623444 -0.07129048 -0.14199501
000100 89 2d 59 be ac 7b 1b bd cf a9 a3 bd 97 6a ed bd
       -0.21208777 -0.03795974 -0.07991373 -0.11592596
000110 00 d2 4a 3e 77 e1 c6 3d 67 f6 dc 3d d2 74 17 3e
       0.19806671 0.09710973 0.10789185 0.14790657
000120 87 d3 79 3d de 4c 3d 3e 47 0e 00 be f4 8d 12 3e
       0.060992744 0.18486354 -0.12505446 0.14311963
000130 7c 99 8f bd 94 3e 6e be 8b aa 1b be 8f 2e 6a be
       -0.07011697 -0.23266059 -0.15201776 -0.22869323
000140 40 3f 20 bd 26 f2 d0 3d 4e ea 3b be 89 45 91 3e
       -0.03912282 0.10202436 -0.18351099 0.28373364
000150 f2 58 52 bd 3f c4 99 bd c4 f6 2f bd 51 58 5e bd
       -0.051354356 -0.07508134 -0.042959943 -0.054283444
000160 99 0f 25 be 4f 73 68 be 61 8e 9a 3c b2 79 58 3e
       -0.16119231 -0.22700237 0.01886672 0.21140173
000170 85 e2 45 be 8a 4a 4c be a9 a4 dc bd d1 b9 1c be
       -0.19324692 -0.1995031 -0.10773594 -0.15305258
000180 9f af 74 be 4d c8 a9 3d 52 20 11 3e 84 3e 31 3e
       -0.23895119 0.082901575 0.14172485 0.17309004
000190 fe 14 c2 bd ee 02 75 be ec 21 73 be f9 ba d7 bd
       -0.0947666 -0.23926899 -0.23743409 -0.10533709
0001a0 df df 42 3e 07 ef 2e be f7 a0 87 be d2 02 9f bd
       0.19030713 -0.17083369 -0.26489994 -0.0776421
0001b0 54 2a 52 3e 5b a4 0d be 27 de 32 be 51 0a ff bd
       0.2052396 -0.13832228 -0.17467557 -0.124531396
0001c0 32 08 ad bc 35 8d a3 bd 6d c2 96 3e 1b 6c b4 bd
       -0.021122072 -0.079859175 0.2944521 -0.08809682
0001d0 3a c7 8e bd 7a 43 8c bb 93 2e 76 3d 44 fd 7c 3e
       -0.06971593 -0.004280505 0.06010301 0.24705988
0001e0 28 bd 1a be 9f 8c 13 be 50 f2 66 be e5 b4 c1 bd
       -0.1511122 -0.14409111 -0.22553372 -0.09458331
0001f0 cd 20 ed bd 2d c3 74 bd 2a f4 d2 bd b9 ba 81 3e
       -0.11578522 -0.059756447 -0.10300477 0.2533777
000200 52 c4 98 bd 7b 60 c0 bd 3f 75 b3 bd 08 7b f1 bd
       -0.0745932 -0.09393402 -0.08762597 -0.117910445
000210 f4 e1 0e bd 7a ad 20 3e 8b cc 5a 3e 73 a3 62 be
       -0.034883454 0.15691176 0.2136709 -0.22132663
000220 21 5e 1f be ce d7 0e be 37 25 88 3e fa 46 6e bd
       -0.15563251 -0.1394951 0.26590893 -0.058173157
000230 e6 f1 ca bd f2 44 67 be 92 85 17 bd f7 ba 42 3e
       -0.0990942 -0.22584894 -0.036992617 0.19016634
000240 20 8b b9 bd 5d a4 ed bd 09 c8 21 be d0 8f 6e 3d
       -0.09059739 -0.116036154 -0.15798964 0.05824262
000250 99 2f 16 3e 52 7a 0c 3e 64 e5 d5 bd ed 99 80 bc
       0.14666595 0.13718536 -0.104441434 -0.015698398
000260 a3 38 56 3e 9c 16 6c 3e 6d 75 80 3e 2d 44 a4 bd
       0.20920043 0.230555 0.2508959 -0.08020816
000270 7e bf 7a bc 1a f8 45 3e ed 87 32 be 67 d5 3d 3e
       -0.015304444 0.19332924 -0.17434664 0.18538438
000280 51 e5 bc 3d 85 de 05 be 0b a8 a4 bd f4 fb bd bc
       0.09223426 -0.13073166 -0.08039864 -0.02319143
000290 b5 e2 0d 3e 97 ba 9f bd 1d 49 86 be 6a b0 30 3e
       0.13856013 -0.07799261 -0.26227656 0.17254797
0002a0 93 04 1d be 6f ae 20 be f9 7e 7e bd 9e fc 12 3e
       -0.15333776 -0.15691541 -0.06213281 0.14354178
0002b0 bd 0e d2 3d 97 a5 0b 3e e8 37 4b 3d 6d 4d ca bd
       0.10256717 0.13637386 0.049613863 -0.09878049
0002c0 8e 1f 78 3e 78 c5 32 bd b6 6c ee bd ac 3f 38 bd
       0.24230787 -0.043645352 -0.11641829 -0.044982597
0002d0 f3 b3 37 bd 36 2c 9f 3d 31 fe 5d bd c0 89 04 be
       -0.044849347 0.077721044 -0.054197494 -0.12943172
0002e0 a0 49 46 3e 0d d5 68 be 36 06 c8 3d af 2c 2e be
       0.19364023 -0.22737522 0.0976681 -0.17009233
0002f0 45 22 fb 3d d6 c0 dd bd 73 71 85 3e d6 45 92 bd
       0.12262396 -0.10827796 0.26063117 -0.071422264
000300 44 51 8b 3d 53 1d f1 bd 60 83 75 be 9b fa 61 be
       0.068026096 -0.11773171 -0.23975897 -0.22068255
000310 19 dc 92 bd 9b 2a 33 be a8 d7 9f bd 93 00 00 3e
       -0.071708865 -0.17496721 -0.07804805 0.12500219
000320 fe 47 05 be 98 56 49 3e 55 b6 3a bd 39 03 c8 bd
       -0.13015744 0.19661939 -0.04558404 -0.0976624
000330 e0 77 23 be ba 65 7c bd 06 80 8d bd 44 9c 18 3e
       -0.15963697 -0.06162045 -0.06909184 0.1490336
000340 66 70 de bb 68 5d 0d be 5a 7d b9 bd 1d de 03 3e
       -0.0067883013 -0.13805163 -0.09057112 0.12877698
000350 ae 3c e2 bd 65 40 da 3d e2 87 bb 3d 5c 28 28 be
       -0.1104673 0.106568135 0.09156777 -0.16421646
000360 91 9a 14 3d a1 70 55 3e b0 8b 75 3e 60 e0 88 3e
       0.03628022 0.20843746 0.23979068 0.26733685
000370 1e 65 49 be 1b 8f fb bc 82 cf 07 be 17 9a bf bd
       -0.1966748 -0.030707886 -0.13262752 -0.09355562
000380 e5 63 a3 39 e5 1c 4a be db 93 4f be 2a c8 06 be
       0.0003116421 -0.19737585 -0.20271246 -0.13162294
000390 f4 34 32 3e 39 9e df 3d 21 f4 8f 3b ab c7 3a bb
       0.17403013 0.109188505 0.004393116 -0.002850036
0003a0 aa f0 4d 3e 80 83 43 3e cf f6 b2 bd ea fb 58 bd
       0.20111337 0.19093132 -0.08738481 -0.05297462
0003b0 a5 a4 57 3e a2 cb 4f 3e b0 54 77 bd 86 2b 4d 3e
       0.210589 0.20292524 -0.0603835 0.20036134
0003c0 fe a2 6b be e8 d7 28 3e b5 c9 f3 bd 30 c8 85 3e
       -0.23011395 0.16488612 -0.11903707 0.26129293
0003d0 99 d2 a1 3c f8 d0 a6 3d 7d 5b b4 bd b0 56 9c bd
       0.019753741 0.081453264 -0.088065125 -0.07633722
0003e0 ed 43 65 be 63 55 7e 3c 78 40 03 3e 50 24 b7 bd
       -0.22389193 0.0155232875 0.12817562 -0.08942473
0003f0 31 17 ce bd 72 98 1a be 8b 61 60 3e 53 39 78 3e
       -0.10063017 -0.15097216 0.2191221 0.24240617

conv2.bias f4 [4]
000000 77 94 78 3c 49 de 0e be e3 cc 8e 3d 91 0d 45 3c
       0.0151721155 -0.13951983 0.06972673 0.01202716

conv2.lin.weight f4 [4, 128]
000000 ed 8d ea bd 65 6d 7e bd 94 53 1b 3e b9 2a a3 3d
       -0.114528514 -0.062116046 0.15168601 0.07967133
000010 70 31 09 be c6 88 2f 3e 9c 47 23 3d 53 b1 0b be
       -0.13397765 0.17142019 0.039863214 -0.13641863
000020 79 31 32 3c 41 2c 15 be 86 c5 bd be a5 4b 93 3d
       0.010876053 -0.14567663 -0.3706476 0.071921624
000030 15 60 1e be eb 7f 82 3e be 9d 81 be 82 7b f9 3c
       -0.1546634 0.2548822 -0.2531566 0.0304544
000040 d0 4c 01 3e c3 58 0b 3e a0 4e 7a be 0d 95 35 bd
       0.12626958 0.13608079 -0.24444056 -0.0443316
000050 ac 0e 43 bd 06 05 12 3c 37 e3 5b 3c f1 6b 16 be
       -0.047621414 0.0089123305 0.013420871 -0.14689614
000060 b6 70 26 bd 90 9e b8 3d 80 50 6f bd a2 d2 8a bb
       -0.040634833 0.090146184 -0.05842638 -0.004236535
000070 6e fd d2 3d 2b 82 a9 be 62 77 54 3d a7 9a 90 3e
       0.10302244 -0.33107123 0.051871665 0.2824299
000080 54 a6 2d 3e de e4 93 be 56 d8 23 3e 71 93 46 3d
       0.1695798 -0.2888555 0.16000494 0.048480455
000090 2e e0 94 3d d0 46 bd bc f8 72 8f bd bd 1b d2 bd
       0.072693214 -0.023105055 -0.070043504 -0.10259197
0000a0 f9 94 70 3d 35 7c 4c be 41 71 b5 3c fa 09 df 3d
       0.05873582 -0.19969256 0.02214873 0.10890575
0000b0 38 68 c3 3d d9 8b f9 3d 65 af 50 bd d8 01 61 be
       0.095413625 0.12184877 -0.05094852 -0.2197336
0000c0 82 ff 1d be 93 9c d5 bb a7 09 7a be 0a 91 ce bd
       -0.154295 -0.0065189092 -0.24417745 -0.10086258
0000d0 c8 c0 91 3d 33 da e8 3d 7b cc 08 be aa 62 35 be
       0.07116848 0.11369743 -0.13359253 -0.17713419
0000e0 89 4d d5 3d 4b 92 17 be 59 bd 76 3e 50 29 4a 3e
       0.10415179 -0.148019 0.24095668 0.19742322
0000f0 05 fc 6b 3e 99 8d 6f 3d 1a fd 7f be c3 f4 75 3d
       0.23045357 0.058484647 -0.24998894 0.060047876
000100 29 b0 15 3e 5e f1 56 3d dc 8e 0a 3e 5e ad 79 3c
       0.14617981 0.05247628 0.13531059 0.015239088
000110 7d 02 18 3e fe 16 7f 3e 12 1a 80 be 07 67 ec 3c
       0.14844699 0.24911115 -0.2501989 0.028857721
000120 20 8c 9a 3b 9d f7 88 3e a9 83 a5 bc 6d ba ff bd
       0.0047164112 0.26751414 -0.020204382 -0.1248673
000130 78 83 f2 3c 79 61 b3 bd 1c 71 8b 3e 26 fc 50 3e
       0.029603705 -0.08758826 0.27234733 0.20408687
000140 d7 c0 4c be d0 a1 8a 3d b4 dd 88 be 76 74 0a be
       -0.19995438 0.067691445 -0.26731646 -0.13520989
000150 c8 ce 7f 3e 6f 55 68 be 72 4f 03 3e 36 f3 12 bd
       0.24981225 -0.2268884 0.12823275 -0.035876475
000160 a8 13 69 3e be e1 eb 3d ad 69 00 be 49 6f 16 be
       0.22761405 0.11517666 -0.12540312 -0.1469089
000170 0f 58 c1 3d c9 67 c0 3d 91 52 93 3e 83 17 2c 3d
       0.09440624 0.093947954 0.2877393 0.04201461
000180 3d 6a 04 3e 8b 79 db 3d 7b 16 a4 3d 3d c4 68 3e
       0.12931152 0.10716542 0.080121 0.22731109
000190 33 da 18 3e 30 83 62 3e dd f1 7b be c6 af 81 bd
       0.14926986 0.22120357 -0.24603982 -0.06332354
0001a0 b8 8e 0f 3b 5b ce 5a be 48 01 1b be 3c 54 75 bc
       0.0021905135 -0.21367781 -0.15137208 -0.014973696
0001b0 54 a9 6f be f0 24 76 3c 9f 2e ae 3d 30 d3 14 3c
       -0.23404437 0.015023455 0.08504986 0.009083554
0001c0 99 77 f7 3d 03 3f 55 3e 6a db 0e be 1c 94 84 3e
       0.12083358 0.20824818 -0.13950887 0.25894248
0001d0 3f c5 86 be 19 a8 90 be 5b 63 11 be c2 1e e1 bd
       -0.26322362 -0.28253248 -0.14198057 -0.10992195
0001e0 45 38 fa bd 1c 0a 24 3c 5b ab db 3d 2f b3 28 bd
       -0.12217764 0.010012176 0.10726043 -0.041186508
0001f0 28 a9 09 3c 67 7a 2b 3e 35 c7 b1 bd 17 e8 07 be
       0.008402146 0.16745912 -0.08680574 -0.13272129
000200 fd 22 04 be 83 dd bb bd 83 ff 88 3e bc bf 5d 3e
       -0.12903972 -0.091731094 0.2675744 0.21655172
000210 bc c4 4d 3e dc bf 74 be 35 1d f2 bd 51 fe fa 3d
       0.2009458 -0.23901314 -0.11821977 0.12255538
000220 e7 46 2d 3e 42 b2 cb bd 07 41 02 be 35 12 9c be
       0.16921578 -0.09946109 -0.12720118 -0.3048264
000230 b6 ac 51 bc 89 bf 76 be bf 13 a1 3d ce 51 f9 3d
       -0.012797525 -0.24096502 0.078650944 0.12173806
000240 8d db 40 3e d2 f5 2c bb 98 b8 41 3e d0 1f 96 3e
       0.18833752 -0.0026391638 0.18918073 0.29321146
000250 78 4f 7d ba 50 63 a1 3d 86 54 97 bd 70 c0 9c 3d
       -0.0009663026 0.078802705 -0.073891684 0.07653892
000260 8d d0 ef 3d df 0f 2c 3e 28 0b ce bd cf a9 db 3d
       0.117097 0.1680293 -0.10060722 0.10725748
000270 72 15 9b be f7 0c b4 3c 52 03 6e bd 3b 2f 22 3e
       -0.302898 0.021978838 -0.058108635 0.1583833
000280 cc 1f eb 3d 35 8c 8b 3e d2 a5 94 be 83 52 ab be
       0.11480674 0.27255407 -0.2903276 -0.3346139
000290 21 56 a2 be df 68 f0 bd 76 30 19 be 22 6d 38 be
       -0.31706336 -0.117387526 -0.14959893 -0.18010381
0002a0 97 59 f8 3d 7b 8b 6a 3d ae 77 a8 be da f6 a7 be
       0.12126463 0.057261925 -0.32903808 -0.3280552
0002b0 00 47 cb 3d 05 47 02 3e 1c f8 86 bd 73 d4 e9 3c
       0.099256516 0.12722404 -0.06590292 0.028543686
0002c0 16 61 ed bc 1a 22 a3 3e 59 0c 8e bd d4 e3 95 3d
       -0.028976958 0.31861955 -0.06935949 0.073188454
0002d0 de 35 f1 bd ed bf 8e 3d 50 3e 3e 3e bf 04 ba be
       -0.117778525 0.06970201 0.18578458 -0.36331746
0002e0 13 71 c0 be 3f a5 2e be b0 ea 77 3e a5 31 69 3e
       -0.3758627 -0.17055224 0.2421062 0.22772844
0002f0 65 9a 08 3e bb d6 09 3e e5 25 37 bd 0d a3 65 3e
       0.13340147 0.1346082 -0.044713873 0.2242548
000300 c3 c6 9b 3e ac 29 32 bd 24 d6 ac be 87 f0 93 bd
       0.3042508 -0.043496773 -0.33757126 -0.07223611
000310 ce e3 18 3e 4a 3d 51 be a2 fc 31 3d 54 98 59 bd
       0.1493065 -0.20433536 0.04345382 -0.053123787
000320 4b f1 aa be f8 da 21 be 75 13 93 3d d1 17 12 3d
       -0.33387217 -0.15806186 0.071814455 0.035667244
000330 1d aa 3d be 37 01 aa be 7e 10 0d 3d ae e0 5e bc
       -0.18521924 -0.33204052 0.034439556 -0.0136033725
000340 a4 a4 16 3e 9f 7f 8c 3d ac 91 07 3d e3 ed 49 3e
       0.14711243 0.06860279 0.033097908 0.19719653
000350 24 31 35 3e b4 49 5e be dd 99 76 be 6c a6 9e 3e
       0.17694527 -0.21707803 -0.24082132 0.30986345
000360 f6 00 c7 bb 37 46 63 3d 69 a8 9e 3e 54 52 80 3e
       -0.0060731126 0.055486884 0.30987862 0.2506281
000370 db 50 3b 3e 5a a4 1a be 0a 3b 92 bd 6d bc 61 be
       0.18292563 -0.15101758 -0.07140167 -0.22044535
000380 a3 3c 3b 3e 5e 70 b3 be a0 2c 8b be 22 f9 0a 3d
       0.1828485 -0.35046667 -0.27182484 0.033928998
000390 65 a3 11 be b4 73 09 3d 27 e5 93 3c 7a c4 6b 3e
       -0.14222486 0.03355761 0.018053604 0.23024169
0003a0 79 dd 3b be a5 f2 f2 3b ac aa b8 bd e8 db f6 3d
       -0.18346204 0.0074141794 -0.09016928 0.120536625
0003b0 9f e8 89 3e e5 71 a2 be b5 20 88 bd 2e ba 95 be
       0.26935288 -0.3172752 -0.06646863 -0.29243606
0003c0 cd fb cd 3d ae 78 a0 be 34 61 71 3e d6 74 c0 bd
       0.10057793 -0.3134207 0.23572236 -0.09397285
0003d0 8a de 88 3e 3b 62 a7 be df a8 58 3e 87 1a 8a bd
       0.26732284 -0.3269213 0.21158169 -0.06743341
0003e0 02 97 78 bd dc 97 9a bd 55 15 ce bc e4 d0 23 be
       -0.060690887 -0.07548496 -0.025156656 -0.15997654
0003f0 b9 8c 3a 3e 4a ba 0d be 07 20 1b be f2 69 2b 3c
       0.18217744 -0.13840595 -0.15148936 0.010462271
