my_gtn/experiment_logs/model_exp_104.pt (torch, 89497 bytes, 4 tensors)

conv1.bias f4 [64]
00000000: 7aa6 053e ffbb 803e 7a40 9b3d 5e8f 603c
00000010: 252d b83d 2907 9e3e 0bc8 573e 177d f13d
00000020: 12ed 223e 60aa 303e c176 b53e 2751 1b3e
00000030: 7891 913e 56c4 783e 155d be3d 449b a73d
00000040: 1fa1 3b3e 6726 e73d cb4d cb3d b24c d73d
00000050: 00b7 c73e 6779 bc3d 1ea3 8b3d 026e c9bd
00000060: e366 e43d e742 823d 28d7 133d f6a1 933c
00000070: 1429 2d3d a75e 053e 608a 8a3d 2e6c 683d
00000080: b3bc 8e3d 7c1b 0f3e f654 383e a6d0 363e
00000090: cfba 5c3e aea3 6f3d 5144 9c3d d490 2a3d
000000a0: 97e3 a83e 3361 053e 6f36 743d 27f1 943e
000000b0: ca96 4b3e 0979 43bd 0c36 0b3d 1e20 b13c
000000c0: b10d 583e e09d b23d f08f 443d 4d6f 3c3e
000000d0: 4811 6b3e eb20 293e e043 f13d 5715 a23e
000000e0: 8f97 8d3e cdb2 cc3c 2bec 253e bcdc 803d
000000f0: 96cd 313e 99c1 0a3e 75db 713c 9854 5f3e
0.13051787 0.2514343 0.07580657 0.013706056 0.08992986 0.30864838 0.21072404 0.11791437
0.15910748 0.17252493 0.35442165 0.15167676 0.28431296 0.24293646 0.09295098 0.081839114
0.18323182 0.112866215 0.09926947 0.10512675 0.39006805 0.09202843 0.068182215 -0.098354355
0.111524366 0.06360417 0.03609386 0.018021565 0.042275503 0.13024388 0.06764674 0.056743793
0.06969585 0.13975328 0.1800116 0.1785303 0.21555637 0.058505706 0.07630218 0.041642025
0.32986137 0.1302536 0.059622224 0.29090235 0.1988174 -0.04772285 0.03398709 0.02162176
0.21098973 0.087215185 0.047988832 0.18401833 0.22955811 0.16516463 0.11780524 0.31656906
0.27654693 0.024987603 0.16203372 0.06292102 0.17363581 0.13550414 0.014761795 0.21809614

conv1.lin.weight f4 [64, 334]
00000000: 32f2 6abd 99d9 ccbd af11 f1bd 3e50 bd3c
00000010: 73c0 46bd e9b8 8bbd 9abb ed3a 91ee 1c3d
00000020: 0ca4 853d 8750 60bd c8b7 1fbb 343a 17bd
00000030: f7d3 8e3d a9bb 983c 4ea9 41bd d0e7 d8bc
00000040: 0ae7 843d f604 4ebe bde4 0abd 67e9 7ebc
00000050: b181 e93d 5434 7dbd 68bf 1fbd dadf aebd
00000060: b475 16bc c96c 263e 76a8 673d 72d2 b1bc
00000070: 7abf 6e3c 706f c43a 8f24 d2bd 2a21 dd3d
00000080: 09b5 043e 8e8f 013d 1739 4fbd 4b9a 923d
00000090: e5cc b33d 57c3 b7bc d8d2 833e b8c7 993d
000000a0: d4e3 993e 42c1 0f3d 4982 07bd f910 29bd
000000b0: da20 04bc 035d fd3b 1d5e 0bbc 28c8 03be
000000c0: 734e 52bc 8f20 9d3d fe0d 8ebb f28e d6bc
000000d0: c2e0 b43d 6077 82bd de9e 84bc 2bc2 25be
000000e0: 674d 3cbd f86a 4a3b 1da4 1d3d b6e2 a33b
000000f0: 3a22 5bbd c74a 943c a4da 8f3d f044 88be
00000100: 6fac 19be cb12 d9bd 66ab 90bd 0ac3 73bd
00000110: d0ec 35bd 6bda b83d afe8 733b 6bfa 1abd
00000120: a6ae 13be 1e1a cc3b 313e babd a024 35bc
00000130: 04cc cb3d 6bcf 3fbe 9b35 473d c702 2f3d
00000140: af5c 3bbd 5c0f 183e 81fc 9c3d ef50 0c3d
00000150: 04bd 7ebd 0c48 523c a629 abbe f4ca 033e
00000160: f828 1ebe ac0d 9b3d 6752 b1bd 5c2d 87bc
00000170: 5ca9 2ebe b515 93bc 55da 59bd 7e33 fe3c
00000180: 3bce 92bd ffb6 6e3d b7d5 ad3d 7a96 b93d
00000190: 0597 b3bc cb89 da3d 00bf 85bd b928 56be
000001a0: 95f1 e53d 2a61 dd3d 15f3 2e3e 5869 f93d
000001b0: 3f86 d3bd f9da b23d b722 bebd aaea 2bbd
000001c0: e3b9 493d 30c2 4bbe 43c1 45be 16bb eebd
000001d0: 0280 e2bc ff3e cdbd a2c1 303b 0bc7 7b3d
000001e0: 4c95 5bbd fc04 ed3c c16b 07be 4770 123e
000001f0: 976c 45bd 0a4b 923d 0047 323d 7c0a 193e
00000200: 5801 f2bd 6538 70bd 0cef d2bd 72b9 c93d
00000210: db2e a23d dd6a 003d 1c25 53be 3e81 5c3e
00000220: d116 d2bb 636e 9ebd 4332 50bd c6af 2a3d
00000230: a5ea 18bd 350d 05be 61b6 893d f165 e23b
00000240: 414e 11bc 27db 9bbd cba2 adbb fa7a 053e
00000250: 52eb 253e 3701 193e 9558 4abb cb80 f1bb
00000260: ed6f ad3d 071e d0bd 2cfb edbd fe91 453c
00000270: 8a84 33be 2222 95bd f68e a4bc 6a57 f3bc
00000280: 1d24 3ebe 3fa2 ba3c 395f 00be 86ae 1c3e
00000290: ec87 80bc 4672 0ebe 96c0 6abc 625f 37be
000002a0: 125c 653d c919 14bc 32dc a6be d8cf 0ebe
000002b0: 0538 5b3d ec6b 4bbd 5989 033e 0cfe 9fbd
000002c0: bc23 d4bd 677b 083b 0d45 67bd ec85 393d
000002d0: a885 c8bc ce63 9f3e 86a0 b7bd ddb5 b5bd
000002e0: d956 e5bd 6385 18bd bc4f 933d cd47 ddbc
000002f0: bc98 483c a3e2 a6bd 49e3 883d 2cda b4bc
00000300: 507d 10be 7a74 d13b c22d 02be 3639 17bc
00000310: 628a b0bd 433e 7ebd e4be 6e3d 54c7 38bd
00000320: 7d08 cdbd 4d07 f1bd 98b3 5abd c027 843d
00000330: 6871 173c ffcf c43d e606 17be 1427 fabb
00000340: 5b03 c23d 8250 7cbe 0bfe a0bd a4b3 a8bd
00000350: a916 283d 9345 1dbe f8eb b6bc 5495 aa3c
00000360: 4b1c 62bc 03c0 d1bc a606 3bbd 9499 f7bb
00000370: 0f5a 81bc b259 bd3c c73d 7a3d 7aba feba
00000380: b5a5 a93d 0ecc 2b3b 587d d23d 1927 36be
00000390: 7864 bd3d 6937 b13e 19d6 8db9 2e59 c63d
000003a0: 7ebb bd3d 3872 313e ca09 12be 88da b3bd
000003b0: 85a8 283e 6ce4 313d 7352 883d 5846 563c
000003c0: b1d8 d3bc 23e2 683d 06da c23e 817f 9bbd
000003d0: 75d3 2a3d d3e9 0abe b232 acbe bad4 933d
000003e0: 2f86 22be 5762 283d b938 ce3c b350 16bd
000003f0: 830f b0bc f9c0 403e 577f 9f3e e24e d33d
-0.05735988 -0.10002441 -0.11770951 0.023109552 -0.048523378 -0.06822378 0.0018137575 0.038313452
0.0652543 -0.054764297 -0.0024371017 -0.03692074 0.06974023 0.01864417 -0.047280602 -0.026477724
0.0648938 -0.2011908 -0.033909548 -0.015558577 0.1140169 -0.061817482 -0.0390009 -0.0853879
-0.009183336 0.16252436 0.05655714 -0.021706793 0.014572019 0.0014986824 -0.10260879 0.10797341
0.12959684 0.031631045 -0.050591554 0.07158335 0.08779315 -0.022432012 0.257468 0.075087965
0.30056632 0.035096414 -0.033083234 -0.041275952 -0.008064473 0.007732035 -0.008506325 -0.12869322
-0.012836087 0.07672226 -0.004335164 -0.026191209 0.08831932 -0.06370425 -0.016189035 -0.1618735
-0.045972254 0.0030886512 0.03848659 0.0050013913 -0.053499438 0.018102063 0.07024124 -0.26615095
-0.15007184 -0.105992876 -0.07063942 -0.059512176 -0.044415295 0.09026035 0.0037217548 -0.037836473
-0.14422092 0.0062286993 -0.09093893 -0.011056095 0.09951022 -0.18731467 0.048635107 0.042727258
-0.045742687 0.14849609 0.07665349 0.03425687 -0.062191978 0.01283456 -0.33430213 0.12870389
-0.15445316 0.07570967 -0.08658295 -0.016501121 -0.17056793 -0.017954687 -0.053186733 0.031030413
-0.071682416 0.058279987 0.084880285 0.09061904 -0.021922598 0.10670813 -0.06530571 -0.20913972
0.11227719 0.10809548 0.17084916 0.12178296 -0.1032834 0.08733172 -0.09283965 -0.04197184
0.04924954 -0.19898295 -0.19312005 -0.116567776 -0.02764893 -0.10021781 0.0026970883 0.06146912
-0.053609177 0.02893304 -0.13224699 0.14300643 -0.048199262 0.07143219 0.043524742 0.14945406
-0.118166625 -0.058647532 -0.10299501 0.09849824 0.07919093 0.031351913 -0.20619625 0.21533677
-0.0064114113 -0.07735898 -0.050829183 0.041671537 -0.03733315 -0.1299332 0.06724239 0.006909125
-0.008868755 -0.07610159 -0.0052989474 0.13035193 0.16203049 0.1494187 -0.0030875553 -0.0073700896
0.08468614 -0.10161977 -0.11620173 0.012058733 -0.17531028 -0.07281901 -0.0200877 -0.029704768
-0.18568464 0.022782443 -0.12536325 0.1530095 -0.015689813 -0.1391078 -0.014328143 -0.1790748
0.05599601 -0.009039351 -0.3258987 -0.13946474 0.05352022 -0.04966347 0.12845363 -0.078121275
-0.10358378 0.0020825507 -0.056462336 0.045293733 -0.024477795 0.31130832 -0.08966164 -0.08872578
-0.111982055 -0.037236582 0.071929425 -0.027011776 0.012243446 -0.08148696 0.06683976 -0.022076689
-0.14110303 0.006392059 -0.12712768 -0.009229949 -0.086201444 -0.062071096 0.058287516 -0.04511197
-0.10011385 -0.11768971 -0.05339393 0.06452894 0.009243347 0.096099846 -0.14748725 -0.007634053
0.09473296 -0.24640086 -0.07860955 -0.08237389 0.041037235 -0.15358572 -0.022329316 0.020823158
-0.013800691 -0.025604254 -0.045660637 -0.0075561497 -0.015790014 0.02311406 0.06109407 -0.0019434236
0.08283559 0.0026214155 0.10277814 -0.17788352 0.092476785 0.34612587 -0.0002705313 0.096849784
0.09264277 0.17328727 -0.14261547 -0.08781916 0.16470535 0.04343073 0.06656351 0.013078295
-0.025860162 0.056856286 0.38056964 -0.07592679 0.041705567 -0.1356576 -0.33632427 0.07218309
-0.158715 0.04110941 0.025173532 -0.036698055 -0.021491772 0.18823613 0.3115184 0.1031778

conv2.bias f4 [4]
00000000: c1d0 2fbf 58b9 cebc 3c04 03bd 6069 403f
-0.6867791 -0.025234863 -0.03198646 0.7516079

conv2.lin.weight f4 [4, 64]
00000000: 6be9 24bf 5c55 343f 7c7b 033d ad5f ffbe
00000010: c456 fcbe 7ff7 ca3e 0717 65bf c2af 043f
00000020: 23d3 7dbe e338 c03e 6633 cd3e 9a97 f9be
00000030: e361 a03e 17f2 73bf ad15 b3bd 1b69 be3c
00000040: 9932 903e 40a1 cfbe de7c eabe bfa4 ff3e
00000050: 536a 373f 5c17 56bf bdfe 9d3e c09b ae3e
00000060: 7c68 003f 9dfc 33be a71d ea3e dbc9 eabd
00000070: 14e8 013e e06a 2c3f 2763 be3e 93a1 d03e
00000080: cee6 1abf cd9d 323f 72f0 6dbf 4e71 af3d
00000090: af64 a23e 5fe8 71bf 82ba fdbc af47 373f
000000a0: 09ad 6b3f 62d6 bf3e bf5a f1be ded7 453f
000000b0: 3dbf 27bf 979a f7be d856 ba3e d148 273f
000000c0: 4ce5 35bf a4ab a13e 6e0e 00be a9bd 27bf
000000d0: 02fb ba3e 6c34 4dbf 2d47 323f 1c6b 0d3f
000000e0: 6bc4 83bf a36b 613e 6a39 213e 279d 2abf
000000f0: beb2 77be 652e b4be 506a 353f bc38 22bf
00000100: dfb1 18bf 2d95 47bf 18c0 0d3f b09e 14bf
00000110: b5b0 243f 87d5 9cbf 5af4 0dbf 149d 1fbf
00000120: 2b16 a93e 60a7 1abf 709f 9dbf 733c c23e
00000130: 493f 72bf e57b ca3e fe5d f53e 4964 433e
00000140: 7157 253f 887c fd3e 9b26 893f 25cf b73e
00000150: 45d4 07bf fe1b 413f 933c debe d002 6abd
00000160: 9093 1ebf d83e 47bc 5ae3 9f3c 5df9 e83e
00000170: 50de ba3e b10c 3fbf b63f 063f 2c7a 133f
00000180: 2ac9 2c3f 32aa 68bf 9c75 d83e 4377 07bd
00000190: b158 953e 98ad 8e3f a9b8 413f da65 4d3e
000001a0: 6d18 86bf b4e1 d93e 65e6 aa3d 3583 5fbf
000001b0: 88e9 1ebf 5f4c 2f3f 97b8 df3e ec48 aabd
000001c0: 912e 4b3e d8b0 063e c692 acbe f80b 1cbf
000001d0: eeab 9d3e 6c6e 6d3b 172f 83be 650f 88bf
000001e0: 224f 6ebb e8ef 0d3d ebc8 7dbf ab95 033f
000001f0: 619f ac3c 6071 003f 0269 a5be 53c3 b03e
00000200: 502a 1e3e 55f2 243f 8883 38bf f516 f63c
00000210: 9289 083f b3ee 043f 791e 5c3f 532b 6abf
00000220: d5ae 223f e8a5 d3be 3b91 173f b4c9 62bf
00000230: c80b 8e3f 9bea c03e cb76 3cbf 3301 81bf
00000240: df76 dfbd 9ad5 053f 7d29 c8be 8735 d2be
00000250: 4511 1d3f 6593 90bf cc54 e7be a211 d4bd
00000260: 8fcf 7cbf 308d 5dbf 5f4a 81be 2b8b 47be
00000270: 0dda 37bf b6a1 4ebf 1e11 94bf 3813 6ebf
00000280: 2cd3 97bf 6556 54bf 649e a73e ebd7 333f
00000290: 0ad5 07be 2d69 11bf 14c2 6fbf 37c5 48bf
000002a0: ceaf 0b3f 3a1c debe e2d9 583f f25b 483f
000002b0: b728 fe3e e030 edbd 4486 4dbf 1a50 50bf
000002c0: 3938 2d3f 675c 73bf 2c85 a1be 517e 543f
000002d0: eb68 d33e 3268 213f 6cd9 b5be 9998 723e
000002e0: 348f fe3e 0f3a 2dbf de48 ffbe 435b b53e
000002f0: a423 283f ce3e 0e3f f45b a1be 3821 033f
00000300: c209 293f 5fee 7fbf 305e 38bf d525 7b3f
00000310: fc1e 28bf 70a5 ab3e 447b 453e b2d5 343f
00000320: d5c4 58bf 4535 263f ec8c c03e da58 da3e
00000330: bde5 49bf 0313 9f3e 3974 a43d 7b3a 173f
00000340: e4c3 89bf 5f54 4abf 618f b8be 5d85 7dbf
00000350: 7ef4 75bf 3f59 373f d52e 823e b2ce 0fbe
00000360: 2a90 d63e d703 3f3f 7daa 93be 1894 4ebe
00000370: d2b3 17bf 86a2 9d3e 7dce 783e a023 efbe
00000380: 0db8 423f 70cb 153f bed8 d53e 65c5 46bf
00000390: aaf7 75bf b222 5d3e d13f 4bbf 2bda 02bf
000003a0: 1a89 50bf 448f 6cbf 3131 e4be f8d2 35bf
000003b0: c2e5 0a3f 2975 fdbe 4a3e 90be 024d 50bf
000003c0: 9cb0 65bf f7c2 1c3f a999 603f 7f88 f83e
000003d0: ea98 7dbf 41d3 d43c 013d 38bf a3ed bd3e
000003e0: c792 013f ab1f 843e 550f 123f 976c 29bf
000003f0: 9921 87bf b780 3fbf 4161 4fbe 51cc 7f3d
-0.6441867 0.7044275 0.032100186 -0.49877682 -0.49284947 0.3964195 -0.8948826 0.51830685
-0.24787574 0.375434 0.40078276 -0.48748475 0.31324682 -0.95291275 -0.08744369 0.023243478
0.28163603 -0.4055271 -0.4579839 0.4993038 0.7164661 -0.83629394 0.30858412 0.34103203
0.5015943 -0.17576833 0.45725748 -0.11464282 0.12686187 0.6735058 0.37185022 0.4074827
-0.6050843 0.69772035 -0.92945015 0.08566533 0.3171744 -0.94495195 -0.030972723 0.71593755
0.92060906 0.3746825 -0.47139546 0.7728251 -0.6552618 -0.4836013 0.36394382 0.65345484
-0.71053004 0.31576264 -0.12505504 -0.65523773 0.3651963 -0.80158114 0.69639856 0.5524156
-1.0294317 0.22013716 0.15744558 -0.66646045 -0.24189278 -0.35191646 0.70865345 -0.6336782
-0.5964641 -0.77962 0.55371237 -0.5805464 0.64332134 -1.2252663 -0.55450976 -0.6234906
0.33024725 -0.60411644 -1.2314281 0.37936744 -0.94627815 0.3954765 0.47923273 0.19081225
0.6458655 0.49509072 1.0714906 0.35900226 -0.5305827 0.7543334 -0.4340559 -0.05713159
-0.6194391 -0.012160979 0.01951759 0.4550275 0.36497736 -0.7462874 0.52440965 0.57608294
0.6749445 -0.908847 0.4227723 -0.03307272 0.2916923 1.1146727 0.75672394 0.20058385
-1.0476204 0.4255501 0.083447255 -0.8730958 -0.6207509 0.6847591 0.43695518 -0.0831469
0.19841982 0.13153398 -0.3370573 -0.6095576 0.30795234 0.0036229147 -0.25621864 -1.0629698
-0.0036363085 0.03465262 -0.991347 0.5140025 0.021072092 0.50172997 -0.32306677 0.3452402
0.15445828 0.6443227 -0.720757 0.030040244 0.53334916 0.51926726 0.85984 -0.9147236
0.6354802 -0.41337514 0.5920598 -0.88589025 1.1097345 0.3767899 -0.73618764 -1.0078491
-0.10911345 0.52279055 -0.39094153 -0.41056463 0.61354476 -1.1294981 -0.45181882 -0.10354926
-0.9875421 -0.8654356 -0.25252053 -0.19486682 -0.71817094 -0.807155 -1.1567724 -0.92998075
-1.186132 -0.8294433 0.3273803 0.7025134 -0.13264862 -0.5680111 -0.93655515 -0.78425926
0.5456513 -0.4338091 0.8470746 0.782653 0.49640438 -0.11581588 -0.80283 -0.81372225
0.67663914 -0.9506287 -0.31546915 0.83005244 0.41290984 0.63049614 -0.35517442 0.23691024
0.4971863 -0.67666715 -0.4986028 0.3542119 0.65679383 0.5556458 -0.31515467 0.5122256
0.66030514 -0.999731 -0.7201872 0.981046 -0.6567228 0.33524656 0.19285303 0.70638573
-0.8467534 0.6492503 0.37607515 0.42645913 -0.7886618 0.31069192 0.0802998 0.5907361
-1.0762906 -0.7903499 -0.3604689 -0.9903162 -0.9607619 0.71620554 0.25426355 -0.14043692
0.41906863 0.74615234 -0.2884101 -0.20173681 -0.5925876 0.30788058 0.24297519 -0.46706867
0.7606209 0.58513546 0.41766924 -0.7764495 -0.9608103 0.21595266 -0.7939425 -0.5111415
-0.814592 -0.92406106 -0.4456878 -0.7102504 0.5425683 -0.4950345 -0.28172523 -0.81367505
-0.8972261 0.6123499 0.87734467 0.48541638 -0.99061453 0.02597964 -0.71968085 0.37095365
0.5061459 0.2580541 0.57054645 -0.6618132 -1.0557128 -0.7480578 -0.20251943 0.06245071
