my_gtn/experiment_logs/model_exp_036.pt (torch, 46105 bytes, 4 tensors)

conv1.bias f4 [32]
0	0x3e037ec1	0.12841322
1	0x3d80be7a	0.062863305
2	0x3cc91529	0.024546223
3	0x3e0a1319	0.13483848
4	0x3cb30468	0.021852687
5	0x3d63e6cb	0.055640023
6	0x3d690acb	0.05689506
7	0x3dc650ed	0.09683404
8	0x3deb5633	0.114910506
9	0x3dfe28d8	0.12410134
10	0x3dcea2cd	0.100896455
11	0x3df47304	0.11936
12	0x3dad0a7a	0.08449264
13	0x3e0bead8	0.13663805
14	0x3de41481	0.11136723
15	0x3d95e64b	0.073193155
16	0x3dd25c34	0.102714926
17	0x3d7e2512	0.06204707
18	0x3dc584c3	0.09644463
19	0x3de7331e	0.11289047
20	0x3e0e8d4f	0.13921092
21	0x3e0afc0d	0.13572712
22	0x3d621679	0.055197213
23	0x3e062385	0.13099487
24	0x3ddffcd6	0.109368965
25	0x3cf75329	0.030191021
26	0x3d9e8072	0.07739343
27	0x3dfdb7e0	0.12388587
28	0x3df3d924	0.11906651
29	0x3df3f903	0.119127296
30	0x3e0165bb	0.12636463
31	0x3e01fc39	0.12693872

conv1.lin.weight f4 [32, 334]
0	0x3e3ddc3e	0.18541047
1	0x3db6b048	0.08920342
2	0xbd8af69b	-0.067853175
3	0x3e070671	0.13186051
4	0xbd7895a9	-0.060689602
5	0xbd01a757	-0.03165373
6	0x3e17f94c	0.14841193
7	0x3c4a9c98	0.012366436
8	0x3d108fe0	0.03529346
9	0x3bfb2860	0.007664725
10	0x3c5cb2b2	0.013470339
11	0x3ddeaebd	0.108731724
12	0x3e3023cc	0.17201155
13	0x3d34122f	0.043962654
14	0x3d647f39	0.05578539
15	0x3db30f29	0.08743126
16	0x3906f44c	0.00012870244
17	0x3b49df48	0.0030803252
18	0x3e048e59	0.12944926
19	0xbd9bfa88	-0.076161444
20	0xbd7bf67d	-0.061514366
21	0x3e1e4224	0.15454918
22	0x3e4e01a9	0.20117821
23	0x3e29710b	0.16547029
24	0x3c726e42	0.014796795
25	0xbd9e4dda	-0.07729693
26	0xbd768435	-0.060184676
27	0xbd32f1ad	-0.04368751
28	0xbd18759a	-0.03722153
29	0x3e2e7ec7	0.17040549
30	0xbbba47d2	-0.005684831
31	0xbc4750fa	-0.012165302
32	0x3df13682	0.11777975
33	0xbdc6fc1d	-0.097160555
34	0xbe3de821	-0.18545581
35	0xbd30e9cd	-0.04319172
36	0xbdf7ca70	-0.12099159
37	0x3adb5c30	0.0016735848
38	0x3d597607	0.053091075
39	0xbd9a8aa8	-0.07545978
40	0x3e4e2df1	0.20134713
41	0x3d1fe201	0.039033893
42	0x3d9f5c4c	0.07781276
43	0xbd51f246	-0.05125644
44	0x3d995ca7	0.07488375
45	0xbd42b5c7	-0.047536638
46	0x3de2e991	0.110797055
47	0xbd3f4a68	-0.04670182
48	0x3d41a28f	0.04727417
49	0x3bf4cb1d	0.007470502
50	0x3e18c975	0.149206
51	0x3d8e4398	0.06946486
52	0x3dc0d206	0.09415059
53	0x3cacda90	0.021100312
54	0x3ddfe879	0.109330125
55	0xbd88ffac	-0.066893905
56	0xbc75c0bd	-0.014999566
57	0x3d981766	0.07426338
58	0xbba42e96	-0.0050104363
59	0x3cb62158	0.022232696
60	0x3e27c6c7	0.16384421
61	0x3d86bf2c	0.06579432
62	0xbca9b75d	-0.020717317
63	0xbd5926f2	-0.053015657
64	0x3dd36c5e	0.10323404
65	0x3d6b1804	0.05739595
66	0xbd7b8ad2	-0.061411686
67	0x3e1a2173	0.15051822
68	0xbd07defd	-0.033171643
69	0x3d9c5826	0.076340005
70	0xbd8843bf	-0.066535465
71	0xbcc74c7b	-0.02432846
72	0x3df2ad4a	0.118494585
73	0xbd210e00	-0.039319992
74	0xbe288842	-0.16458228
75	0x3d29f0ee	0.041489534
76	0x3c14e6e9	0.009088256
77	0xbd2f7411	-0.0428353
78	0xbe25b8d8	-0.16183794
79	0xbd023783	-0.03179122
80	0x3e141b4a	0.14463535
81	0x3e1cd05c	0.15313858
82	0x3e58efc8	0.2118522
83	0x3d70eb56	0.058818184
84	0xbc860672	-0.016360495
85	0xbd5c6e80	-0.05381632
86	0xbba3344b	-0.004980599
87	0x3bad32a5	0.0052855783
88	0xbd8b9399	-0.068152614
89	0x3e765f1f	0.24059723
90	0xbd0097c7	-0.031394746
91	0x3dbfc1f9	0.09363169
92	0xbd6ff6df	-0.058585044
93	0x3dab370e	0.0836011
94	0x3e30c777	0.1726359
95	0x3c351b3a	0.011053855
96	0x3ce0d234	0.027443983
97	0x3d698f61	0.057021502
98	0x3cbfdbbb	0.023420205
99	0x3c986060	0.018600643
100	0x3e26e4b5	0.16298182
101	0x3e6846d3	0.22683267
102	0xbdb5a7db	-0.088699065
103	0xbde60c46	-0.1123281
104	0x3e23bf9a	0.15991059
105	0x3e23ecce	0.16008303
106	0x3cb6f087	0.02233149
107	0xbcc8aa69	-0.02449532
108	0x3daa52b2	0.08316554
109	0x3da87f82	0.08227445
110	0x3daee528	0.08539802
111	0x3b6e6e62	0.0036381711
112	0xbb9984e0	-0.0046850294
113	0xbcefc925	-0.029270718
114	0x3da4fa58	0.08055562
115	0xbc93dfd4	-0.018051066
116	0xbbccd316	-0.0062507493
117	0x3ca33f87	0.019927753
118	0x3d69ee0f	0.057111796
119	0xbd019c3e	-0.031643145
120	0xbdeb1ca9	-0.11480076
121	0xbcf9ff3f	-0.030517219
122	0x3c35c7b4	0.011094976
123	0xbdacf149	-0.08444459
124	0xbd6d1de2	-0.057889827
125	0x3dff5bde	0.12468694
126	0x3d2bc8a5	0.041939396
127	0x3e13207c	0.1436786
128	0x3bc6b6a7	0.0060642543
129	0xbb028297	-0.0019914263
130	0xbceed1fa	-0.029152859
131	0x3d3d7a2b	0.046259087
132	0xbd385946	-0.045007013
133	0xbdf29960	-0.1184566
134	0xbb50b849	-0.0031848124
135	0x3e1bd080	0.15216255
136	0x3da7f87e	0.08201693
137	0x3e1ca37d	0.15296741
138	0x3ca4e9c3	0.020130998
139	0x3bee3552	0.00726954
140	0x3cd30acb	0.025761982
141	0x3d7412c3	0.059588205
142	0x3e50b297	0.20380627
143	0x3d120bcd	0.035655785
144	0x3d4d6566	0.05014553
145	0x3d426174	0.04745622
146	0xbbfd372f	-0.0077275257
147	0xbd87e0af	-0.06634652
148	0x3bd4d2a7	0.0064948383
149	0x3e2d503d	0.1692514
150	0xbc81152f	-0.015757171
151	0xbe05a7af	-0.13052247
152	0xbde88c93	-0.113549374
153	0x3d8a2102	0.06744577
154	0x3c063f4a	0.0081938
155	0x3e10091c	0.14065975
156	0xbcdfaabe	-0.027303096
157	0x3d92b4cf	0.07163393
158	0x3b389dba	0.0028170184
159	0x3c8c77e9	0.017147021
160	0xbc6b46b7	-0.014360121
161	0x3d2fb6e0	0.042899013
162	0x3dcfefdd	0.10153172
163	0x3d1adfde	0.037811153
164	0x3d5193c8	0.051166326
165	0xbceb914d	-0.028755808
166	0xbc13a0e5	-0.009010528
167	0x3e06610d	0.1312296
168	0xbbeb50c7	-0.0071812603
169	0x3c53fc1b	0.012938525
170	0xbe2f60e9	-0.17126812
171	0x3df181c7	0.11792331
172	0x3dcc08ed	0.0996264
173	0x3da9e418	0.082954586
174	0x3e015b25	0.12632425
175	0x3d902464	0.07038191
176	0xbd122ff6	-0.03569027
177	0x3d563792	0.05229909
178	0xbd2dc934	-0.04242821
179	0x3e085146	0.13312253
180	0x3dbef218	0.093235195
181	0x3de082c4	0.109624416
182	0xbdf08774	-0.11744586
183	0xbe035583	-0.12825589
184	0xbde57009	-0.1120301
185	0xbd650d04	-0.055920616
186	0x3e09f878	0.1347369
187	0x3e0109db	0.12601416
188	0x3e15886f	0.14602827
189	0x3d9801f1	0.07422245
190	0xbcec1142	-0.028816823
191	0x3e29836b	0.16554038
192	0xbb3a2237	-0.0028401741
193	0x3cdc15c3	0.026865846
194	0x3e164d2c	0.14677876
195	0xbab2e96a	-0.0013649885
196	0xbc01fbf6	-0.007933607
197	0x3d901f1a	0.07037182
198	0xbd10e7c7	-0.03537729
199	0x3dddc6e1	0.10828949
200	0x3da45544	0.080240756
201	0xbd3d40a1	-0.046204213
202	0x3c914b05	0.017735967
203	0x3d037d65	0.032102007
204	0xbe40e3b5	-0.18836863
205	0x3d448b5c	0.047984466
206	0x3dc6ae01	0.09701157
207	0xbd300ed7	-0.042982902
208	0xbddda67c	-0.1082277
209	0xbd23883c	-0.039924845
210	0xbe2120c8	-0.15735161
211	0x3e63e4e6	0.22255287
212	0x3ca55b95	0.020185271
213	0xbbe38022	-0.006942765
214	0x3b4cf88a	0.003127607
215	0x3dac52af	0.08414208
216	0x3df94509	0.121713705
217	0x3dcd2aff	0.100179665
218	0xbc6edd3d	-0.0145791145
219	0x3ddc3dc8	0.10753971
220	0xbdf7fe7d	-0.12109087
221	0x3e680fa7	0.22662221
222	0x3e396a69	0.18106999
223	0x3d5babf2	0.053630777
224	0x3e5522a6	0.20813999
225	0x3d05c938	0.0326626
226	0xbd26d6ea	-0.0407323
227	0x3e290e4f	0.16509365
228	0x3e4b5cf9	0.19859685
229	0x3cee5a2e	0.029095735
230	0x3daca5b1	0.08430041
231	0xbca0adcd	-0.019614125
232	0x3e39f4e0	0.18159819
233	0x3e1d1e91	0.15343691
234	0x3dd0df4a	0.10198839
235	0x3c860ea4	0.016364403
236	0x3dc614b9	0.09671921
237	0x3d7f9d92	0.06240613
238	0x3d0fd190	0.035111964
239	0x3e2d8501	0.16945268
240	0xbd95c6c3	-0.073133014
241	0x3e0234a2	0.1271539
242	0x3e135916	0.14389452
243	0x3dd19443	0.10233357
244	0xbe30919b	-0.17243044
245	0xbdffcf7e	-0.12490748
246	0xbd2fbbd9	-0.042903755
247	0x3bc0c26b	0.0058825514
248	0xbd99428c	-0.07483396
249	0xbce742b0	-0.028230041
250	0xbc306b95	-0.010767837
251	0x3e2658db	0.16244833
252	0x3dbeea8b	0.09322079
253	0x3e52d4a8	0.20588934
254	0x3d135722	0.03597177
255	0x3da3e2c8	0.080022395

conv2.bias f4 [4]
0	0xbda33b0c	-0.07970247
1	0xbe0c67e3	-0.13711505
2	0xbccf9f35	-0.02534447
3	0x3e1972ec	0.14985245

conv2.lin.weight f4 [4, 32]
0	0x3ebb4428	0.36575437
1	0x3e1f8e9c	0.15581745
2	0x3d70c497	0.058781233
3	0x3ea01c74	0.31271708
4	0xbe47167a	-0.19442168
5	0xbd25670c	-0.040381476
6	0x3e220575	0.15822394
7	0x3ed992c5	0.4249479
8	0x3eb9d9a2	0.36298853
9	0xbd9618a4	-0.073289186
10	0xbee506e4	-0.4473182
11	0x3e969028	0.29406857
12	0x3ec4eef9	0.38463572
13	0x3d9eb172	0.07748689
14	0x3eb2616f	0.3483996
15	0xbd77079a	-0.060309984
16	0xbeb85f8e	-0.36010402
17	0xbd29f3ca	-0.04149226
18	0xbe8322e7	-0.25612566
19	0xbf028200	-0.50979614
20	0xbe21d07f	-0.15802191
21	0x3d93e8ab	0.07222112
22	0xbee7abf0	-0.45248365
23	0xbdcb2712	-0.099195614
24	0x3df64a8f	0.1202594
25	0xbc58ef18	-0.013240598
26	0x3e09ec8b	0.1346914
27	0xbea27fda	-0.31738168
28	0xbe69488c	-0.2278158
29	0xbef6703b	-0.481325
30	0xbe1beb4f	-0.15226482
31	0x3ec18712	0.37798363
32	0xbe1dc9f6	-0.15409073
33	0x3e079c91	0.13243319
34	0x3ef6b381	0.48183826
35	0x3eb417a3	0.35174283
36	0x3f02e71b	0.5113389
37	0x3efcc7d2	0.493712
38	0x3eb2f810	0.34954882
39	0xbe09df67	-0.13464127
40	0xbf069b63	-0.5258085
41	0xbdb32c7d	-0.0874872
42	0x3eb9c819	0.36285475
43	0xbe152757	-0.14565788
44	0x3eaec226	0.34132499
45	0xbef44df6	-0.4771573
46	0xbe171eaf	-0.14757799
47	0x3f013aff	0.50480646
48	0xbed6c7d0	-0.4194932
49	0x3d7608e2	0.060067065
50	0x3ea630d1	0.3245912
51	0xbefd569a	-0.49480134
52	0xbeade846	-0.33966273
53	0xbeb2f731	-0.34954217
54	0x3ed3c543	0.41361436
55	0xbe65b811	-0.22433497
56	0x3e0ea8ca	0.13931575
57	0x3ef8662e	0.48515457
58	0x3e70b26b	0.23505561
59	0xbd4aaf55	-0.049483616
60	0x3eac527e	0.33656687
61	0xbe9eb5e6	-0.30998152
62	0x3ee2ed9e	0.44321913
63	0xbe8eafca	-0.2786849
64	0x3e8c8d08	0.27451348
65	0xbe946fc2	-0.28991514
66	0x3ea2ab1e	0.31771177
67	0x3f05f347	0.52324337
68	0xbe8991f1	-0.26869157
69	0xbd95f1b5	-0.073214926
70	0xbebce0a1	-0.36890128
71	0x3e8b58fe	0.27216333
72	0xbea23ff6	-0.31689423
73	0x3ee890aa	0.4542287
74	0xbedd368e	-0.43205684
75	0xbe99a3db	-0.30007824
76	0xbe8113a9	-0.25210312
77	0x3f040d26	0.5158256
78	0x3e8c75ff	0.27433774
79	0x3e0b82a3	0.13624053
80	0x3e97cdb0	0.29649115
81	0xbf06866c	-0.5254886
82	0xbe04c13f	-0.12964343
83	0x3ef52e7a	0.4788702
84	0xbe7869ee	-0.24259159
85	0xbeb95913	-0.3620077
86	0xbebc31da	-0.36756784
87	0x3efd53fb	0.49478135
88	0x3e51fe23	0.20507102
89	0xbd83a001	-0.06427003
90	0xbe9b3300	-0.30312347
91	0x3eba33cd	0.36367646
92	0xbe38e43a	-0.18055812
93	0x3f03141f	0.5120258
94	0x3ed0c20c	0.40773046
95	0xbf027e02	-0.5097352
96	0x3efe8336	0.4970948
97	0xbec8b4b7	-0.39200374
98	0xbe481ead	-0.19542952
99	0xbdd6e0e1	-0.10492111
100	0xbec8c07f	-0.39209363
101	0xbe36e13d	-0.17859359
102	0xbeac4b7b	-0.33651337
103	0xbe83b0cf	-0.25720832
104	0x3cd8f6d1	0.026484879
105	0xbe6ed49f	-0.23323296
106	0x3e9a749e	0.30167097
107	0xbe7d2ef5	-0.24724944
108	0xbda6c95f	-0.08143877
109	0x3decccf3	0.115625285
110	0xbe913b8e	-0.2836575
111	0xbf1014df	-0.56281847
112	0x3eb556b8	0.35417724
113	0xbef79195	-0.48353258
114	0x3e501918	0.20322073
115	0x3ecd0ee1	0.40050414
116	0x3f0d0ade	0.55094707
117	0xbeb3f9b7	-0.35151455
118	0x3edc1191	0.42982152
119	0xbec64da6	-0.38731116
120	0xbecbead8	-0.3982761
121	0xbcb138c6	-0.021633517
122	0xbe9a0234	-0.30079806
123	0xbee75ecd	-0.45189515
124	0x3e5199c6	0.20468816
125	0x3f0091c4	0.5022242
126	0x3ecda41c	0.40164268
127	0x3ea21037	0.31652996
