my_gtn/experiment_logs/model_exp_223.pt (torch, 176281 bytes, 4 tensors)

conv1.bias f4 [128]
0.059788484 0.0059974715 0.03661758 0.05490337 0.05207521 0.061659228 0.050445016 0.045652345
0.052434642 0.058010284 0.05798692 0.05954439 0.036325928 0.056178503 0.054751355 0.014760951
0.03798249 0.03373264 0.05250634 0.057781972 0.036290575 -0.0035460552 0.048724953 -0.017299809
0.016291007 0.043985117 0.032102834 0.0036171684 0.0597034 0.018569458 0.06344738 0.05416221
0.0409668 0.045253567 0.06349049 0.061766483 0.061334025 0.05225586 0.024659242 0.051963437
-0.012341835 0.040393975 0.05919744 0.054795824 0.020836823 0.025266651 0.03703766 0.057342518
0.038529962 0.018753573 0.035341274 0.03645168 0.050341506 -0.0028795623 0.05549533 0.048799124
0.05702813 0.050706223 0.039372593 0.05517071 0.056811128 0.058078326 0.037070494 0.010737516
0.018861441 0.034367815 0.064394206 0.04765973 0.047468867 0.056374468 0.050900187 0.013299091
0.05482025 0.060977627 0.012525363 0.04197361 0.065102816 0.056502495 0.042467084 0.06066788
0.045391455 0.063376054 0.054384295 0.05506336 0.051991522 0.062133588 0.056949172 0.053296193
0.062115617 0.017689843 0.035200235 0.05693169 0.008655935 0.05973365 0.06495156 0.058231477
0.056858845 0.05834398 0.01849124 0.0023895423 0.0647394 0.048954535 0.058939565 0.021238018
0.059296858 0.03766965 0.038118027 0.05763763 0.034437068 0.06780922 0.0619203 0.06237679
0.054775566 0.05448266 0.060914174 0.05040723 0.060966942 0.058249343 0.03602825 0.05381979
0.061837673 0.033659644 0.04886401 0.05162458 0.048217174 0.05785405 0.03832838 0.045543384
00000000: c5e4 743d 7086 c43b 51fc 153d 5be2 603d
00000010: d14c 553d 638e 7c3d 6f9f 4e3d f4fd 3a3d
00000020: b5c5 563d 319c 6d3d b183 6d3d d1e4 733d
00000030: 7fca 143d 6e1b 663d f542 603d ead7 713c
00000040: 8793 1b3d 3d2b 0a3d e310 573d caac 6c3d
00000050: 6da5 143d ef64 68bb d193 473d 54b8 8dbc
00000060: b874 853c bd29 343d 437e 033d 040e 6d3b
00000070: 8d8b 743d fa1e 983c b3f0 813d 32d9 5d3d
00000080: cecc 273d ce5b 393d 4d07 823d dafe 7c3d
00000090: 6339 7b3d 3e0a 563d 2e02 ca3c 9dd7 543d
000000a0: 6835 4abc 2774 253d 0479 723d 9671 603d
000000b0: fcb1 aa3c 02fc ce3c cdb4 173d fddf 6a3d
000000c0: 98d1 1d3d 18a1 993c 03c2 103d 5b4e 153d
000000d0: e532 4e3d 0ab7 3cbb 124f 633d 97e1 473d
000000e0: 5496 693d 54b1 4f3d 2845 213d affa 613d
000000f0: c9b2 683d 8ae3 6d3d 3bd7 173d 68ec 2f3c
00000100: 4f83 9a3c 44c5 0c3d 1ce1 833d d936 433d
00000110: b76e 423d eae8 663d b77c 503d 6ee4 593c
00000120: 338b 603d adc3 793d 2e37 4d3c 85ec 2b3d
00000130: a054 853d 296f 673d f7f1 2d3d e27e 783d
00000140: 64ec 393d 4ecb 813d 11c2 5e3d 1e8a 613d
00000150: 10f5 543d ca7f 7e3d 8943 693d 1c4d 5a3d
00000160: f26c 7e3d 4aea 903c 1f2e 103d 3431 693d
00000170: 9fd1 0d3c 46ab 743d 5305 853d 2184 6e3d
00000180: d2e4 683d 19fa 6e3d f17a 973c de99 1c3b
00000190: 1796 843d 8d84 483d 9d6a 713d 5afb ad3c
000001a0: 43e1 723d 7e4b 1a3d a621 1c3d 6f15 6c3d
000001b0: e20d 0d3d 8fdf 8a3d 24a0 7d3d ce7e 7f3d
000001c0: 585c 603d 3629 5f3d 2481 793d d077 4e3d
000001d0: 79b8 793d dd96 6e3d 5c92 133d 2472 5c3d
000001e0: 8049 7d3d b2de 093d a125 483d 4c74 533d
000001f0: 5f7f 453d 5ef8 6c3d 38fe 1c3d b38b 3a3d

conv1.lin.weight f4 [128, 334]
-0.03237178 -0.011807684 0.060638014 0.09923574 0.027678506 0.07320126 0.032886293 0.071780704
-0.0112162465 -0.03931966 -0.0021028426 -0.03620309 -0.03141847 0.07513683 0.0010548676 0.0137686925
0.00042406208 0.03428029 0.017100334 -0.11950199 -0.0040813643 -0.06743386 -0.07576932 0.028338727
-0.06896677 0.08332886 0.049561486 -0.04493631 0.01628405 0.12870741 -0.06814606 -0.034982868
0.06941963 0.08364272 0.042003483 0.10051585 -0.04167709 0.10518723 -0.1005635 0.0047804457
0.003510674 -0.060527068 0.037261453 -0.019542282 -0.08207844 0.07150787 -0.060247097 0.053744644
0.09967289 0.13521858 -0.05857982 -0.08628606 -0.03278313 0.09884473 0.013971229 0.01911306
-0.016447308 -0.016486693 0.099809654 0.14685859 0.04387012 0.06886543 0.034963537 -0.06417469
-0.1567641 0.037224595 0.019685121 -0.042896114 0.08913081 -0.02146185 0.0040577226 0.03716033
0.03657934 0.047389995 -0.028389562 0.031243099 0.030125005 -0.112021394 -0.072639674 -0.10613522
0.071985416 0.027009632 -0.09519373 0.1490384 0.01961611 0.10372377 0.091367945 0.03421449
-0.04131168 -0.098980784 0.023961313 0.07409599 -0.060323596 -0.034543317 -0.04784404 -0.034326587
-0.07479594 0.00788269 0.01819316 0.057334535 0.058847453 -0.06519802 -0.08484867 -0.028169943
0.14200108 -0.050257683 -0.09813442 0.03007114 0.07605256 -0.015689563 -0.019311775 -0.042746566
0.035035796 -0.08004012 0.15553305 0.04498436 0.012547202 0.096044995 0.020122305 0.09811876
-0.015022746 -0.04731554 -0.118981875 0.023352787 -0.0012483961 -0.050133094 0.03928388 0.16482137
0.033900898 0.008557178 0.06396193 -0.03428261 0.0021942635 0.04333515 0.10424943 -0.06444375
-0.04472679 -0.023107855 0.15477218 -0.0043920674 0.031977024 -0.06633021 -0.024883023 0.063942194
-0.009809194 -0.03611621 -0.061927773 0.110870644 0.047800194 0.08779286 0.0054874644 0.065862775
0.09568012 0.09609134 0.13175751 0.10283714 0.07305126 0.09284274 -0.012852224 0.060542747
-0.02037461 0.01022124 -0.0017670454 0.054858033 0.078834586 0.011082761 -0.025484152 0.030591656
-0.051102716 -0.037895285 0.02004742 0.07865268 -0.021079622 -0.007532782 -0.009022842 0.021009132
0.11479389 -0.0059740604 -0.035474014 0.04088853 0.064704545 0.048631318 0.03719188 -0.028917497
0.047769878 -0.083964586 0.023636851 -0.04060184 0.032982536 -0.046228677 0.13760458 0.026203394
-0.044881437 0.013993048 -0.07799699 -0.039421737 -0.0037132218 -0.046671323 0.018670196 -0.011320351
0.024269557 0.045947038 0.036809847 -0.016823053 -0.072388425 0.026346391 0.026024615 0.03892575
0.10035196 -0.04750293 -0.01214066 0.06998839 0.029573651 -0.010479546 0.06657414 -0.05334997
-0.04175115 0.119240135 0.12835726 0.14307357 -0.10153911 0.049977455 -0.051733844 0.015551597
0.06301514 -0.022371236 -0.04643144 -0.010015047 0.05726145 -0.0012333199 0.040275004 0.0027645514
0.12203936 0.07270424 -0.0049326713 0.010400683 0.0520551 0.08640489 0.024087802 0.05054456
-0.055526417 0.106959045 0.05135457 0.14678232 0.09320122 -0.051340505 0.0007254203 0.0046432517
-0.06528773 0.07470676 0.010057751 -0.015139264 -0.025273168 -0.0044720625 0.07813193 0.12859923
00000000: 4698 04bd 0475 41bc 915f 783d 1c3c cb3d
00000010: 09be e23c 8bea 953d c7b3 063d c301 933d
00000020: 59c4 37bc a70d 21bd d8cf 09bb b149 14bd
00000030: a7b0 00bd 57e1 993d 7c43 8a3a 1596 613c
00000040: a654 de39 7d69 0c3d 0016 8c3c 76bd f4bd
00000050: f7bc 85bb c31a 8abd f22c 9bbd 9e26 e83c
00000060: 733e 8dbd 52a8 aa3d fc00 4b3d 230f 38bd
00000070: 2166 853c e0cb 033e 2990 8bbd 324a 0fbd
00000080: e12b 8e3d e04c ab3d d80b 2c3d 41db cd3d
00000090: 99b5 2abd 676c d73d 3cf4 cdbd 49a5 9c3b
000000a0: 5613 663b 3beb 77bd 779f 183d 2317 a0bc
000000b0: be18 a8bd b872 923d a9c5 76bd 5823 5c3d
000000c0: 4d21 cc3d bd76 0a3e 65f1 6fbd bfb6 b0bd
000000d0: 9a47 06bd 1b6f ca3d 95e7 643c fe92 9c3c
000000e0: 81bc 86bc 1a0f 87bc 0169 cc3d 1962 163e
000000f0: 28b1 333d 5209 8d3d ed35 0f3d 056e 83bd
00000100: c586 20be d178 183d b142 a13c d6b3 2fbd
00000110: 378a b63d c3d0 afbc a5f6 843b 6e35 183d
00000120: 38d4 153d 031c 423d 3a91 e8bc 87f1 ff3c
00000130: b7c8 f63c 796b e5bd 1cc4 94bd 6c5d d9bd
00000140: 176d 933d 4e43 dd3c eef4 c2bd 869d 183e
00000150: f7b1 a03c 216d d43d 1e1f bb3d 7e24 0c3d
00000160: 7036 29bd 70b6 cabd 844a c43c a3bf 973d
00000170: e015 77bd 4b7d 0dbd 1df8 43bd 099a 0cbd
00000180: 9d2e 99bd 6626 013c d209 953c 9ed7 6a3d
00000190: 070a 713d 8a86 85bd 24c5 adbd a7c4 e6bc
000001a0: bb68 113e 00db 4dbd b3fa c8bd c057 f63c
000001b0: 72c1 9b3d 6687 80bc ba33 9ebc 0617 2fbd
000001c0: b281 0f3d 13ec a3bd 0e44 1f3e 8541 383d
000001d0: c892 4d3c 3db3 c43d 88d7 a43c 7df2 c83d
000001e0: f721 76bc f1cd 41bd c5ac f3bd 584e bf3c
000001f0: 39a1 a3ba 5c58 4dbd 22e8 203d efc6 283e
00000200: abdb 0a3d 6833 0c3c 79fe 823d ec6b 0cbd
00000210: a2cd 0f3b 3380 313d ba80 d53d 16fb 83bd
00000220: 7033 37bd af4c bdbc 997c 1e3e 55eb 8fbb
00000230: 57fa 023d 22d8 87bd 7bd7 cbbc 20f4 823d
00000240: beb6 20bc 97ee 13bd faa7 7dbd 2610 e33d
00000250: 23ca 433d becc b33d 30d0 b33b 10e3 863d
00000260: f0f3 c33d 89cb c43d 71eb 063e 479c d23d
00000270: e69b 953d 5624 be3d 2292 52bc acfb 773d
00000280: a7e8 a6bc fd76 273c 349c e7ba d1b2 603d
00000290: 0774 a13d 7894 353c 24c4 d0bc 5a9b fa3c
000002a0: 1551 51bd 1638 1bbd 7d3a a43c a814 a13d
000002b0: 2caf acbc 8ed5 f6bb 8bd4 13bc 581b ac3c
000002c0: 0f19 eb3d 0dc2 c3bb 334d 11bd bb7a 273d
000002d0: d183 843d a231 473d 8356 183d 63e4 ecbc
000002e0: 59aa 433d a0f5 abbd 12a2 c13c 1d4e 26bd
000002f0: b218 073d 485a 3dbd 37e8 0c3e 80a8 d63c
00000300: 99d5 37bd 1943 653c e3bc 9fbd b078 21bd
00000310: 8659 73bb 6e2a 3fbd 3df2 983c fe78 39bc
00000320: f3d0 c63c f632 3c3d ecc5 163d 80d0 89bc
00000330: 6240 94bd 63d4 d73c 9331 d53c 9b70 1f3d
00000340: 5485 cd3d 6f92 42bd 9ee9 46bc 1356 8f3d
00000350: 7144 f23c 67b2 2bbc 0658 883d 8085 5abd
00000360: 4103 2bbd 2c34 f43d 1670 033e e181 123e
00000370: bdf3 cfbd 29b5 4c3d dee6 53bd 20cc 7e3c
00000380: 150e 813d e243 b7bc e52e 3ebd 2716 24bc
00000390: fb8a 6a3d 59a7 a1ba 67f7 243d 7a2d 353b
000003a0: c6ef f93d f6e5 943d 3fa2 a1bb a067 2a3c
000003b0: bb37 553d 0cf5 b03d c853 c53c d007 4f3d
000003c0: ab6f 63bd 580d db3d 2b59 523d 1b4e 163e
000003d0: 48e0 be3d 6c4a 52bd 222a 3e3a 6b26 983b
000003e0: 93b5 85bd dcff 983d 44c9 243c ad0a 78bc
000003f0: ad09 cfbc 618a 92bb a203 a03d 84af 033e

conv2.bias f4 [4]
-0.030272927 -0.04927366 0.04095426 0.033583377
00000000: eefe f7bc 2dd3 49bd a7bf 273d b98e 093d

conv2.lin.weight f4 [4, 128]
-0.16558394 0.051708102 0.24615644 0.17571452 -0.19754562 0.11645631 -0.010497567 -0.20335032
-0.046929307 -0.13741437 -0.26646838 0.042891704 -0.23585857 0.24190119 -0.25152296 0.07898836
0.13692865 0.22454554 -0.27142105 -0.09479797 -0.18651542 0.08518832 0.11241871 -0.03222951
-0.036937445 0.09415807 -0.15650827 0.06682391 0.1022815 -0.22341147 0.02061936 0.2690244
0.2550693 -0.2070083 0.1482484 0.0663246 0.099278614 -0.15017779 -0.009761738 -0.027035335
0.15914778 -0.091241024 0.031245489 0.08438563 0.21963176 0.13265254 -0.18079656 -0.18305217
-0.026179636 0.044567205 -0.12941572 -0.1716455 0.15934946 0.21342148 -0.115801685 -0.24211343
0.10157119 -0.17201515 0.21881112 0.23581615 0.23131813 0.08839711 -0.12841193 0.12129
0.15134381 0.050377786 0.17239766 0.02111451 0.09457232 0.14039236 -0.14880583 -0.071686015
-0.011864181 0.26616025 -0.16160274 -0.18004407 -0.033015102 -0.13916956 0.26505318 0.25350463
-0.20867471 0.101393394 -0.23914199 -0.17628843 0.2230359 -0.24336824 0.11654144 -0.10389126
0.26419392 -0.03321637 -0.1925057 -0.12760334 -0.017851057 0.0807316 0.20214942 0.0042261416
0.13910133 0.20875242 0.13946114 0.2237029 0.17414379 0.21719605 -0.21389514 -0.16277662
-0.05140306 -0.10836646 -0.15220757 -0.060122572 -0.13843514 0.019872565 0.05456975 -0.08039203
0.15246738 0.2425774 -0.13223715 0.15252374 -0.23706657 -0.21995808 -0.20364888 -0.11263688
-0.15480858 -0.018320056 0.19583601 -0.08697886 -0.008070918 0.17409538 -0.20966284 -0.2000712
-0.21483973 -0.1986568 0.2358573 0.19854444 0.10839361 -0.24207564 -0.23515114 0.16531362
0.21306169 -0.009949283 -0.17673384 -0.23401432 -0.11164492 -0.14900148 0.23408248 0.11908705
0.16479526 0.017232254 0.15282895 0.21938956 0.11277802 0.007993169 -0.13004442 0.14614654
0.0243657 0.17791703 0.0070983907 0.18145111 -0.20807032 0.05467592 -0.10134866 0.21974023
0.13137776 0.24288294 -0.19279279 -0.25432906 -0.2083479 -0.24299185 -0.21598832 -0.21529415
0.18349682 -0.06317391 -0.2704854 -0.2501312 0.14219774 0.21833055 0.022814445 0.14506459
-0.088494435 0.26751518 0.002724039 0.10154254 -0.1539034 -0.03890553 0.27311254 -0.24765469
-0.26943362 -0.2138039 0.20905389 0.20558247 0.22681496 0.112635575 -0.14615315 0.21481077
0.26587427 0.039576415 -0.2715842 -0.0062585217 0.22877494 -0.24102871 -0.058565 -0.17429073
-0.24827996 -0.15706615 0.15900914 0.09680275 -0.06711368 -0.2148673 0.058431108 -0.023375172
0.17860712 0.09436605 0.17688604 0.10315192 0.19106632 -0.15847413 -0.24463426 0.23196103
-0.013057558 -0.08501342 0.27535132 0.22346376 0.10720021 -0.117374286 0.023374539 -0.15343566
0.25336996 -0.27140263 -0.15300295 0.07786878 -0.052418187 0.0713496 0.09410637 0.2685042
-0.08451091 0.12315202 0.009906063 0.13879387 0.17256634 -0.19918767 -0.08802264 -0.23711006
0.14725746 -0.22134377 0.2114657 -0.01783909 0.21948493 -0.26401523 0.24746478 -0.14541905
-0.10554715 -0.13963677 -0.09993992 -0.04298756 0.17265707 -0.14269465 -0.08389751 0.03957401
00000000: d68e 29be e0cb 533d 6f10 7c3e 82ee 333e
00000010: 6649 4abe a580 ee3d fdfd 2bbc 113b 50be
00000020: f238 40bd 5ab6 0cbe 8b6e 88be 36af 2f3d
00000030: e984 71be f2b4 773e 9ec7 80be a6c4 a13d
00000040: 0637 0c3e 44ef 653e b3f7 8abe 7025 c2bd
00000050: e6fd 3ebe 3777 ae3d c83b e63d 1703 04bd
00000060: b84b 17bd f2d5 c03d b443 20be f9da 883d
00000070: f778 d13d fac5 64be efe9 a83c 91bd 893e
00000080: 7198 823e fcf9 53be 6ece 173e 31d5 873d
00000090: 9652 cb3d 35c8 19be b2ef 1fbc 3579 ddbc
000000a0: a3f7 223e 93dc babd 8af6 ff3c 60d2 ac3d
000000b0: 26e7 603e 11d6 073e bc22 39be 0772 3bbe
000000c0: ad76 d6bc 1a8c 363d 8e85 04be d7c3 2fbe
000000d0: 812c 233e 298b 5a3e 6f29 edbd 95ec 77be
000000e0: 8e04 d03d bd24 30be 0610 603e ca79 713e
000000f0: a9de 6c3e 8b09 b53d 6b7e 03be e466 f83d
00000100: dff9 1a3e f058 4e3d 0389 303e 56f8 ac3c
00000110: 22af c13d 04c3 0f3e 8e60 18be 1ed0 92bd
00000120: fb61 42bc 2846 883e 307b 25be 795d 38be
00000130: d83a 07bd 7782 0ebe 0db5 873e 5ccb 813e
00000140: d3ae 55be 57a7 cf3d a3e1 74be f484 34be
00000150: 8663 643e 8635 79be 47ad ee3d f1c4 d4bd
00000160: 6d44 873e e30d 08bd 3720 45be 73aa 02be
00000170: 613c 92bc 9c56 a53d 4200 4f3e 727b 8a3b
00000180: 9470 0e3e 32c3 553e e7ce 0e3e 5f12 653e
00000190: c052 323e a468 5e3e 5407 5bbe eaae 26be
000001a0: 048c 52bd 3cef ddbd 4ddc 1bbe 1643 76bd
000001b0: f1c1 0dbe cacb a23c 8884 5f3d 94a4 a4bd
000001c0: 6920 1c3e 3666 783e 2d69 07be 2f2f 1c3e
000001d0: 94c1 72be b13c 61be 5589 50be 2aae e6bd
000001e0: 2486 1ebe f113 96bc 3c89 483e f921 b2bd
000001f0: e23b 04bc 0f46 323e dbb1 56be 77df 4cbe
00000200: f2fe 5bbe b06c 4bbe 9384 713e 3c4f 4b3e
00000210: 78fd dd3d ade2 77be 76cb 70be f947 293e
00000220: d82c 5a3e 5102 23bc b7f9 34be 73a1 6fbe
00000230: 18a6 e4bd d893 18be 51b3 6f3e e9e3 f33d
00000240: 17c0 283e a82a 8d3c 317f 1c3e a8a7 603e
00000250: 2af8 e63d c8f5 023c 5d2a 05be 70a7 153e
00000260: 949a c73c e22f 363e 9e99 e83b 52ce 393e
00000270: 6310 55be dcf3 5f3d e38f cfbd 9503 613e
00000280: e487 063e 4eb6 783e 796b 45be 6b37 82be
00000290: 2759 55be dbd2 78be 0b2c 5dbe 1276 5cbe
000002a0: 97e6 3b3e 5361 81bd 107d 8abe 3211 80be
000002b0: 499c 113e 0b92 5f3e 5ce5 ba3c d08b 143e
000002c0: 923c b5bd c0f7 883e ca85 323b 89f5 cf3d
000002d0: da98 1dbe 685b 1fbd 68d5 8b3e 3199 7dbe
000002e0: 34f3 89be 69ef 5abe 3912 563e 3684 523e
000002f0: 2e42 683e 7bad e63d 2ca9 15be 5bf7 5b3e
00000300: ac20 883e e11a 223d 160d 8bbe 4914 cdbb
00000310: fa43 6a3e 3bd0 76be dae1 6fbd 4579 32be
00000320: 1a3d 7ebe f3d5 20be 4bd3 223e 8540 c63d
00000330: e672 89bd 2c06 5cbe 7555 6f3d 4a7d bfbc
00000340: c9e4 363e fd42 c13d 9d21 353e 5041 d33d
00000350: e4a6 433e 0b47 22be 6781 7abe 3187 6d3e
00000360: 5eef 55bc 841b aebd d9fa 8c3e afd3 643e
00000370: c98b db3d ee61 f0bd f67b bf3c 3d1e 1dbe
00000380: b5b9 813e 49f5 8abe ceac 1cbe ab79 9f3d
00000390: 74b4 56bd bd1f 923d d7ba c03d 6279 893e
000003a0: 0e14 adbd 2037 fc3d 0a4d 223c fb1f 0e3e
000003b0: 3bb5 303e daf7 4bbe 3745 b4bd fbcc 72be
000003c0: a9ca 163e f1a7 62be 778a 583e 4923 92bc
000003d0: a8c0 603e 012d 87be 6867 7d3e bbe8 14be
000003e0: 1b29 d8bd f1fc 0ebe 4dad ccbd b913 30bd
000003f0: 04cd 303e 8c1e 12be 75d2 abbd 5b18 223d
