my_gtn/experiment_logs/model_exp_117.pt (torch, 89497 bytes, 4 tensors)

conv1.bias f4 [64]
0	0x3d4d7ba5	0.050166745
1	0x3d5b11f1	0.053483907
2	0x3ba62d31	0.005071305
3	0x3d573fc0	0.05255103
4	0x3cc3f32a	0.02391966
5	0x3d5ec1cf	0.05438405
6	0x3d576fa9	0.05259672
7	0x3d4f2241	0.050569776
8	0x3d11ea2a	0.035623707
9	0x3d45aff4	0.048263505
10	0x3d5cd625	0.05391516
11	0x3d4c9cc7	0.049954202
12	0x3d593052	0.053024597
13	0x3d221de4	0.039579287
14	0xbc0c8e7f	-0.008578896
15	0x3c2a98e2	0.010412427
16	0x3d45a47a	0.04825256
17	0x3d3fef04	0.046858802
18	0xbc3924b9	-0.011300259
19	0x3d3a33c7	0.045459535
20	0x3d6b9b3c	0.05752109
21	0x3d0af62e	0.03392618
22	0x3c6c752d	0.014432234
23	0xbce667fa	-0.028125752
24	0x3cf33c2f	0.029691784
25	0x3d38c26b	0.045107286
26	0xbc988353	-0.018617308
27	0x3b58fb1c	0.0033108657
28	0x3c4ee3e7	0.012627578
29	0x3d61462c	0.05499856
30	0x3d140ae9	0.036143217
31	0x3ca8bac2	0.020596866
32	0x3ce4b308	0.0279174
33	0x3d4a5567	0.049397852
34	0x3d4b2b74	0.049601987
35	0x3d647106	0.05577185
36	0x3d0cb331	0.034350578
37	0x3d1e5931	0.03865928
38	0x3d264928	0.04059711
39	0x3d4665c1	0.048436884
40	0x3bd5a610	0.0065200403
41	0xbba0bd42	-0.004905374
42	0x3cd74180	0.02627635
43	0x3d299dc7	0.041410234
44	0x3d61a68e	0.05509048
45	0x3b35aa82	0.0027720039
46	0xbc845b5a	-0.016156841
47	0x3d33afbc	0.043868765
48	0x3d5a2ed5	0.05326732
49	0x3c099999	0.008398437
50	0x3d5f583f	0.054527517
51	0x3d57f126	0.05272021
52	0x3d56aa37	0.052408423
53	0x3d60ce71	0.054884378
54	0x3ca6780f	0.02032092
55	0x3d618863	0.05506171
56	0x3d61d727	0.055136826
57	0x3c2e89a7	0.010652936
58	0x3d5576c6	0.052115224
59	0x3b49e666	0.0030807494
60	0x3d613a2c	0.054987118
61	0x3c2d5fa9	0.010581889
62	0xbbead10d	-0.007166034
63	0x3d2a00a0	0.041504502

conv1.lin.weight f4 [64, 334]
0	0x3d1890ef	0.037247594
1	0x3dc61f49	0.09673936
2	0xbb41c6ac	-0.002956788
3	0x3e050f9a	0.12994233
4	0x3c31903b	0.01083761
5	0x3d99dd88	0.07512957
6	0x3d4ba160	0.049714446
7	0x3d374475	0.04474302
8	0xbcca47d1	-0.024692448
9	0x3cad6f41	0.021171214
10	0xbd689a27	-0.056787636
11	0x3d948a53	0.07252946
12	0x3e2b3264	0.16718441
13	0x3d860640	0.06544161
14	0xbdaf0afa	-0.085470155
15	0xbc06fbac	-0.008238714
16	0x3d098ce6	0.033581637
17	0xbdbb0c43	-0.09133198
18	0xbd328a44	-0.04358889
19	0xbcaf992c	-0.021435343
20	0xbd16c910	-0.036812842
21	0xbd10aba8	-0.035319954
22	0x3d82de86	0.06390099
23	0xbd6a7a05	-0.057245273
24	0xbddbec06	-0.10738377
25	0x3dc9c45c	0.09851906
26	0x3cbc0d05	0.022955427
27	0x3dbe132e	0.09281002
28	0x3cf3774a	0.029719967
29	0x3d5c18d3	0.05373461
30	0xbd8798a1	-0.066209085
31	0x3da09a24	0.078419
32	0x3db0e63a	0.08637662
33	0x3cb28c83	0.021795517
34	0x3d8746e6	0.0660532
35	0xbcc27ff5	-0.023742655
36	0xbb00dc10	-0.0019662417
37	0x3d65e6ac	0.05612819
38	0x3de14f91	0.11001504
39	0xbb91b62e	-0.0044467663
40	0x3d56e2b0	0.05246228
41	0xbd6ed372	-0.05830712
42	0x3dd496a9	0.10380299
43	0x3dbba21a	0.09161778
44	0xbdc8a9e9	-0.09798033
45	0xbdd1929e	-0.10233043
46	0xbcfcfef9	-0.0308833
47	0x3d88e986	0.06685166
48	0x3c07cf3a	0.008289153
49	0x3e102866	0.14077911
50	0xbd490e1a	-0.049085714
51	0x3d481c8e	0.048855357
52	0x3e182438	0.14857566
53	0xbdf38476	-0.11890499
54	0xbba201a8	-0.004944045
55	0xbd550e62	-0.05201567
56	0x3dda1e07	0.106502585
57	0xbc3c6379	-0.0114983255
58	0xbd87c5c3	-0.06629517
59	0xbe017a80	-0.12644386
60	0x3d574bda	0.052562572
61	0xbb7a0adc	-0.0038153445
62	0xbd822b51	-0.06355918
63	0xbe0d04d6	-0.13771376
64	0x3cb514ef	0.022104708
65	0xbdcc909d	-0.0998852
66	0xbde4f9a6	-0.11180429
67	0xbdb239b6	-0.08702414
68	0xbda856df	-0.08219694
69	0xbd5eb9b9	-0.054376338
70	0xbd60bca8	-0.054867417
71	0xbc79b6d7	-0.015241346
72	0xbc5043f5	-0.012711515
73	0x3dc1cad8	0.094625175
74	0xbd98ab98	-0.07454604
75	0x3c5f1fa9	0.013618388
76	0xbd5360b5	-0.0516059
77	0xbd94bfaa	-0.072631195
78	0x3c0bffd2	0.008544879
79	0xbd788419	-0.060672853
80	0xbd78ed2c	-0.06077306
81	0xbd2e0ad4	-0.042490795
82	0xb98d48ee	-0.00026947953
83	0x3d65270e	0.05594545
84	0xbd8121de	-0.06305288
85	0xbccace9c	-0.024756722
86	0xbd794d85	-0.060864944
87	0x3d4426b8	0.047888488
88	0x3bcf6f05	0.006330373
89	0xbd2add1e	-0.04171478
90	0xbd00e6bc	-0.031470045
91	0xbd2ba281	-0.041903023
92	0xbddb9042	-0.10720874
93	0xbc098cb9	-0.008395367
94	0x3ddbb4a0	0.10727811
95	0xbadd423b	-0.00168807
96	0x3c274ef0	0.010211691
97	0x3d4b4208	0.04962352
98	0x3d5d03b1	0.0539586
99	0xbd7a96b9	-0.061178897
100	0xbbf07283	-0.0073378696
101	0x3e2b3586	0.16719636
102	0x3d9433de	0.072364554
103	0x3d1d203c	0.03836082
104	0x3c33032c	0.010926049
105	0x3d4445cc	0.047918126
106	0x3e20d996	0.15708002
107	0x3c96b075	0.018394688
108	0x3d9aeca7	0.07564669
109	0x3bd387e3	0.006455408
110	0x3dae15bd	0.0850024
111	0xbdb13fca	-0.08654745
112	0xbc538ce2	-0.012912007
113	0xbe05d71d	-0.1307034
114	0xbcd90a9d	-0.026494319
115	0x3c9a4fb8	0.018836841
116	0x3cd29886	0.025707494
117	0x3d90af18	0.070646465
118	0xbd23b919	-0.039971445
119	0x3db299a2	0.087207094
120	0x3cccc229	0.024994927
121	0x3e093d85	0.13402374
122	0x3d8b351f	0.067972414
123	0x3e13e8e1	0.14444305
124	0xbd750a76	-0.05982443
125	0x3e27ba85	0.16379745
126	0xbd1ef3e7	-0.038806822
127	0xbbf5066b	-0.0074775717
128	0x3d134d67	0.03596249
129	0x3d2d5023	0.042312752
130	0x3d247e77	0.04015967
131	0x3d8f9d75	0.070124544
132	0xbb2fa1e4	-0.0026799375
133	0x3d75c327	0.060000565
134	0xbc5254a2	-0.012837561
135	0x3e08f7ed	0.13375826
136	0x3d9d7291	0.076878674
137	0xbce34c36	-0.027746301
138	0xbd63c1b3	-0.055604648
139	0x3da7fbf0	0.0820235
140	0x3dfc4fc6	0.12319903
141	0x3abd2be8	0.0014432641
142	0x3dd8ba92	0.105824605
143	0x3bfe9b6c	0.0077699926
144	0xbdc92bb3	-0.09822788
145	0xbdc0f83e	-0.094223484
146	0xbd49f6fc	-0.04930781
147	0xbd95399d	-0.072863795
148	0x3d43b423	0.047779214
149	0x3caa91cf	0.02082148
150	0xbdb3687e	-0.08760165
151	0x3cb73b15	0.02236704
152	0x3d8ba852	0.06819214
153	0x3d03cf7c	0.032180294
154	0xbc12ae19	-0.008952641
155	0xbcb5e3c5	-0.022203336
156	0x3bcb60f3	0.0062066256
157	0xbdf8e187	-0.12152391
158	0xbd08993d	-0.033349264
159	0x3dbae9eb	0.091266476
160	0xbcfa6618	-0.03056626
161	0xbca6256f	-0.020281522
162	0x3d814fd4	0.06314054
163	0x3db93555	0.090433754
164	0x3e0697ee	0.13143894
165	0x3dc10eac	0.094266266
166	0x3dccc131	0.09997786
167	0xbd244274	-0.040102437
168	0xbdd7ffc1	-0.10546828
169	0x3c2cc1d5	0.01054426
170	0x3d0a4df4	0.03376575
171	0x3b3432f6	0.0027496195
172	0x3de36c9c	0.111047
173	0xbd59ed37	-0.05320474
174	0x3d32e9b8	0.043679923
175	0x3da1c6f2	0.07899274
176	0xbd7b6a8b	-0.061380904
177	0xbd171cd2	-0.03689272
178	0x3cc29c97	0.023756308
179	0xbdd9da1f	-0.106373064
180	0xbcf13249	-0.029442923
181	0x3af550d3	0.0018716104
182	0x3d644acc	0.055735394
183	0xbd1f8627	-0.038946297
184	0x3be8b3f4	0.00710153
185	0x3de6e6b7	0.11274474
186	0x3d9d3a1e	0.076771006
187	0xbd0c26f5	-0.03421684
188	0x3db5fa79	0.088856645
189	0xbdb0a376	-0.08624928
190	0x3d9cc0cd	0.07653961
191	0x3bf4cf88	0.0074710287
192	0x3d8a9edb	0.067685805
193	0xbc4de3c5	-0.0125665115
194	0x3ce1651d	0.027514035
195	0x3df79599	0.1208908
196	0xbd55d50f	-0.05220514
197	0xbce3e9f1	-0.027821513
198	0xbc32dcc2	-0.010916891
199	0x3cdc4fa4	0.026893444
200	0xbd227f9b	-0.039672475
201	0x3d850204	0.06494525
202	0xbdf8931e	-0.121374354
203	0xbcc1c3f3	-0.023653006
204	0xbc447b5c	-0.011992302
205	0x3dafe7cf	0.08589136
206	0x3d892d25	0.06698064
207	0x3d213346	0.03935554
208	0x3d8eda2c	0.06975207
209	0xbe0b51bc	-0.13605398
210	0xbcfd3fb3	-0.030914163
211	0x3e1c5135	0.15265353
212	0xbc8ba5a4	-0.017046757
213	0xbcbd3154	-0.02309481
214	0xbd6dcade	-0.058054797
215	0x3d90250d	0.07038317
216	0xbc3be47a	-0.011468047
217	0x3b4afa4b	0.003097194
218	0xbda31401	-0.079628
219	0x3db7a785	0.08967499
220	0x3d28b5e0	0.041189075
221	0x3dca56f3	0.098798655
222	0x3dea8c69	0.11452562
223	0xbe0d770e	-0.13814947
224	0x3e1960ee	0.14978382
225	0xbd37f7d4	-0.04491408
226	0x3bf16b40	0.0073675215
227	0xbca2bffd	-0.019866938
228	0xbd4bf3b1	-0.04979295
229	0x3d47377a	0.04863689
230	0xbdbb714f	-0.09152471
231	0xbaead2ee	-0.0017915645
232	0x3d49b596	0.04924544
233	0x3cf2e853	0.029651796
234	0x3baf3e97	0.0053480375
235	0xbd5fc17b	-0.054627877
236	0x3d82b313	0.06381812
237	0x3d222d6a	0.03959409
238	0x3c68d229	0.014210262
239	0xbde5d5eb	-0.11222442
240	0x3db57f65	0.08862189
241	0xbd52d1cb	-0.051469605
242	0x3d8776bd	0.066144444
243	0x3e014e77	0.12627588
244	0x3dcb6ed1	0.09933246
245	0xbdcd74bf	-0.10032033
246	0x3d6ffe68	0.05859223
247	0xbd5faa84	-0.054605976
248	0xbdd59b61	-0.10430027
249	0x3d84dd71	0.06487549
250	0xbd89b8ac	-0.067246765
251	0xbde55e0a	-0.11199577
252	0xbb80007a	-0.003906307
253	0x3e1ac9bb	0.15116017
254	0x3dfbd04a	0.12295587
255	0x3db62ce5	0.08895282

conv2.bias f4 [4]
0	0xbd5e2e5b	-0.054243427
1	0xbd44c532	-0.048039623
2	0x3d4c1b76	0.049830876
3	0x3d4cc8a4	0.049996033

conv2.lin.weight f4 [4, 64]
0	0xbea53d9b	-0.32273564
1	0x3dd795a8	0.105265915
2	0xbe3094bb	-0.17244236
3	0xbd0c4f0e	-0.03425508
4	0xbd67a527	-0.056553986
5	0x3d37fd09	0.044919048
6	0xbeaf63fa	-0.34255964
7	0x3e419922	0.18906072
8	0x3c039b97	0.008032701
9	0x3e47f529	0.19527115
10	0x3d80b396	0.06284253
11	0xbe9fea40	-0.31233406
12	0xbe31eefd	-0.17376323
13	0xbe82c481	-0.25540546
14	0xbd16c22e	-0.036806278
15	0x3e10bf69	0.14135517
16	0x3e3698e8	0.17831767
17	0xbdb19c93	-0.08672442
18	0xbe2fbd52	-0.17162064
19	0x3e443959	0.19162501
20	0x3e1e852b	0.15480487
21	0xbe860be4	-0.26180947
22	0x3c1be217	0.009514353
23	0x3e850a91	0.25984624
24	0x3e5158b2	0.20443991
25	0x3c4dfc77	0.012572399
26	0x3e94577f	0.28973004
27	0x3e0f0cd1	0.13969733
28	0x3cd59de0	0.026076257
29	0xbd030f3c	-0.03199695
30	0x3e924bf1	0.28573564
31	0x3e81e773	0.25371894
32	0xbe8c5219	-0.27406386
33	0x3e574c07	0.21025096
34	0xbe91b29d	-0.28456584
35	0x3d376fe7	0.044784453
36	0x3e6a8400	0.22901917
37	0xbe72090a	-0.2363626
38	0xbdf43360	-0.119238615
39	0x3e9cb64b	0.30607828
40	0x3e135e33	0.14391403
41	0x3e5be51f	0.21474122
42	0xbd88e91f	-0.06685089
43	0x3e94cf00	0.29064178
44	0xbe5d7b37	-0.21629034
45	0xbe302d87	-0.17204867
46	0x3e4936da	0.1964983
47	0x3e0e3bb0	0.13889956
48	0xbe49329e	-0.19648215
49	0x3e73f0c6	0.23822317
50	0x3de1b283	0.110203765
51	0xbe04b567	-0.12959825
52	0x3eae6fc4	0.34069645
53	0xbe616c6e	-0.22014019
54	0x3e5e08d2	0.21683052
55	0x3dd3d076	0.10342495
56	0xbe9cf9f1	-0.3065944
57	0x3d790862	0.06079901
58	0xbe0f3a19	-0.13987006
59	0xbe7d2fc8	-0.24725258
60	0xbdf07e35	-0.11742822
61	0x3d59f21b	0.053209405
62	0x3e94ac02	0.29037482
63	0xbe71b648	-0.23604691
64	0xbe2108ed	-0.15726061
65	0xbe7578ea	-0.23971906
66	0x3ea32a91	0.31868413
67	0x3df21482	0.11820318
68	0x3e967c28	0.293916
69	0xbeaef584	-0.3417169
70	0xbe44cdf8	-0.19219196
71	0xbda7c3a7	-0.081916146
72	0x3e831197	0.25599357
73	0xbdde2aee	-0.10848032
74	0xbe8e5f7d	-0.27807227
75	0x3d859666	0.06522827
76	0xbe71d22e	-0.23615333
77	0x3e68cb43	0.22733788
78	0x3e66592e	0.22494957
79	0xbac73d11	-0.0015200694
80	0x3ea35fe0	0.31909084
81	0x3e77d908	0.24203885
82	0x3e0fd453	0.14045839
83	0xbd1adb79	-0.03780696
84	0xbe280e70	-0.16411757
85	0x3e302ade	0.17203853
86	0xbde55182	-0.11197187
87	0x3e66d4ec	0.22542161
88	0xbe65d084	-0.22442824
89	0xbbd093c3	-0.006365271
90	0x3e46aa4c	0.194009
91	0x3e187386	0.14887819
92	0x3d7890f7	0.060685124
93	0xbe847452	-0.25869995
94	0x3eafc93d	0.3433322
95	0x3e1cde02	0.15319064
96	0x3e04acbb	0.12956516
97	0xbe89fa0d	-0.26948586
98	0x3e97f363	0.29677877
99	0x3dc2fa99	0.09520454
100	0x3e3011de	0.17194316
101	0x3eab8095	0.33496538
102	0x3e8a2e50	0.2698846
103	0x3cfe9b7d	0.031080002
104	0xbd86bde7	-0.0657919
105	0x3d5be3ac	0.05368392
106	0xbd055b40	-0.032557726
107	0xbe72ef6a	-0.23724142
108	0xbe844ad1	-0.2583833
109	0x3e206c39	0.15666284
110	0x3da76445	0.08173422
111	0xbe0c28f4	-0.13687497
112	0x3c8b957a	0.01703905
113	0x3e36e469	0.17860569
114	0x3e1bb5aa	0.15206018
115	0xbe49c38e	-0.19703504
116	0x3d262bd0	0.040569127
117	0xbd9ca4a3	-0.076485895
118	0xbd4f497b	-0.050607186
119	0xbe2074a7	-0.156695
120	0xbc1b4558	-0.009476982
121	0x3d09209f	0.033478376
122	0xbea0e127	-0.31421778
123	0x3e8330d1	0.2562318
124	0xb9f1fd02	-0.00046155608
125	0x3e839cb8	0.25705504
126	0x3cc89fbc	0.02449023
127	0x3e65ecb5	0.22453578
128	0x391e8437	0.00015117308
129	0x3d245e1a	0.040128805
130	0xbeacd79e	-0.33758253
131	0x3e7eb0bb	0.24872105
132	0x3de2266f	0.11042487
133	0x3c70cf98	0.014697932
134	0x3e9d0380	0.30666733
135	0xbe295d35	-0.16539462
136	0x3e99281c	0.29913414
137	0xbd8c5e36	-0.06853907
138	0x3e274b24	0.16337258
139	0xbe9b2ffb	-0.30310044
140	0x3e8acf05	0.27111068
141	0x3e033001	0.12811281
142	0xbe81f5e7	-0.2538292
143	0xbe783314	-0.24238235
144	0xbd77c794	-0.060493067
145	0x3ea70f7a	0.32628995
146	0xbe7a31f4	-0.24433118
147	0xbdac43bb	-0.08411356
148	0x3e39baa8	0.1813761
149	0xbeb06a15	-0.34455934
150	0xbe6248b2	-0.22098044
151	0xbc7e3fc0	-0.015518129
152	0xbe9bad49	-0.30405644
153	0xbe368be7	-0.17826806
154	0xbe40eec2	-0.18841079
155	0xbcaa802e	-0.020813074
156	0xbe7cda5a	-0.2469267
157	0xbe50778c	-0.20358104
158	0xbeac8b3c	-0.33699977
159	0xbe870fab	-0.2637914
160	0xbe90f980	-0.28315353
161	0xbe4cf5f6	-0.20015702
162	0x3d003b0c	0.03130631
163	0x3ea21059	0.31653097
164	0xbce9bc7a	-0.028532255
165	0xbc9b96ab	-0.018992743
166	0xbeb0563a	-0.34440786
167	0x3d3d77cb	0.04625682
168	0xbce592c3	-0.028024083
169	0xbc7ca0fa	-0.015419239
170	0x3ea5d738	0.3239076
171	0x3e47f808	0.1952821
172	0x3d298b2a	0.041392483
173	0xbd8fdb05	-0.070241965
174	0xbd8ded9a	-0.069300845
175	0xbe90c148	-0.28272462
176	0x3ea87147	0.32898924
177	0xbe58cfed	-0.21173067
178	0x3e10e305	0.14149101
179	0x3ea87678	0.32902884
180	0x3e4efdcc	0.20214003
181	0x3eb5f7c6	0.355406
182	0xbe13b71b	-0.14425318
183	0x3dc6ae94	0.09701267
184	0x3e2dc17f	0.16968344
185	0xbe7f24ce	-0.24916384
186	0xbe956ff6	-0.29186982
187	0x3dc23b9d	0.094840266
188	0x3e944269	0.28956917
189	0x3e74bfab	0.2390124
190	0x3da7875a	0.08180113
191	0x3e5f058c	0.2177946
192	0x3e8378f0	0.25678205
193	0xbea37664	-0.31926262
194	0xbeab0890	-0.3340497
195	0x3ea061b0	0.3132453
196	0xbe39cf56	-0.18145499
197	0x3d318d99	0.04334793
198	0xbd980d89	-0.074244566
199	0x3e030062	0.12793115
200	0xbcc27666	-0.023738097
201	0x3ea0ce8b	0.3140758
202	0x3b26aa12	0.002543096
203	0x3e119869	0.14218296
204	0xbe0bad22	-0.13640264
205	0x3e2b1aaa	0.1670939
206	0xbcad8c79	-0.021185147
207	0x3e82cab7	0.25545284
208	0xbe94f850	-0.29095697
209	0xbe3e3034	-0.18573076
210	0x3e3804ab	0.1797053
211	0xbea5290f	-0.32257888
212	0xbe572068	-0.21008456
213	0x3e167701	0.14693834
214	0xbd880bb4	-0.06642857
215	0xbe10b154	-0.14130145
216	0x3d03452a	0.032048382
217	0x3e91ee21	0.2850199
218	0xbb115453	-0.0022175505
219	0xbdd172c2	-0.102269664
220	0xbeaf0a35	-0.34187475
221	0xbd4aa6fb	-0.04947565
222	0x3e1df345	0.15424831
223	0xbe865fb1	-0.26244882
224	0x3e93f53c	0.28898036
225	0x3d8d4916	0.06898706
226	0x3e8b1834	0.27166903
227	0xbd085e99	-0.03329334
228	0xbeac84a7	-0.33694956
229	0x3e03f3f1	0.12886025
230	0xbe91b933	-0.28461608
231	0xbbb63727	-0.005560774
232	0xbda1d1cb	-0.07901343
233	0xbe9d7153	-0.30750522
234	0x3d54cf92	0.051955767
235	0xbe268eeb	-0.16265456
236	0x3e561de5	0.20909841
237	0xbe15f726	-0.14645061
238	0xbe3bf2ed	-0.18354388
239	0xbe9e8c71	-0.30966523
240	0xbe590514	-0.21193343
241	0x3ea11f8d	0.31469384
242	0x3eb472ee	0.35243934
243	0x3e683b04	0.22678763
244	0xbe8b780c	-0.27240026
245	0x3d19bf17	0.037535753
246	0xbe6f9f52	-0.2340062
247	0x3e169631	0.14705731
248	0x3e95e558	0.29276538
249	0x3dfab637	0.12241786
250	0x3e013694	0.12618476
251	0xbdb228dd	-0.086992
252	0xbe407c3f	-0.18797396
253	0xbe337d8d	-0.17528363
254	0xbe1c3889	-0.15255941
255	0x3dcbea8b	0.09956845
