my_gtn/experiment_logs/model_exp_037.pt (torch, 46105 bytes, 4 tensors)

conv1.bias f4 [32]
0	0x3dfd39c6	0.12364535
1	0x3d185fac	0.037200615
2	0xbb8cda61	-0.0042984937
3	0x3e18f55a	0.14937344
4	0x3c87decc	0.01658573
5	0x3d9673b3	0.073462866
6	0x3d6e63fc	0.05820082
7	0x3d8917cf	0.06693994
8	0x3de2cfbb	0.11074778
9	0x3de74b83	0.112936996
10	0x3e09d9e9	0.13462032
11	0x3ddd63db	0.108100615
12	0x3dc76bc5	0.09737352
13	0x3e1fa810	0.15591455
14	0x3dd63257	0.1045882
15	0x3c8fde7b	0.017562142
16	0x3ddb5436	0.10709421
17	0x3daf1c69	0.08550341
18	0x3d98bdf8	0.07458109
19	0x3ddcc76b	0.107802235
20	0x3e216e64	0.15764767
21	0x3e1b7b21	0.15183689
22	0x3cd73b4d	0.026273394
23	0x3e197065	0.14984281
24	0x3d93b220	0.07211709
25	0x3cf0a41d	0.02937513
26	0x3e0b3667	0.13594972
27	0x3dc33852	0.095322266
28	0x3e173e17	0.14769779
29	0x3dff18f0	0.12455928
30	0x3df27e49	0.11840493
31	0x3e1f4380	0.15553093

conv1.lin.weight f4 [32, 334]
0	0x3e7e1453	0.2481244
1	0x3d957da1	0.072993524
2	0x3d190be9	0.037364874
3	0x3e514d42	0.20439628
4	0xbd8316d4	-0.064008385
5	0xbd41ee71	-0.047346536
6	0x3e840530	0.25785208
7	0xbce1c7e9	-0.027561145
8	0x3c5fffac	0.013671797
9	0x3be04f67	0.006845403
10	0xbb0c761f	-0.002143271
11	0x3de5ab62	0.11214329
12	0x3e565e0f	0.20934318
13	0x3d034f5b	0.0320581
14	0x3d5a4fbc	0.053298697
15	0x3dfa4a57	0.122212104
16	0x3be81219	0.0070822355
17	0x3ca28dfa	0.01984309
18	0x3e489586	0.19588289
19	0xbde7c1ef	-0.11316287
20	0xbc66d24c	-0.014088225
21	0x3e778c82	0.24174693
22	0x3e78a429	0.24281372
23	0x3e454684	0.19265181
24	0xbbab5e40	-0.0052297413
25	0xbcfeec65	-0.031118581
26	0xbd07f751	-0.033194844
27	0x3c88ce3d	0.016699905
28	0xbb0ceb1b	-0.0021502438
29	0x3e66f877	0.2255572
30	0xbc9e6129	-0.019333439
31	0x3cbf38f9	0.023342596
32	0x3e1155e4	0.14192921
33	0xbd88cbce	-0.06679498
34	0xbe530a3a	-0.2060937
35	0x3b308046	0.0026931926
36	0xbe14121f	-0.14460038
37	0xbbd2b7ba	-0.0064305933
38	0x3d61fc60	0.055172324
39	0xbda84e8e	-0.08218108
40	0x3e7f5574	0.24934942
41	0x3d942ac5	0.0723472
42	0x3dcf59ce	0.10124551
43	0xbda94f75	-0.08267108
44	0x3d95d052	0.073151246
45	0x3a8ee8d1	0.0010903125
46	0x3e181fa6	0.14855823
47	0x3d039826	0.032127522
48	0x3e09c75a	0.13454953
49	0x3d442c6e	0.047893934
50	0x3e4bdf3f	0.1990938
51	0x3dbad387	0.09122377
52	0x3e1359f1	0.14389779
53	0xbc7f26dc	-0.01557323
54	0x3e22cfc7	0.15899573
55	0xbce0fe06	-0.027464878
56	0x3caafb8b	0.020871898
57	0x3dd6dbcc	0.10491142
58	0x3d2ad8c9	0.04171065
59	0x3c7803fe	0.015137671
60	0x3e8080b0	0.2509818
61	0x3df04087	0.117310576
62	0xbc82d645	-0.015971312
63	0xbd966157	-0.07342785
64	0x3d66a22a	0.056306995
65	0x3caf571c	0.021403842
66	0xbd9293a5	-0.07157067
67	0x3e070594	0.13185722
68	0xbd0d2ff8	-0.034469575
69	0x3de7253a	0.11286397
70	0xbe24ba23	-0.1608663
71	0x3bc1d18e	0.0059148734
72	0x3e0ea905	0.13931663
73	0xbcd299e4	-0.025708146
74	0xbe337c6e	-0.17527935
75	0x3ddf5235	0.109043516
76	0x3cd0d90b	0.02549412
77	0xbd883e5f	-0.06652521
78	0xbe479b50	-0.19492841
79	0xbcbda226	-0.023148607
80	0x3e4400b7	0.19140898
81	0x3e3add36	0.18248448
82	0x3e5296ac	0.2056529
83	0x3dc8f306	0.09811978
84	0x3d3c63ad	0.045993496
85	0xbd778d7c	-0.060437664
86	0x3d3e2239	0.046419356
87	0x3c0a2288	0.008431084
88	0xbdb22a9b	-0.086995326
89	0x3e83198b	0.25605425
90	0xbc90e456	-0.017687004
91	0x3df8188a	0.121140555
92	0xbdb70f58	-0.089384735
93	0x3df36344	0.11884168
94	0x3e53874e	0.20657083
95	0x3da85557	0.08219402
96	0x3b995377	0.0046791392
97	0x3dc05fb9	0.09393258
98	0x3db46e47	0.08810096
99	0x3d21450f	0.0393725
100	0x3e6e2fe4	0.23260456
101	0x3e897174	0.2684437
102	0xbd945fa0	-0.072448015
103	0xbe07fd4d	-0.1328022
104	0x3e547ea7	0.20751439
105	0x3e42eb88	0.1903516
106	0x3d297ba1	0.041377667
107	0xbd3cf910	-0.046135962
108	0x3e6a4009	0.2287599
109	0x3d9e2859	0.077225395
110	0x3dd16576	0.1022443
111	0xbcabecd3	-0.02098695
112	0xbd5e8746	-0.054328226
113	0xbd576ac3	-0.05259205
114	0x3e0c3bdd	0.13694711
115	0x3d6ccc9a	0.05781231
116	0x3d77d69b	0.060507398
117	0x3d83ce43	0.06435826
118	0x3dd081ab	0.10180982
119	0xbc981f84	-0.018569715
120	0xbd9b9fea	-0.075988606
121	0xbd5789bb	-0.052621584
122	0xbd032562	-0.032018073
123	0xbd9326d2	-0.07185139
124	0xbd432d41	-0.04765058
125	0x3e3fdb2f	0.18735956
126	0x3d9cb4d0	0.07651675
127	0x3e3c6114	0.18396407
128	0x3d6ba85d	0.05753361
129	0xbc335d1c	-0.010947492
130	0xbcfac480	-0.030611277
131	0x3ce9f673	0.028559899
132	0xbd40b158	-0.04704413
133	0xbe250f7a	-0.16119185
134	0x3d22f0d2	0.039780445
135	0x3e382cd7	0.17985855
136	0x3da16d45	0.0788217
137	0x3e691251	0.22760893
138	0x3d98800b	0.07446297
139	0x3d90b8de	0.070665106
140	0x3d4e7aa1	0.050409917
141	0x3d96d630	0.07365072
142	0x3e82f639	0.25578478
143	0x3de35727	0.11100607
144	0x3d00c8fe	0.03144168
145	0x3c892b06	0.016744148
146	0xbce94b09	-0.028478162
147	0xbda8c56e	-0.08240782
148	0x3dcb813a	0.099367574
149	0x3e6498a0	0.22323847
150	0x3cb23403	0.021753317
151	0xbdf40d2f	-0.11916577
152	0xbd94e52c	-0.072702736
153	0x3dd9447c	0.106087655
154	0x3d8ba99d	0.068194605
155	0x3e280db7	0.16411482
156	0x3d41a379	0.04727504
157	0x3e213adc	0.1574511
158	0x3d22a4f9	0.03970811
159	0x3d061463	0.032734286
160	0xbaed2656	-0.001809309
161	0x3d378814	0.04480751
162	0x3d8e049b	0.06934472
163	0x3d7c1dc6	0.06155183
164	0x3e1c4e9c	0.15264362
165	0x399be8db	0.00029737395
166	0x3bfcfad7	0.007720332
167	0x3e28fb32	0.16502073
168	0xbd29d693	-0.0414644
169	0xbc3bc08d	-0.011459482
170	0xbe481482	-0.19539073
171	0x3e2c0164	0.16797405
172	0x3e067cb5	0.1313351
173	0x3db4f2ba	0.08835359
174	0x3e11aeba	0.14226809
175	0x3dc799ab	0.09746107
176	0xbd2c24e6	-0.042027377
177	0x3dd9673f	0.10615396
178	0xbda16d99	-0.07882232
179	0x3e4d268b	0.20034234
180	0x3e020cc2	0.12700179
181	0x3e23df5b	0.16003172
182	0xbd9377d6	-0.07200591
183	0xbd9ab354	-0.075537354
184	0xbd8f8d0f	-0.07009327
185	0x3c1ffe1b	0.009765173
186	0x3e050121	0.12988712
187	0x3e0d72c8	0.13813317
188	0x3e504fa1	0.20342876
189	0x3d625d28	0.055264622
190	0xbd3b9339	-0.0457947
191	0x3e432067	0.1905533
192	0x3bc5506f	0.0060215513
193	0x3c48095a	0.012209261
194	0x3e17ca64	0.148233
195	0x3c1ba460	0.009499639
196	0x3d0e2bb8	0.034709662
197	0x3db30205	0.087406196
198	0xbb98074f	-0.004639543
199	0x3e1767d6	0.14785704
200	0x3e097e04	0.13426977
201	0x3d116708	0.03549865
202	0x3d7db0cd	0.06193619
203	0xbc625252	-0.013813572
204	0xbe5f6157	-0.21814476
205	0x3dd41707	0.103559546
206	0x3e0b5e2b	0.13610141
207	0x3c45bb6c	0.012068611
208	0xbe05acb3	-0.13054161
209	0xbd3f8b0b	-0.04676346
210	0xbe35bd2e	-0.17747948
211	0x3e859e97	0.26097557
212	0x3d92975e	0.07157777
213	0x3d46c47f	0.048527237
214	0xbd85a801	-0.06526185
215	0x3d9974fa	0.07493015
216	0x3e40dc23	0.18833975
217	0x3e329da6	0.1744295
218	0x3cf86278	0.030320391
219	0x3e4cc195	0.1999572
220	0xbdb9c5e8	-0.09070951
221	0x3e619a3e	0.22031495
222	0x3e2e55a9	0.17024864
223	0x3d4a3736	0.04936906
224	0x3e8113ca	0.2521041
225	0x3d8d0dd1	0.06887401
226	0xbda5dd97	-0.080989055
227	0x3e4843cf	0.19557117
228	0x3e86b261	0.26307967
229	0x3d87c14f	0.066286676
230	0x3db26ea8	0.08712512
231	0x3c640ea0	0.0139195025
232	0x3e573488	0.21016133
233	0x3e6a275e	0.2286658
234	0x3dbe6706	0.09296994
235	0xbbefea77	-0.0073216516
236	0x3e0c4b1c	0.13700527
237	0x3e00aabb	0.12565129
238	0x3d951bb1	0.07280672
239	0x3e69e154	0.22839862
240	0xbd302c87	-0.043011215
241	0x3e2c0a08	0.16800702
242	0x3e2fe5ab	0.17177455
243	0x3e4005d4	0.18752223
244	0xbe386ece	-0.18011019
245	0xbe1b8110	-0.15185952
246	0xbd8aaf65	-0.06771735
247	0x3c65b29b	0.014019634
248	0xbd912b2a	-0.07088311
249	0xbc16b5ea	-0.009198645
250	0x3d09aca0	0.033611894
251	0x3e3d4cda	0.18486348
252	0x3e458d71	0.19292237
253	0x3e720829	0.23635925
254	0x3d75bd91	0.059995238
255	0x3def4eef	0.11684977

conv2.bias f4 [4]
0	0xbd952835	-0.072830595
1	0xbe1d659d	-0.15370794
2	0x3d50400e	0.050842337
3	0x3e2bbf57	0.16772209

conv2.lin.weight f4 [4, 32]
0	0x3e921d31	0.28537896
1	0x3e0338f0	0.12814689
2	0x3d2bca66	0.04194107
3	0x3e8733dd	0.26406756
4	0xbe536a61	-0.20646049
5	0x3c6db6ce	0.014508916
6	0x3e35ea93	0.17765264
7	0x3ec66782	0.38750845
8	0x3ec19dd0	0.37815714
9	0xbd3a3687	-0.045462158
10	0xbee9477e	-0.45562357
11	0x3e9263e2	0.2859183
12	0x3eae0cd8	0.33994174
13	0x3e2adba4	0.16685349
14	0x3eb534b6	0.35391778
15	0x3d1598ff	0.03652286
16	0xbebf2e8d	-0.37340203
17	0xbd39a65b	-0.045324665
18	0xbe70af2a	-0.2350432
19	0xbf03db9c	-0.5150697
20	0xbe28f8f7	-0.16501223
21	0x3d851fe1	0.06500221
22	0xbecbeff4	-0.39831507
23	0xbd4220aa	-0.047394432
24	0x3dbc187c	0.091843575
25	0x3c97fffc	0.01855468
26	0x3dcd961b	0.10038396
27	0xbe919ce2	-0.28440005
28	0xbe5083ed	-0.20362826
29	0xbee63271	-0.4496036
30	0xbe0861b3	-0.1331852
31	0x3ec51b33	0.38497314
32	0xbe032b3c	-0.12809461
33	0x3e021d74	0.12706548
34	0x3ee5ca18	0.44880748
35	0x3eafce01	0.34336856
36	0x3f078d8e	0.5295037
37	0x3eecd81b	0.46258625
38	0x3e9c6ea9	0.30553177
39	0xbda44ffa	-0.08023067
40	0xbefcf251	-0.49403623
41	0xbd673324	-0.056445256
42	0x3ec6a899	0.38800505
43	0xbe1a374d	-0.15060158
44	0x3eb9f3b0	0.3631873
45	0xbef4c418	-0.47805858
46	0xbde2a847	-0.110672526
47	0x3ed45405	0.41470352
48	0xbebfe06a	-0.37475902
49	0x3da3b0d3	0.07992711
50	0x3e930f56	0.28722638
51	0xbee7e293	-0.4529005
52	0xbea5ac7d	-0.3235816
53	0xbeb0ec6d	-0.3455538
54	0x3eda401a	0.4262703
55	0xbe619377	-0.2202891
56	0x3e15e8e1	0.14639618
57	0x3ee031ff	0.43788144
58	0x3e811b90	0.2521634
59	0xbdfd970f	-0.12382328
60	0x3eb72cb3	0.3577629
61	0xbe94c1fe	-0.29054254
62	0x3ef7b37c	0.48379123
63	0xbe947acd	-0.2899994
64	0x3eab9b7b	0.3351706
65	0xbe96f5fa	-0.2948454
66	0x3e8a2c01	0.26986697
67	0x3f06a750	0.5259905
68	0xbe84c38b	-0.25930437
69	0xbd400be3	-0.046886336
70	0xbebb0875	-0.3652989
71	0x3e63bae3	0.2223926
72	0xbe9fc049	-0.3120139
73	0x3eda8238	0.42677474
74	0xbedc00cf	-0.42969367
75	0xbe89a082	-0.2688027
76	0xbe5cc7ac	-0.21560544
77	0x3efd1b27	0.49434778
78	0x3e762f30	0.24041438
79	0x3d3c993a	0.046044566
80	0x3e815a11	0.25264028
81	0xbf041ba6	-0.5160469
82	0xbd99b97d	-0.07506082
83	0x3edc07c3	0.42974672
84	0xbe4ce006	-0.20007333
85	0xbea3a017	-0.31958076
86	0xbea7ebec	-0.32797182
87	0x3ef9ed8b	0.48814043
88	0x3e1bc887	0.15213214
89	0xbd819b98	-0.06328505
90	0xbe817673	-0.25285682
91	0x3ea0fc22	0.31442362
92	0xbe27ca1e	-0.16385695
93	0x3edfc927	0.43708155
94	0x3ec79bd7	0.38986084
95	0xbef509f4	-0.47859156
96	0x3f006fe8	0.50170755
97	0xbeb7f2c3	-0.359274
98	0xbe15f3d7	-0.14643799
99	0xbda29d28	-0.079401314
100	0xbeb82a4c	-0.3596977
101	0xbe428830	-0.18997264
102	0xbebebc31	-0.37252954
103	0xbe5a846f	-0.21339582
104	0xbd86a960	-0.065752745
105	0xbe75e77f	-0.2401409
106	0x3e8e9069	0.2784455
107	0xbe653122	-0.22382024
108	0xbd8a4b57	-0.06752651
109	0x3e20ad3b	0.15691082
110	0xbe8b0ed1	-0.27159742
111	0xbf008b09	-0.5021215
112	0x3ea999b1	0.3312507
113	0xbf00647f	-0.50153345
114	0x3e228f08	0.15874875
115	0x3ed12e98	0.4085586
116	0x3f092a69	0.5358034
117	0xbebf752a	-0.37394077
118	0x3eafe612	0.34355217
119	0xbec5733c	-0.3856448
120	0xbeb67b83	-0.35641107
121	0x3c3b12d8	0.011418067
122	0xbea79b3a	-0.32735616
123	0xbeda69c3	-0.42658815
124	0x3e13c13a	0.14429179
125	0x3efe1b72	0.49630314
126	0x3ec97266	0.39345092
127	0x3ea0d1ad	0.3140997
