my_gtn/experiment_logs/model_exp_126.pt (torch, 89497 bytes, 4 tensors)

conv1.bias f4 [64]
0.066390984 0.095687866 0.027997479 0.069860674 0.05376111 0.09774843 0.0960913 0.09091208
0.05483742 0.06335182 0.09704525 0.09013405 0.06977128 0.068675615 0.008675707 0.016687734
0.08792235 0.06474733 -0.015899243 0.067415126 0.09464823 0.047572043 0.024306804 -0.051673934
0.04947002 0.089457236 -0.026803805 0.008032506 0.026547786 0.09693539 0.05948145 0.035785045
0.044327978 0.09101159 0.086298436 0.09669035 0.062312864 0.054516077 0.055671293 0.090199545
0.00816484 -0.0070697516 0.034249492 0.066584006 0.095440134 0.005306345 -0.0056046722 0.082226254
0.0931107 0.01595727 0.09129522 0.09646316 0.09580673 0.095935665 0.031541716 0.09416064
0.09339683 0.02103194 0.091343515 0.0018048229 0.093520984 0.01842829 -0.0005990792 0.06378894
00000000: fff7 873d 00f8 c33d f85a e53c 1d13 8f3d
00000010: 9c34 5c3d 5430 c83d 84cb c43d 1d30 ba3d
00000020: 349d 603d 99be 813d a9bf c63d 3398 b83d
00000030: 3fe4 8e3d cda5 8c3d 8d24 0e3c b7b4 883c
00000040: a210 b43d 409a 843d 213f 82bc f110 8a3d
00000050: eed6 c13d e7da 423d 101f c73c 0ca8 53bd
00000060: 13a1 4a3d 5b35 b73d a793 dbbc c69a 033c
00000070: be7a d93c 1086 c63d d2a2 733d 5793 123d
00000080: 4191 353d 4964 ba3d 3cbd b03d 9705 c63d
00000090: c63b 7f3d 404c 5f3d 9507 643d 8aba b83d
000000a0: d2c5 053c 60a9 e7bb 3249 0c3d 325d 883d
000000b0: 1e76 c33d d9e0 ad3b 66a7 b7bb 3d66 a83d
000000c0: d3b0 be3d d2b8 823c fdf8 ba3d 7a8e c53d
000000d0: 5236 c43d eb79 c43d e331 013d 4bd7 c03d
000000e0: d646 bf3d 2d4b ac3c 4f12 bb3d cf8f ec3a
000000f0: ee87 bf3d edf6 963c 860b 1dba c7a3 823d

conv1.lin.weight f4 [64, 334]
0.08265633 0.09546136 0.031754375 0.16857752 -0.005905138 0.07846902 0.09462759 0.008095256
-0.03175303 0.05672983 -0.07102197 0.087783 0.2133799 0.027663793 -0.100227684 0.0077609685
0.006702545 -0.11194233 -0.015998723 -0.06082958 -0.018538693 0.0017419113 0.036495473 -0.018055161
-0.15446208 0.13955753 0.062428776 0.12702155 0.06656981 0.094827265 -0.097800255 0.11291569
0.13253371 0.025244461 0.027912125 0.012908171 0.0070518926 0.09377958 0.15222082 0.0073426478
0.09716116 -0.017052075 0.14614506 0.09973859 -0.085073546 -0.09158149 -0.028003188 0.03307294
-0.01912944 0.16830099 -0.0061753485 0.009104839 0.20424245 -0.060179316 0.028819589 -0.056358606
0.08649974 0.024672525 -0.019434152 -0.13188529 0.02460275 -0.025758209 -0.020573828 -0.16503486
-0.01889081 -0.11819242 -0.10841349 -0.11530797 -0.10212845 -0.017247947 -0.036854595 -0.023503702
-0.03961141 0.09853718 -0.05756637 0.038088467 -0.029980395 -0.08812228 0.024772862 -0.044524234
-0.059163652 0.0023818386 0.042686768 0.09460884 -0.0033954903 -0.018886082 -0.054225307 0.06818072
-0.013409017 -0.019857403 -0.031208089 -0.042701386 -0.1403318 0.005729609 0.14759025 0.058507316
-0.014967042 0.09532905 0.10023277 -0.041450676 0.013814677 0.20801969 0.045273434 0.002157003
0.05925779 0.09216154 0.19748375 0.065533444 0.11251291 0.006664283 0.09106717 -0.08310303
-0.03780347 -0.1340527 -0.041310225 -0.007402443 0.009880147 0.042877235 0.0011392268 0.13563965
0.062265866 0.14179137 0.023123007 0.18678057 -0.027583603 0.18061906 -0.011910231 0.038674995
0.01050682 0.081325516 0.04296678 0.047416627 0.008051068 0.07174853 -0.01979719 0.17702743
0.08581749 -0.059219927 -0.04109446 0.09815769 0.16589521 0.018606853 0.14716277 -0.009663355
-0.12512532 -0.10985256 -0.05744726 -0.03135054 0.088666745 0.06493331 -0.037596643 0.029327292
0.10865611 0.042108845 0.029249206 0.006334931 0.019825887 -0.15017791 -0.06831571 0.12328127
-0.07074487 -0.047419447 0.030017303 0.06471899 0.1530719 0.10687383 0.1230692 -0.06877619
-0.09059795 0.039579634 0.020240795 -0.0020718682 0.14810641 -0.02319733 0.08616566 0.03950003
-0.043434046 -0.050437517 -0.0033589555 -0.10489468 -0.012466444 0.042809527 0.053072535 -0.019078344
0.026229944 0.12459596 0.116509445 -0.019111387 0.10723652 -0.11613619 0.04786172 0.053910773
0.021436721 0.05940497 0.005670626 0.112829424 -0.050292097 -0.019286038 0.02857944 0.013309649
-0.039880365 0.05409372 -0.1572193 -0.024717173 -0.0033978699 0.040663365 0.05294802 0.0765935
0.057279322 -0.133497 -0.035420816 0.18847084 0.008344361 0.02285994 -0.056172416 0.056280665
-0.042326834 -0.004567905 -0.09362192 0.11937039 0.08229927 0.09148812 0.13630381 -0.17361297
0.1960279 -0.018056622 0.05173192 -0.03739839 -0.0037090562 0.09102121 -0.07353848 4.4664484e-05
0.09747816 0.07650919 -0.025222525 -0.05923113 0.10762092 0.045476623 0.05141605 -0.09858667
0.12811829 -0.0088643385 0.11162953 0.1608997 0.10631365 -0.12731595 0.028084347 -0.05429453
-0.11364694 0.10322181 -0.08009211 -0.11290566 -0.026336696 0.19596036 0.1693275 0.098912306
00000000: b947 a93d 3f81 c33d e010 023d 969f 2c3e
00000010: e37f c1bb 5eb4 a03d 1ccc c13d f7a1 043c
00000020: 770f 02bd 8a5d 683d f773 91bd 93c7 b33d
00000030: 4380 5a3e 2e9f e23c 2c44 cdbd b94f fe3b
00000040: 06a1 db3b 0542 e5bd c10f 83bc 7028 79bd
00000050: 75de 97bc d850 e43a 477c 153d 6be8 93bc
00000060: 4f2b 1ebe 2be8 0e3e 51b5 7f3d f011 023e
00000070: c155 883d cc34 c23d 804b c8bd 5740 e73d
00000080: ebb6 073e 79cd ce3c f8a7 e43c cb7c 533c
00000090: 9013 e73b 820f c03d c6df 1b3e 989a f03b
000000a0: 6efc c63d cbb0 8bbc 0da7 153e bf43 cc3d
000000b0: 0a3b aebd 148f bbbd f166 e5bc 7e77 073d
000000c0: 58b5 9cbc 1857 2c3e 945a cabb 762c 153c
000000d0: ef24 513e 967e 76bd 0f17 ec3c 48d8 66bd
000000e0: c726 b13d 091e ca3c 5f34 9fbc f00c 07be
000000f0: b58b c93c e102 d3bc 728a a8bc e6fe 28be
00000100: e6c0 9abc de0e f2bd e407 debd 9626 ecbd
00000110: b928 d1bd 914b 8dbc d8f4 16bd d68a c0bc
00000120: 933f 22bd dccd c93d b7ca 6bbd a702 1c3d
00000130: 7299 f5bc 7479 b4bd 75f0 ca3c 0b5f 36bd
00000140: 9655 72bd 9f18 1c3b 52d8 2e3d 48c2 c13d
00000150: e086 5ebb fcb6 9abc 5b1b 5ebd 55a2 8b3d
00000160: 7eb1 5bbc feab a2bc 1ba8 ffbc a6e7 2ebd
00000170: 24b3 0fbe 72bf bb3b e621 173e 5ea5 6f3d
00000180: 5338 75bc e13b c33d d746 cd3d 2fc8 29bd
00000190: f456 623c 1d03 553e a370 393d 815c 0d3b
000001a0: 4cb8 723d 31bf bc3d 2e39 4a3e 6636 863d
000001b0: 2b6d e63d 0f60 da3b 6d81 ba3d ec31 aabd
000001c0: d0d7 1abd 1c45 09be e934 29bd 3190 f2bb
000001d0: 57e0 213c 0aa0 2f3d 1c52 953a 1fe5 0a3e
000001e0: 7e0a 7f3d c231 113e 766c bd3c 6843 3f3e
000001f0: 02f7 e1bc 34f4 383e 2123 43bc ac69 1e3d
00000200: cc24 2c3c fe8d a63d effd 2f3d f037 423d
00000210: a0e8 033c e5f0 923d b72d a2bc ae46 353e
00000220: 15c1 af3d 9890 72bd aa52 28bd e606 c93d
00000230: 6fe0 293e 666d 983c d6b1 163e 0c53 1ebc
00000240: da20 00be 61fa e0bd d14d 6bbd 6d69 00bd
00000250: e996 b53d c1fb 843d f0fe 19bd ca3f f03c
00000260: 1887 de3d 537a 2c3d 089c ef3c 4195 cf3b
00000270: e669 a23c 3dc8 19be 1be9 8bbd e47a fc3d
00000280: b0e2 90bd e53a 42bd d9e6 f53c 648b 843d
00000290: e1be 1c3e abe0 da3d b40b fc3d 88da 8cbd
000002a0: 6b8b b9bd 411e 223d 06d0 a53c 2ec8 07bb
000002b0: 35a9 173e 5408 bebc 9f77 b03d c9ca 213d
000002c0: e6e7 31bd 9297 4ebd ec21 5cbb 06d3 d6bd
000002d0: 0e40 4cbc 0b59 2f3d 9662 593d 304a 9cbc
000002e0: 2ee0 d63c 2b2c ff3d 819c ee3d 7c8f 9cbc
000002f0: d29e db3d d0d8 edbd a70a 443d 8bd1 5c3d
00000300: 109c af3c a052 733d a9d0 b93b 1d13 e73d
00000310: 16ff 4dbd c1fd 9dbc 6e1f ea3c b710 5a3c
00000320: 9859 23bd 6091 5d3d 19fe 20be ab7b cabc
00000330: ccae 5ebb a18e 263d 06e0 583d 0edd 9c3d
00000340: b99d 6a3d 70b3 08be 6b15 11bd 80fe 403e
00000350: c9b6 083c c544 bb3c 0c15 66bd 8e86 663d
00000360: e75e 2dbd 5dae 95bb d9bc bfbd 7778 f43d
00000370: 858c a83d 205e bb3d 3a93 0b3e 99c7 31be
00000380: 8abb 483e 7beb 93bc dae4 533d 0e2f 19bd
00000390: a313 73bb 5469 ba3d 589b 96bd 2056 3b38
000003a0: a1a2 c73d dab0 9c3d 789f cebc 579c 72bd
000003b0: 5b68 dc3d b245 3a3d a399 523d cfe7 c9bd
000003c0: 7131 033e bb3b 11bc 069e e43d e4c2 243e
000003d0: f9ba d93d 1d5f 02be 2511 e63c f163 5ebd
000003e0: babf e8bd f565 d33d 5507 a4bd 153b e7bd
000003f0: 0ec0 d7bc d5a9 483e 3064 2d3e 8992 ca3d

conv2.bias f4 [4]
-0.09292605 -0.09335435 0.09431581 0.09640277
00000000: 0350 bebd 9130 bfbd a628 c13d d16e c53d

conv2.lin.weight f4 [4, 64]
-0.34009656 0.14625356 -0.14304252 -0.048827652 -0.10228538 0.08409282 -0.38453963 0.20583904
0.0064923516 0.17558782 0.108277276 -0.33223823 -0.17242682 -0.29282767 -0.072097786 0.1568639
0.19035625 -0.09945311 -0.21715751 0.23117061 0.17309 -0.26998565 0.026950948 0.25573805
0.20079395 -0.02160862 0.27709234 0.12818296 0.025338253 0.0065222853 0.27779296 0.29501864
-0.28631958 0.24747805 -0.32397604 0.024558272 0.2515907 -0.25064692 -0.11730512 0.34801143
0.15007877 0.20396394 -0.11401079 0.2960446 -0.26001438 -0.19245578 0.21212842 0.18382576
-0.23390768 0.20072532 0.093310446 -0.16920894 0.3551253 -0.2627697 0.22166736 0.14793734
-0.34693995 0.10584842 -0.19229744 -0.25493827 -0.13143723 0.008847786 0.32820275 -0.25755876
-0.19748685 -0.2824835 0.344207 0.07422186 0.33763468 -0.38001573 -0.23584029 -0.12401254
0.25098974 -0.12102785 -0.32000706 0.111732766 -0.24479765 0.26696196 0.24633276 -0.011273263
0.35838017 0.2672112 0.147081 -0.01045896 -0.20008351 0.18844199 -0.14549181 0.18664296
-0.26206508 -0.043987364 0.19084933 0.17037788 0.07811575 -0.2802577 0.37765205 0.18103689
0.17346053 -0.3090436 0.33905554 0.10136166 0.18901767 0.37350795 0.28614122 0.012350457
-0.06112816 0.09923893 -0.01390349 -0.27719817 -0.2758659 0.17648105 0.12417367 -0.16962796
-0.0039535034 0.13985376 0.10867866 -0.21489185 0.03782722 -0.09144359 -0.091843605 -0.19743218
-0.022004958 0.024540111 -0.35876724 0.26125407 -0.015073586 0.2664047 -0.020314544 0.26120257
0.023924015 0.081399366 -0.3773882 0.23886852 0.15377276 0.050720345 0.3430957 -0.20783673
0.3163941 -0.07774596 0.18389715 -0.3447409 0.2869269 0.17127693 -0.27091795 -0.25195533
-0.072959766 0.3401731 -0.22443235 -0.12589556 0.21892671 -0.38163123 -0.2386675 -0.00061978766
-0.34305486 -0.21768677 -0.17475687 -0.017157089 -0.2514677 -0.24429987 -0.3572039 -0.30559626
-0.32646516 -0.24369064 0.045924447 0.33727977 -0.035030387 -0.052446593 -0.3783307 -0.0015817767
-0.031888716 0.013129318 0.34300113 0.23541453 0.084992155 -0.03483949 -0.1176337 -0.33090112
0.34677652 -0.21249574 0.09826886 0.3690674 0.24227208 0.3939291 -0.14330815 0.09457321
0.20882009 -0.25568882 -0.29938912 0.13511789 0.30601114 0.28033042 0.04057922 0.25605333
0.27120253 -0.3363292 -0.38061127 0.3544905 -0.20910089 0.07159952 -0.03812833 0.17382766
-0.06703317 0.3484152 0.041894346 0.1583333 -0.1807397 0.17294899 -0.008372996 0.24933808
-0.3291757 -0.23097947 0.15942849 -0.36624494 -0.24262291 0.1516109 -0.05048983 -0.1139627
0.078081824 0.3207684 -0.025465718 -0.119872674 -0.3577185 -0.028511351 0.18407623 -0.27953756
0.30890247 0.11447504 0.2891387 -0.07894086 -0.37470642 0.14657408 -0.3301595 -0.04553883
-0.12452277 -0.32392767 0.0096748965 -0.15640746 0.23045038 -0.19454446 -0.18434 -0.35562852
-0.26494986 0.36169654 0.3893881 0.24060385 -0.3138882 0.054386478 -0.27045748 0.16961111
0.30918986 0.1328455 0.16399977 -0.118504815 -0.23294203 -0.17987093 -0.14693794 0.07116244
00000000: 2321 aebe 7ec3 153e bd79 12be 81ff 47bd
00000010: ff7a d1bd db38 ac3d 61e2 c4be 78c7 523e
00000020: cbbd d43b 4bcd 333e 7ac0 dd3d 211b aabe
00000030: a890 30be 82ed 95be 01a8 93bd eea0 203e
00000040: c0ec 423e 12ae cbbd 8a5e 5ebe fdb7 6c3e
00000050: 813e 313e 8f3b 8abe 3cc8 dc3c 19f0 823e
00000060: ee9c 4d3e 9004 b1bc 0cdf 8d3e 6542 033e
00000070: 2b92 cf3c e5b8 d53b e13a 8e3e af0c 973e
00000080: 7b98 92be e36a 7d3e 30e0 a5be 6e2e c93c
00000090: 7fd0 803e cb54 80be ab3d f0bd 8e2e b23e
000000a0: 40ae 193e ecdb 503e 7d7e e9bd 2893 973e
000000b0: 9b20 85be 2113 45be 3138 593e d23c 3c3e
000000c0: 7f85 6fbe f08a 4d3e 8c19 bf3d 1c45 2dbe
000000d0: fcd2 b53e c089 86be c5fc 623e e37c 173e
000000e0: 1da2 b1be 0ec7 d83d 9fe9 44be 4587 82be
000000f0: 7b97 06be 4ef6 103c 310a a83e bede 83be
00000100: fe39 4abe ada1 90be e63b b03e a101 983d
00000110: 74de ac3e 6c91 c2be 1e80 71be 49fa fdbd
00000120: ba81 803e 73dd f7bd f7d7 a3be 26d4 e43d
00000130: 3cac 7abe 3daf 883e a83e 7c3e 7eb3 38bc
00000140: 9b7d b73e e8cf 883e 679c 163e 0f5c 2bbc
00000150: b1e2 4cbe f0f6 403e cefb 14be 551f 3f3e
00000160: 652d 86be 182c 34bd 026e 433e 8a77 2e3e
00000170: 26fb 9f3d f07d 8fbe 9c5b c13e bc61 393e
00000180: a39f 313e f63a 9ebe b098 ad3e b496 cf3d
00000190: d98d 413e 6f3c bf3e 1a81 923e 9259 4a3c
000001a0: 8661 7abd c83d cb3d 77cb 63bc ebec 8dbe
000001b0: 4c3e 8dbe 73b7 343e c44e fe3d f4b2 2dbe
000001c0: 648c 81bb d335 0f3e eb92 de3d 9c0c 5cbe
000001d0: b7f0 1a3d c746 bbbd 8018 bcbd a92b 4abe
000001e0: be43 b4bc 5808 c93c 57b0 b7be 18c3 853e
000001f0: 34f7 76bc 3266 883e b06a a6bc 58bc 853e
00000200: 4cfc c33c b6b4 a63d 0739 c1be f399 743e
00000210: 9b76 1d3e 23c0 4f3d 3daa af3e 27d3 54be
00000220: 68fe a13e 4639 9fbd 894f 3c3e e181 b0be
00000230: 15e8 923e 3863 2f3e c2b5 8abe 4a00 81be
00000240: ee6b 95bd 2b2b ae3e 98d1 65be c4ea 00be
00000250: 532e 603e 2b65 c3be 4165 74be 3f79 22ba
00000260: e3a4 afbe 48e9 5ebe 77f3 32be 068d 8cbc
00000270: 60c0 80be bf29 7abe 6ee3 b6be 1d77 9cbe
00000280: 7126 a7be 0a8a 79be 461b 3c3d efaf ac3e
00000290: 067c 0fbd 3dd2 56bd 90b4 c1be 9e53 cfba
000002a0: be9d 02bd 5a1c 573c d89d af3e 8210 713e
000002b0: 5e10 ae3d dab3 0ebd f0e9 f0bd df6b a9be
000002c0: b18c b13e 7c98 59be 2f41 c93d 67f6 bc3e
000002d0: 2c16 783e 13b1 c93e 5fbf 12be 99af c13d
000002e0: efd4 553e a5e9 82be 8849 99be 585c 0a3e
000002f0: 7ead 9c3e 7887 8f3e 6536 263d 6c19 833e
00000300: 0fdb 8a3e 5733 acbe 7bdf c2be c77f b53e
00000310: 8b1e 56be c5a2 923d 742c 1cbd e1ff 313e
00000320: b048 89bd 7a63 b23e 6899 2b3d 2022 223e
00000330: d413 39be 8a19 313e e42e 09bc 7b52 7f3e
00000340: b889 a8be e285 6cbe 3941 233e 7584 bbbe
00000350: 2472 78be e33f 1b3e 6dce 4ebd 4765 e9bd
00000360: 5de9 9f3d c13b a43e 7b9d d0bc ce7f f5bd
00000370: e126 b7be a390 e9bc 7b7e 3c3e 8c1f 8fbe
00000380: 7728 9e3e e471 ea3d fd09 943e bfab a1bd
00000390: 85d9 bfbe 8417 163e aa0a a9be ed86 3abd
000003a0: cb05 ffbd d9d9 a5be 7583 1e3c 4729 20be
000003b0: 2ffb 6b3e aa36 47be a0c3 3cbe f114 b6be
000003c0: 82a7 87be 4a30 b93e e15d c73e db60 763e
000003d0: f4b5 a0be 5bc4 5e3d 6779 8abe 89ae 2d3e
000003e0: 224e 9e3e a708 083e 8eef 273e a7b2 f2bd
000003f0: 5b88 6ebe 1630 38be e676 16be 9dbd 913d
