my_gtn/experiment_logs/model_exp_095.pt (torch, 89497 bytes, 4 tensors)

conv1.bias f4 [64]
00000000: e43c 883d 80d7 c33d 517b ee3c 1056 8f3d
00000010: de27 5f3d 9803 c83d c46f c53d a2de bb3d
00000020: f010 5d3d 6d1c 823d ffab c63d 65bd b93d
00000030: 59b8 8e3d a9ba 8b3d 88f6 063c e1b9 8a3c
00000040: 1226 b43d 5199 843d b241 8abc 8eda 893d
00000050: a4f8 c13d 3c48 433d e08c c93c 2b2d 56bd
00000060: 4475 4e3d db68 b73d 5e6b dcbc 1f17 ee3b
00000070: cf95 d43c b02e c63d 12da 793d a119 123d
00000080: 4abf 363d 8b75 ba3d 2622 b13d dbc7 c53d
00000090: f991 7d3d 4a49 603d 3b7f 663d 61a9 b73d
000000a0: c2fb fc3b dc33 d4bb f32f 113d 638c 873d
000000b0: a73c c43d b205 c93b b258 04bc cb6e a73d
000000c0: 2401 bf3d b49c 773c d5b2 bc3d 957b c53d
000000d0: ccc5 c43d 9ec7 c43d c3e9 e23c 2819 c13d
000000e0: 60aa bf3d cb3e ac3c ea63 bb3d 3fca 153b
000000f0: 321d c03d d61d 9a3c 6993 36ba b43e 813d
0.06652239 0.09562588 0.029111536 0.06998837 0.05448138 0.097663105 0.09640458 0.09173323
0.05397123 0.06353078 0.097007744 0.09069327 0.06968755 0.06822712 0.008237489 0.016934337
0.08796324 0.06474555 -0.01687703 0.06731139 0.094712526 0.04767631 0.024603307 -0.05228917
0.050404802 0.089555465 -0.026906665 0.00726594 0.02595034 0.09676874 0.060998984 0.035668973
0.04461602 0.09104451 0.086490914 0.0965726 0.06190679 0.054757394 0.05627368 0.08967853
0.0077204416 -0.0064759087 0.03544612 0.066185735 0.09581881 0.006134712 -0.008077787 0.08175429
0.093263894 0.0151130445 0.09213797 0.09642712 0.09608039 0.096083865 0.027699357 0.09428626
0.09358668 0.021026036 0.091499165 0.0022856144 0.093805686 0.018813055 -0.0006964715 0.06310788

conv1.lin.weight f4 [64, 334]
00000000: 5af2 a93d 65d4 c93d 2645 f93c dc55 403e
00000010: edfd bbbb 8fcf a83d d761 c43d 8691 4a3c
00000020: 32f4 09bd 5aa7 693d 650f 97bd b082 b53d
00000030: 5a1f 5b3e ad17 f23c d706 d7bd 7968 f03b
00000040: 99d4 e43b fa62 f6bd ae86 92bc 9d62 7abd
00000050: a596 bbbc 1fee ce3a 2a9f 1b3d ee4b 93bc
00000060: d3a2 21be 0de5 103e f820 833d eeca 123e
00000070: c430 8b3d cada c23d 303c ccbd 2488 ea3d
00000080: 1ae8 073e ac65 cc3c ae20 173d 5b70 523c
00000090: ce36 873a d267 c23d a846 1d3e 308e eb3b
000000a0: 7596 c73d abb4 8cbc 96e7 163e 6d71 d43d
000000b0: 3538 b8bd 02dc f3bd cddb ebbc c4f5 0e3d
000000c0: 6332 97bc 149c 323e c36d c7bb 3a2e 1f3c
000000d0: dd59 543e 1a51 c2bd cf92 fb3c ff71 71bd
000000e0: c4e9 d73d b93f c53c 6d0c a2bc cfbc 0ebe
000000f0: 6ace d43c 253e d1bc 7a87 a8bc 048c 29be
00000100: 0118 9abc 5faa f6bd 7330 02be a7bc f0bd
00000110: 6e05 e0bd 6c18 f0bc 6c32 53bd 8305 cebc
00000120: d0f7 22bd 067e e23d 96f8 74bd 9187 183d
00000130: d940 06bd 4375 c9bd c31b d13c f14c 5cbd
00000140: 8feb 79bd 237c 1a3b b6c1 2f3d bf5d c23d
00000150: 580e 8abc 3f33 bcbc b21e 6bbd e912 8f3d
00000160: 40ca 4ebc 7ece b1bc fed5 0bbd 668d 3cbd
00000170: db9e 13be 10d7 c93b 3ee8 173e 3bf4 713d
00000180: f27c 59bc 09ce c33d 878a ce3d 82c8 3ebd
00000190: 50ce 683c 01d5 553e ee43 443d c253 e43b
000001a0: a5b6 733d ef42 bd3d 15c0 4b3e ad08 873d
000001b0: b6f7 eb3d 85b5 b83b 6f9a c23d f2cb bbbd
000001c0: bc47 1fbd 04c9 2dbe 511f 37bd 7b70 8dbb
000001d0: 5df8 303c 9001 413d c7e6 5339 a272 0d3e
000001e0: 02c6 843d c095 2e3e 8135 bc3c 2195 443e
000001f0: ee05 f7bc 9d50 533e 67ed 61bc 4116 1f3d
00000200: 7cd2 413c 7c55 aa3d 0058 463d 01f1 493d
00000210: 5aff fc3b 4bf9 993d bf3a a8bc b465 353e
00000220: 1652 ba3d b94f 75bd f7ad 77bd ef2b cd3d
00000230: b3f5 2a3e ee7b 963c 8655 173e be01 11bc
00000240: 960e 03be 11e5 ebbd ea00 76bd 1116 35bd
00000250: 6627 b63d 3b5d 853d 6294 43bd bc14 f43c
00000260: 9ce1 df3d 6a5f 343d 10cf ec3c 2b61 993b
00000270: 7e59 973c 5ce7 24be 2866 90bd 3067 033e
00000280: 8462 97bd 12d8 44bd 56d7 f83c 2202 943d
00000290: 691f 2e3e 8111 e93d baa5 033e 5251 90bd
000002a0: 6441 c2bd c8b2 233d 152a b43c 6d49 26bb
000002b0: a2cb 183e 4857 c7bc cf10 b13d 153b 293d
000002c0: 1549 50bd 8d3a 57bd c3cc 17bb 7fe3 ebbd
000002d0: 3512 6bbc 62fd 2e3d f299 9a3d e6db 87bc
000002e0: 641c de3c 106a 053e a88e f03d a186 cfbc
000002f0: 54a8 e23d 57cb f1bd 0d97 503d 5148 5c3d
00000300: 9e1f d03c 01e6 723d 65a6 b23b f0fc f33d
00000310: 2cb1 64bd fcee a9bc e34f e83c d4e6 7b3c
00000320: e157 33bd bdd5 853d 160e 26be 85dd e3bc
00000330: d0ec 92bb 6aac 443d 50ac 5e3d 85cd a23d
00000340: a1b5 803d bb51 15be 5f4d 1fbd 1ab9 433e
00000350: 19e7 013c ed83 b23c 6f64 8ebd 2fab 6e3d
00000360: fecd 33bd db84 7dba b906 e5bd 35e2 0e3e
00000370: f7a0 ab3d affd c23d 1f47 0c3e 16b9 35be
00000380: ee2d 493e db06 c5bc a595 543d 148b 1dbd
00000390: a355 5dbb c9e3 ba3d d826 a5bd 103e 29bb
000003a0: 76aa c93d c054 9e3d 02d0 d0bc 6876 84bd
000003b0: 56e0 dc3d 5301 3c3d 2c7e 4f3d a8c8 dfbd
000003c0: 55e1 143e 8a09 15bc 91aa e43d 2508 2b3e
000003d0: ece1 e63d 1f14 08be 73b1 ed3c cc72 6ebd
000003e0: 369e f4bd d214 d63d a521 b0bd 5300 f6bd
000003f0: 6bc3 d1bc 4bc2 483e 9cb5 2d3e 4bec d13d
0.08298178 0.09854964 0.03042848 0.18782753 -0.0057370574 0.08242714 0.09588974 0.012363797
-0.03368015 0.057044365 -0.07375983 0.08862817 0.21398678 0.029552305 -0.104993515 0.007336673
0.0069833514 -0.12030597 -0.017886486 -0.0611292 -0.022898981 0.0015787518 0.037993588 -0.017980542
-0.15784769 0.14149876 0.06402773 0.14335224 0.06796411 0.09514387 -0.09972417 0.11451748
0.13272133 0.024950825 0.0368964 0.01284417 0.0010316016 0.094924584 0.15358984 0.007188581
0.09745494 -0.017175993 0.1473678 0.10373197 -0.08995096 -0.119071975 -0.028791333 0.03490235
-0.018456643 0.17442352 -0.0060860827 0.009715611 0.20737405 -0.09488125 0.030709652 -0.058946606
0.10542634 0.024078237 -0.019781316 -0.13939212 0.025977332 -0.025542328 -0.020572413 -0.16557318
-0.018810274 -0.120442145 -0.12713794 -0.117547326 -0.10938536 -0.02930852 -0.051561758 -0.025149113
-0.039787114 0.11059193 -0.059807383 0.03723866 -0.032776687 -0.09836819 0.025525933 -0.053784315
-0.06101566 0.0023572526 0.042909347 0.09490537 -0.016852543 -0.022973655 -0.05740232 0.06986029
-0.012621462 -0.021704908 -0.034139626 -0.046033286 -0.14416067 0.0061596707 0.14834687 0.059070807
-0.013274418 0.095607825 0.10085016 -0.046577938 0.014209345 0.20882036 0.047916345 0.0069679925
0.059500355 0.09241282 0.19897492 0.06593452 0.115218565 0.005636873 0.09502112 -0.09169759
-0.03888677 -0.16971213 -0.0447076 -0.004316387 0.010801402 0.04712063 0.000202085 0.1381326
0.064830795 0.17049313 0.022974731 0.19197513 -0.030154195 0.2063622 -0.013789511 0.038839582
0.011829969 0.08317086 0.048423767 0.049302105 0.00772087 0.07518252 -0.020535825 0.17714578
0.09097688 -0.059890483 -0.06046864 0.10018145 0.1669529 0.018369641 0.14778718 -0.008850513
-0.12798533 -0.115183 -0.060059465 -0.044210497 0.088942334 0.06511923 -0.04774893 0.029795043
0.109317034 0.044036306 0.028907329 0.004680773 0.01847529 -0.16103882 -0.07050735 0.12832332
-0.07391837 -0.048057623 0.030376118 0.07226969 0.1700417 0.11380292 0.12856188 -0.070467606
-0.094851285 0.03996542 0.021992723 -0.0025373355 0.1492143 -0.024333611 0.08645784 0.04131611
-0.050850946 -0.052546073 -0.002316282 -0.11518001 -0.014347603 0.042722113 0.07548894 -0.016584348
0.027113147 0.13028741 0.117459595 -0.02533275 0.11067262 -0.11806362 0.050925303 0.053779904
0.025405701 0.05930138 0.0054519647 0.119134784 -0.055833027 -0.02074384 0.028358405 0.015374858
-0.04378498 0.06534908 -0.16216311 -0.02781559 -0.0044837967 0.04801599 0.05436355 0.07949356
0.06284643 -0.14581959 -0.038892146 0.1911358 0.007928633 0.021791423 -0.0695275 0.058268722
-0.04389762 -0.0009670981 -0.11182923 0.13953479 0.08380311 0.095210426 0.13699006 -0.17746386
0.19646427 -0.02405112 0.051900525 -0.038462713 -0.0033772967 0.09125478 -0.080640495 -0.0025824346
0.09846966 0.077310085 -0.02548981 -0.06467897 0.10784976 0.0458997 0.050657436 -0.10926944
0.14539082 -0.009096513 0.111653455 0.16702326 0.1127356 -0.13288926 0.029015278 -0.058214948
-0.11944239 0.1045319 -0.08600167 -0.120117806 -0.025605878 0.19605367 0.1696381 0.102501474

conv2.bias f4 [4]
00000000: b1b1 bebd d856 bfbd ad96 c13d 89a1 c53d
-0.09311236 -0.09342736 0.09452567 0.09649951

conv2.lin.weight f4 [4, 64]
00000000: 50e2 aebe 0fae 153e 29ae 12be d7c2 48bd
00000010: 32b3 d1bd 9bdc ab3d e1f3 c4be 9ced 523e
00000020: 336d e53b 4959 353e c18a dd3d 9658 aabe
00000030: 4761 31be cc02 96be 2f6d 91bd e674 213e
00000040: 5b99 453e 903c ccbd c0bc 5ebe deca 6c3e
00000050: 19e6 323e 5dac 8abe 7cb7 d73c 158c 843e
00000060: 29de 4d3e c9f0 bcbc cf4e 8e3e dce5 033e
00000070: bc37 d03c ffee d03b 4125 903e 2f13 973e
00000080: 4c89 93be 389c 7d3e ebed a5be abd1 cb3c
00000090: eb1d 813e 76aa 80be 6788 efbd 542d b23e
000000a0: a4ac 1b3e 17d9 513e de9a e9bd 9406 983e
000000b0: 5226 85be 9b8a 45be 3eed 593e e628 3c3e
000000c0: 34bc 6fbe 70c4 4d3e cd5e be3d 9d4d 2dbe
000000d0: 5bec b53e f492 86be 57d4 633e 444e 173e
000000e0: c0ab b1be d5de d83d 93ab 48be 1d09 83be
000000f0: bffc 05be 2f69 103c 1d25 a83e 1d0c 84be
00000100: 7b6b 4abe 34a8 90be 9aad b03e 262f 983d
00000110: b3e0 ac3e 23a8 c2be d8b8 71be b10b febd
00000120: 2003 813e c85e f8bd a6dd a3be 99ce e43d
00000130: c627 7cbe bdcc 883e d7c7 7c3e 3960 2ebc
00000140: c7a6 b73e 2c52 893e 40d0 183e b9aa 50bc
00000150: ae3b 4dbe 9b2c 413e 4a82 0fbe 3cee 403e
00000160: eb59 86be 4529 38bd 06cf 4d3e 93d1 303e
00000170: d1f7 9f3d 91de 8fbe c7ad c13e 4f9f 3a3e
00000180: f589 313e 3b55 9ebe a7c9 ad3e 57e1 d53d
00000190: 4028 423e f873 bf3e bdef 923e 764f 4f3c
000001a0: 4aec 78bd 74c7 ca3d e298 60bc a1ec 8dbe
000001b0: 75cc 8dbe 4496 353e c5d6 fe3d 0af3 2dbe
000001c0: 8d89 abbb ea67 0f3e 60f5 de3d 665c 5cbe
000001d0: 953f 1b3d ecac b9bd 84d1 d4bd 391e 4abe
000001e0: 23e3 b6bc 6158 ce3c f0b4 b7be 5c24 863e
000001f0: 7479 99bc ed4f 893e 2d42 a6bc 98f2 853e
00000200: 920d ce3c cad2 a63d 42b5 c1be 62f2 793e
00000210: e6ab 1d3e b20e 4d3d 45ca af3e 87d3 54be
00000220: ca5b a23e 173f 9fbd 06a5 3c3e 90cb b0be
00000230: 270e 933e 3d8a 2f3e ccf4 8bbe e67f 82be
00000240: 98b0 94bd 9c9e ae3e 300f 68be 938f 00be
00000250: 5057 603e 1ac1 c3be 81fa 74be 861a 47ba
00000260: d8d3 afbe 2c2b 5fbe 34a8 34be 5283 8cbc
00000270: 0390 81be 422c 7bbe 185a c1be 0888 9cbe
00000280: ac3c a7be 5f82 79be 48e1 433d 7bfa ac3e
00000290: 0bad 17bd b9f6 57bd a798 c3be e98b b7ba
000002a0: 2d11 0abd 0ef6 6b3c 207a b03e c535 713e
000002b0: c463 ae3d 9b7f 16bd 37dd f0bd 5ac7 a9be
000002c0: b5ba b13e 853b 5abe 3e22 ca3d fc0c bd3e
000002d0: be43 783e 5cc4 c93e 2380 11be 3288 d63d
000002e0: c2fb 553e c988 83be 1948 9abe 2ddd 0a3e
000002f0: 490e 9d3e 4c9b 8f3e 08d1 273d a632 833e
00000300: 2306 8b3e c9a1 acbe 95f5 c2be f886 b53e
00000310: fa90 56be 218b 913d b9b0 1ebd a9fe 313e
00000320: 456d 89bd 5198 b23e 1e20 2c3d 9244 223e
00000330: e912 39be 7f02 333e 57ed 18bb b058 803e
00000340: 72a7 a8be c282 6cbe 7880 253e 1482 bbbe
00000350: 851f 79be aa65 1b3e e90b 61bd c32e ebbd
00000360: eefd 9f3d cb5c a43e ffe4 bcbc 01bb f7bd
00000370: 2ab7 b7be 9699 e6bc 6dc8 3d3e 7769 90be
00000380: f5a8 9e3e 5e64 ea3d 8eca 943e 1ad4 a1bd
00000390: 7cfd bfbe b245 173e af0c a9be 8912 3abd
000003a0: ecfa febd ac7a a6be 734a 2b3c 5ddd 20be
000003b0: 2653 6c3e 0151 47be 8fd1 3dbe 9c1c b6be
000003c0: 42e3 87be 3c32 b93e d371 c73e e1bc 763e
000003d0: 75bb a0be 8ba8 553d c6e8 8abe e455 2c3e
000003e0: 5461 9f3e 3cd5 083e f6f6 273e 1fca f2bd
000003f0: e59d 6ebe c27e 39be 1fd0 16be 7d8e 933d
-0.34157038 0.1461718 -0.1432425 -0.04901394 -0.10239257 0.083916865 -0.38467315 0.20598453
0.007001543 0.17709841 0.10817481 -0.3327071 -0.17322265 -0.2929901 -0.07100903 0.1576725
0.19296782 -0.09972489 -0.2175169 0.23124263 0.17470588 -0.27084628 0.02633261 0.25888124
0.20104279 -0.023064034 0.277945 0.12880653 0.025417201 0.006376147 0.28153422 0.29506823
-0.28815687 0.24766624 -0.3240808 0.02488025 0.25218138 -0.2513005 -0.116959386 0.34800208
0.15202576 0.2049297 -0.11406492 0.2969252 -0.260058 -0.19291155 0.21281907 0.18374977
-0.23411638 0.20094466 0.092954256 -0.16924138 0.35531887 -0.2628399 0.2224897 0.1477595
-0.34701347 0.10589377 -0.195967 -0.2559289 -0.13084696 0.00881414 0.32840815 -0.25790492
-0.19767563 -0.2825333 0.34507447 0.07430868 0.33765182 -0.38018903 -0.23605669 -0.12404574
0.25197697 -0.12127453 -0.32005042 0.11172218 -0.24624547 0.26718703 0.24685608 -0.010643058
0.3586943 0.26820505 0.14923191 -0.012736016 -0.20042297 0.18864672 -0.14014545 0.18840879
-0.26240477 -0.044961233 0.20098504 0.17267446 0.07810939 -0.28099492 0.37827894 0.18224834
0.17337783 -0.309244 0.3394291 0.10443371 0.18960667 0.37393165 0.2869853 0.012653222
-0.060772218 0.09901324 -0.013708325 -0.27719596 -0.2769505 0.17733103 0.12443308 -0.16987243
-0.005234903 0.14004484 0.10886645 -0.21519622 0.037902433 -0.09066185 -0.103915244 -0.19738092
-0.022325104 0.025188627 -0.35880232 0.26199615 -0.018734671 0.2681879 -0.020295227 0.26161647
0.025152955 0.081456736 -0.378336 0.24408868 0.15397605 0.050062843 0.34334007 -0.20783816
0.31710654 -0.07775705 0.18422326 -0.34530306 0.28721735 0.17142577 -0.27335203 -0.25488204
-0.07260245 0.34105384 -0.22662044 -0.12554769 0.21908307 -0.38233262 -0.23923685 -0.00075952
-0.3434131 -0.21793813 -0.1764229 -0.017152462 -0.25305185 -0.24528602 -0.3776405 -0.30572534
-0.32663476 -0.24366139 0.047822267 0.3378485 -0.03703026 -0.052725527 -0.38202402 -0.0014003488
-0.033707786 0.014401926 0.34468174 0.23555668 0.085151225 -0.036742788 -0.117609434 -0.33159906
0.3471276 -0.21311767 0.098698124 0.3692397 0.24244592 0.39407623 -0.14209037 0.10475196
0.20896819 -0.25690296 -0.3013313 0.13560934 0.3067496 0.2804817 0.040970832 0.2562458
0.2715312 -0.33717182 -0.3807799 0.35454535 -0.20953742 0.07106615 -0.038742755 0.17382301
-0.06710295 0.34881833 0.042022817 0.1584647 -0.1807362 0.17481421 -0.0023334825 0.25067663
-0.3294025 -0.23096755 0.16162288 -0.3662268 -0.2432843 0.151755 -0.054943 -0.114835285
0.07812105 0.32102045 -0.023058413 -0.12096215 -0.3588193 -0.028149407 0.18533488 -0.28205463
0.3098828 0.11444925 0.29060787 -0.07901783 -0.3749808 0.1477268 -0.3301749 -0.045427833
-0.12450203 -0.32515466 0.010454762 -0.15709443 0.23078594 -0.19464494 -0.18536972 -0.35568702
-0.2654057 0.36171138 0.38954028 0.24095489 -0.31393018 0.05216269 -0.27130717 0.1682964
0.31128943 0.13362592 0.16402802 -0.11854958 -0.2330242 -0.1811476 -0.1472783 0.07204912
