my_gtn/experiment_logs/model_exp_065.pt (torch, 46105 bytes, 4 tensors)

conv1.bias f4 [32]
000000 c4 39 fd 3d ab 5f 18 3d 5f da 8c bb 5b f5 18 3e
       0.123645335 0.03720061 -0.004298493 0.14937346
000010 cc de 87 3c b3 73 96 3d fc 63 6e 3d cf 17 89 3d
       0.01658573 0.073462866 0.05820082 0.06693994
000020 bb cf e2 3d 83 4b e7 3d e8 d9 09 3e db 63 dd 3d
       0.11074778 0.112936996 0.13462031 0.108100615
000030 c5 6b c7 3d 10 a8 1f 3e 55 32 d6 3d 7b de 8f 3c
       0.09737352 0.15591455 0.10458819 0.017562142
000040 37 54 db 3d 6b 1c af 3d f8 bd 98 3d 6b c7 dc 3d
       0.10709422 0.08550342 0.07458109 0.107802235
000050 64 6e 21 3e 21 7b 1b 3e 4c 3b d7 3c 65 70 19 3e
       0.15764767 0.15183689 0.026273392 0.14984281
000060 21 b2 93 3d 1f a4 f0 3c 66 36 0b 3e 53 38 c3 3d
       0.0721171 0.029375134 0.1359497 0.09532227
000070 17 3e 17 3e f0 18 ff 3d 49 7e f2 3d 80 43 1f 3e
       0.14769779 0.12455928 0.11840493 0.15553093

conv1.lin.weight f4 [32, 334]
000000 53 14 7e 3e 9f 7d 95 3d e7 0b 19 3d 42 4d 51 3e
       0.2481244 0.07299351 0.037364867 0.20439628
000010 d4 16 83 bd 71 ee 41 bd 30 05 84 3e eb c7 e1 bc
       -0.064008385 -0.047346536 0.25785208 -0.027561149
000020 a4 ff 5f 3c 6b 4f e0 3b 27 76 0c bb 65 ab e5 3d
       0.013671789 0.006845405 -0.002143273 0.112143315
000030 0e 5e 56 3e 5c 4f 03 3d ba 4f 5a 3d 57 4a fa 3d
       0.20934317 0.032058105 0.05329869 0.122212104
000040 16 12 e8 3b f8 8d a2 3c 84 95 48 3e ef c1 e7 bd
       0.007082234 0.019843087 0.19588286 -0.11316287
000050 4b d2 66 bc 82 8c 77 3e 29 a4 78 3e 84 46 45 3e
       -0.014088224 0.24174693 0.24281372 0.19265181
000060 3b 5e ab bb 62 ec fe bc 50 f7 07 bd 3d ce 88 3c
       -0.005229739 -0.031118575 -0.03319484 0.016699905
000070 28 eb 0c bb 7a f8 66 3e 27 61 9e bc fa 38 bf 3c
       -0.0021502469 0.22555724 -0.019333435 0.023342598
000080 e4 55 11 3e cd cb 88 bd 3b 0a 53 be 3e 80 30 3b
       0.14192921 -0.06679497 -0.20609371 0.0026931907
000090 1d 12 14 be b0 b7 d2 bb 60 fc 61 3d 8e 4e a8 bd
       -0.14460035 -0.0064305887 0.055172324 -0.08218108
0000a0 76 55 7f 3e c4 2a 94 3d ce 59 cf 3d 76 4f a9 bd
       0.24934945 0.072347194 0.10124551 -0.08267109
0000b0 52 d0 95 3d fb e8 8e 3a a6 1f 18 3e 26 98 03 3d
       0.073151246 0.0010903174 0.14855823 0.032127522
0000c0 5b c7 09 3e 6f 2c 44 3d 3f df 4b 3e 89 d3 ba 3d
       0.13454954 0.047893938 0.1990938 0.091223784
0000d0 f1 59 13 3e e2 26 7f bc c7 cf 22 3e 07 fe e0 bc
       0.14389779 -0.015573235 0.15899573 -0.02746488
0000e0 92 fb aa 3c ca db d6 3d cb d8 2a 3d fd 03 78 3c
       0.020871911 0.1049114 0.041710656 0.01513767
0000f0 b0 80 80 3e 88 40 f0 3d 4c d6 82 bc 57 61 96 bd
       0.2509818 0.11731058 -0.015971325 -0.07342785
000100 2a a2 66 3d 1a 57 af 3c a5 93 92 bd 94 05 07 3e
       0.056306995 0.021403838 -0.07157067 0.13185722
000110 f8 2f 0d bd 3a 25 e7 3d 23 ba 24 be 6f d1 c1 3b
       -0.034469575 0.11286397 -0.1608663 0.005914859
000120 06 a9 0e 3e e4 99 d2 bc 6d 7c 33 be 32 52 df 3d
       0.13931665 -0.025708146 -0.17527933 0.109043494
000130 0d d9 d0 3c 5d 3e 88 bd 51 9b 47 be 28 a2 bd bc
       0.025494123 -0.0665252 -0.19492842 -0.023148611
000140 b8 00 44 3e 35 dd 3a 3e ac 96 52 3e 07 f3 c8 3d
       0.19140899 0.18248446 0.2056529 0.09811979
000150 ad 63 3c 3d 7e 8d 77 bd 39 22 3e 3d 89 22 0a 3c
       0.045993496 -0.06043767 0.046419356 0.008431085
000160 9c 2a b2 bd 8b 19 83 3e 56 e4 90 bc 8b 18 f8 3d
       -0.08699533 0.25605425 -0.017687004 0.12114056
000170 58 0f b7 bd 44 63 f3 3d 4f 87 53 3e 58 55 a8 3d
       -0.089384735 0.11884168 0.20657085 0.08219403
000180 5a 53 99 3b b9 5f c0 3d 48 6e b4 3d 0f 45 21 3d
       0.0046791257 0.09393258 0.08810097 0.0393725
000190 e4 2f 6e 3e 74 71 89 3e a0 5f 94 bd 4c fd 07 be
       0.23260456 0.2684437 -0.072448015 -0.13280219
0001a0 a7 7e 54 3e 88 eb 42 3e a0 7b 29 3d 0c f9 3c bd
       0.20751439 0.1903516 0.041377664 -0.046135947
0001b0 0b 40 6a 3e 57 28 9e 3d 75 65 d1 3d d4 ec ab bc
       0.22875993 0.07722538 0.102244295 -0.020986952
0001c0 46 87 5e bd c3 6a 57 bd dd 3b 0c 3e 9d cc 6c 3d
       -0.054328226 -0.05259205 0.13694711 0.057812322
0001d0 99 d6 77 3d 43 ce 83 3d aa 81 d0 3d 84 1f 98 bc
       0.06050739 0.06435826 0.101809815 -0.018569715
0001e0 e9 9f 9b bd be 89 57 bd 64 25 03 bd d3 26 93 bd
       -0.0759886 -0.052621596 -0.03201808 -0.071851395
0001f0 43 2d 43 bd 2f db 3f 3e d0 b4 9c 3d 13 61 3c 3e
       -0.047650587 0.18735956 0.07651675 0.18396406
000200 57 a8 6b 3d 1c 5d 33 bc 80 c4 fa bc 74 f6 e9 3c
       0.05753359 -0.010947492 -0.030611277 0.0285599
000210 5a b1 40 bd 7a 0f 25 be d2 f0 22 3d d7 2c 38 3e
       -0.047044136 -0.16119185 0.039780445 0.17985855
000220 45 6d a1 3d 52 12 69 3e 0c 80 98 3d de b8 90 3d
       0.0788217 0.22760895 0.07446298 0.070665106
000230 a1 7a 4e 3d 30 d6 96 3d 38 f6 82 3e 2a 57 e3 3d
       0.050409917 0.07365072 0.25578475 0.111006096
000240 fc c8 00 3d 09 2b 89 3c 09 4b e9 bc 6f c5 a8 bd
       0.031441674 0.016744154 -0.028478162 -0.082407825
000250 3c 81 cb 3d a0 98 64 3e 06 34 b2 3c 2f 0d f4 bd
       0.09936759 0.22323847 0.021753322 -0.11916577
000260 2c e5 94 bd 7b 44 d9 3d 9d a9 8b 3d b8 0d 28 3e
       -0.072702736 0.10608765 0.068194605 0.16411483
000270 7a a3 41 3d dc 3a 21 3e f9 a4 22 3d 62 14 06 3d
       0.047275044 0.1574511 0.03970811 0.032734282
000280 6f 26 ed ba 14 88 37 3d 9a 04 8e 3d c5 1d 7c 3d
       -0.0018093119 0.04480751 0.069344714 0.061551828
000290 9b 4e 1c 3e b9 e9 9b 39 da fa fc 3b 32 fb 28 3e
       0.1526436 0.0002973804 0.0077203335 0.16502073
0002a0 93 d6 29 bd 86 c0 3b bc 82 14 48 be 64 01 2c 3e
       -0.0414644 -0.011459475 -0.19539073 0.16797405
0002b0 b5 7c 06 3e bc f2 b4 3d bb ae 11 3e ab 99 c7 3d
       0.1313351 0.088353604 0.1422681 0.09746107
0002c0 e8 24 2c bd 3f 67 d9 3d 99 6d a1 bd 8a 26 4d 3e
       -0.042027384 0.10615396 -0.07882232 0.20034233
0002d0 c2 0c 02 3e 5b df 23 3e d6 77 93 bd 52 b3 9a bd
       0.12700179 0.16003172 -0.07200591 -0.07553734
0002e0 10 8d 8f bd 2c fe 1f 3c 21 01 05 3e c8 72 0d 3e
       -0.070093274 0.009765189 0.12988712 0.13813317
0002f0 a1 4f 50 3e 29 5d 62 3d 34 93 3b bd 67 20 43 3e
       0.20342876 0.055264626 -0.04579468 0.1905533
000300 67 50 c5 3b 5b 09 48 3c 65 ca 17 3e 59 a4 1b 3c
       0.0060215476 0.012209262 0.14823301 0.009499633
000310 b7 2b 0e 3d 04 02 b3 3d 44 07 98 bb d7 67 17 3e
       0.03470966 0.08740619 -0.004639538 0.14785706
000320 03 7e 09 3e 07 67 11 3d cd b0 7d 3d 50 52 62 bc
       0.13426976 0.035498645 0.06193619 -0.01381357
000330 57 61 5f be 07 17 d4 3d 2b 5e 0b 3e 6f bb 45 3c
       -0.21814476 0.103559546 0.13610141 0.012068613
000340 b3 ac 05 be 08 8b 3f bd 2e bd 35 be 97 9e 85 3e
       -0.13054161 -0.04676345 -0.17747948 0.26097557
000350 5e 97 92 3d 80 c4 46 3d 01 a8 85 bd f8 74 99 3d
       0.07157777 0.04852724 -0.06526185 0.07493013
000360 23 dc 40 3e a5 9d 32 3e 72 62 f8 3c 95 c1 4c 3e
       0.18833975 0.17442949 0.03032038 0.1999572
000370 e8 c5 b9 bd 3f 9a 61 3e a9 55 2e 3e 35 37 4a 3d
       -0.09070951 0.22031496 0.17024864 0.049369056
000380 ca 13 81 3e d1 0d 8d 3d 96 dd a5 bd d0 43 48 3e
       0.2521041 0.06887401 -0.08098905 0.19557118
000390 61 b2 86 3e 4e c1 87 3d a9 6e b2 3d 98 0e 64 3c
       0.26307967 0.06628667 0.08712513 0.013919495
0003a0 8a 34 57 3e 5d 27 6a 3e 08 67 be 3d 6b ea ef bb
       0.21016136 0.22866578 0.092969954 -0.007321646
0003b0 1c 4b 0c 3e ba aa 00 3e b3 1b 95 3d 54 e1 69 3e
       0.13700527 0.12565127 0.07280674 0.22839862
0003c0 8a 2c 30 bd 07 0a 2c 3e ab e5 2f 3e d4 05 40 3e
       -0.043011226 0.168007 0.17177455 0.18752223
0003d0 ce 6e 38 be 10 81 1b be 64 af 8a bd 9b b2 65 3c
       -0.18011019 -0.15185952 -0.06771734 0.014019634
0003e0 26 2b 91 bd ee b5 16 bc a1 ac 09 3d da 4c 3d 3e
       -0.07088308 -0.009198649 0.033611897 0.18486348
0003f0 71 8d 45 3e 2a 08 72 3e 93 bd 75 3d ef 4e ef 3d
       0.19292237 0.23635927 0.059995245 0.11684977

conv2.bias f4 [4]
000000 35 28 95 bd 9c 65 1d be 10 40 50 3d 57 bf 2b 3e
       -0.072830595 -0.15370792 0.050842345 0.16772209

conv2.lin.weight f4 [4, 32]
000000 31 1d 92 3e f0 38 03 3e 67 ca 2b 3d dd 33 87 3e
       0.28537896 0.12814689 0.041941073 0.26406756
000010 63 6a 53 be f1 b6 6d 3c 96 ea 35 3e 82 67 c6 3e
       -0.20646052 0.014508949 0.17765269 0.38750845
000020 d0 9d c1 3e 87 36 3a bd 7e 47 e9 be e2 63 92 3e
       0.37815714 -0.045462158 -0.45562357 0.2859183
000030 d8 0c ae 3e a2 db 2a 3e b6 34 b5 3e 00 99 15 3d
       0.33994174 0.16685346 0.35391778 0.036522865
000040 8d 2e bf be 58 a6 39 bd 2a af 70 be 9c db 03 bf
       -0.37340203 -0.045324653 -0.2350432 -0.5150697
000050 f6 f8 28 be e1 1f 85 3d f4 ef cb be a2 20 42 bd
       -0.16501221 0.06500221 -0.39831507 -0.047394402
000060 7c 18 bc 3d 02 00 98 3c 1d 96 cd 3d e2 9c 91 be
       0.091843575 0.018554691 0.100383975 -0.28440005
000070 ed 83 50 be 71 32 e6 be b4 61 08 be 33 1b c5 3e
       -0.20362826 -0.4496036 -0.13318521 0.38497314
000080 3c 2b 03 be 75 1d 02 3e 17 ca e5 3e 01 ce af 3e
       -0.12809461 0.1270655 0.44880745 0.34336856
000090 8d 8d 07 3f 1b d8 ec 3e aa 6e 9c 3e f9 4f a4 bd
       0.52950364 0.46258625 0.3055318 -0.08023066
0000a0 51 f2 fc be 23 33 67 bd 99 a8 c6 3e 4c 37 1a be
       -0.49403623 -0.056445252 0.38800505 -0.15060157
0000b0 b0 f3 b9 3e 18 c4 f4 be 47 a8 e2 bd 05 54 d4 3e
       0.3631873 -0.47805858 -0.110672526 0.41470352
0000c0 6a e0 bf be d3 b0 a3 3d 56 0f 93 3e 93 e2 e7 be
       -0.37475902 0.07992711 0.28722638 -0.4529005
0000d0 7d ac a5 be 6d ec b0 be 1a 40 da 3e 77 93 61 be
       -0.3235816 -0.3455538 0.4262703 -0.2202891
0000e0 e2 e8 15 3e ff 31 e0 3e 90 1b 81 3e 0f 97 fd bd
       0.14639619 0.43788144 0.2521634 -0.12382328
0000f0 b3 2c b7 3e ff c1 94 be 7b b3 f7 3e cd 7a 94 be
       0.3577629 -0.29054257 0.4837912 -0.2899994
000100 7b 9b ab 3e fa f5 96 be 00 2c 8a 3e 50 a7 06 3f
       0.3351706 -0.2948454 0.26986694 0.5259905
000110 8b c3 84 be e3 0b 40 bd 74 08 bb be e3 ba 63 3e
       -0.25930437 -0.046886336 -0.36529887 0.2223926
000120 4a c0 9f be 38 82 da 3e ce 00 dc be 82 a0 89 be
       -0.31201392 0.42677474 -0.42969364 -0.2688027
000130 ad c7 5c be 27 1b fd 3e 32 2f 76 3e 3a 99 3c 3d
       -0.21560545 0.49434778 0.24041441 0.046044566
000140 10 5a 81 3e a6 1b 04 bf 7f b9 99 bd c3 07 dc 3e
       0.25264025 -0.5160469 -0.07506084 0.42974672
000150 07 e0 4c be 17 a0 a3 be eb eb a7 be 8b ed f9 3e
       -0.20007335 -0.31958076 -0.3279718 0.48814043
000160 88 c8 1b 3e 98 9b 81 bd 73 76 81 be 23 fc a0 3e
       0.15213215 -0.06328505 -0.25285682 0.31442365
000170 1e ca 27 be 27 c9 df 3e d7 9b c7 3e f4 09 f5 be
       -0.16385695 0.43708155 0.38986084 -0.47859156
000180 e8 6f 00 3f c3 f2 b7 be d7 f3 15 be 29 9d a2 bd
       0.50170755 -0.359274 -0.14643799 -0.07940132
000190 4c 2a b8 be 30 88 42 be 32 bc be be 6e 84 5a be
       -0.3596977 -0.18997264 -0.37252957 -0.2133958
0001a0 60 a9 86 bd 7e e7 75 be 69 90 8e 3e 22 31 65 be
       -0.065752745 -0.24014089 0.2784455 -0.22382024
0001b0 56 4b 8a bd 3b ad 20 3e d1 0e 8b be 09 8b 00 bf
       -0.067526504 0.15691082 -0.27159742 -0.5021215
0001c0 b2 99 a9 3e 7f 64 00 bf 09 8f 22 3e 98 2e d1 3e
       0.33125073 -0.50153345 0.15874876 0.4085586
0001d0 69 2a 09 3f 2a 75 bf be 12 e6 af 3e 3c 73 c5 be
       0.5358034 -0.37394077 0.34355217 -0.3856448
0001e0 83 7b b6 be e2 12 3b 3c 3a 9b a7 be c3 69 da be
       -0.35641107 0.011418076 -0.32735616 -0.42658815
0001f0 3b c1 13 3e 72 1b fe 3e 66 72 c9 3e ae d1 a0 3e
       0.1442918 0.49630314 0.39345092 0.31409973
