my_gtn/experiment_logs/model_exp_149.pt (torch, 89497 bytes, 4 tensors)

conv1.bias f4 [64]
0.06652239 0.09562587 0.029111534 0.06998838 0.054481383 0.0976631 0.09640458 0.09173325
0.053971224 0.06353078 0.097007744 0.09069327 0.069687545 0.06822712 0.0082374895 0.016934335
0.08796322 0.06474555 -0.01687703 0.06731139 0.094712526 0.04767631 0.024603305 -0.05228917
0.0504048 0.08955546 -0.026906665 0.007265942 0.025950342 0.09676874 0.06099899 0.035668973
0.04461602 0.09104451 0.086490914 0.096572585 0.061906785 0.054757394 0.05627368 0.08967853
0.0077204397 -0.006475911 0.03544612 0.066185735 0.09581881 0.0061347135 -0.008077783 0.0817543
0.093263894 0.015113044 0.09213797 0.09642711 0.09608039 0.096083865 0.027699357 0.09428626
0.09358668 0.021026036 0.09149917 0.0022856153 0.09380569 0.018813051 -0.0006964682 0.06310788
00000000: e43c 883d 7fd7 c33d 507b ee3c 1156 8f3d
00000010: df27 5f3d 9703 c83d c46f c53d a4de bb3d
00000020: ee10 5d3d 6d1c 823d ffab c63d 65bd b93d
00000030: 58b8 8e3d a9ba 8b3d 89f6 063c e0b9 8a3c
00000040: 1026 b43d 5199 843d b241 8abc 8eda 893d
00000050: a4f8 c13d 3c48 433d df8c c93c 2b2d 56bd
00000060: 4375 4e3d da68 b73d 5e6b dcbc 2417 ee3b
00000070: d095 d43c b02e c63d 14da 793d a119 123d
00000080: 4abf 363d 8b75 ba3d 2622 b13d d9c7 c53d
00000090: f891 7d3d 4a49 603d 3b7f 663d 61a9 b73d
000000a0: befb fc3b e133 d4bb f32f 113d 638c 873d
000000b0: a73c c43d b505 c93b ad58 04bc cc6e a73d
000000c0: 2401 bf3d b39c 773c d5b2 bc3d 947b c53d
000000d0: ccc5 c43d 9ec7 c43d c3e9 e23c 2819 c13d
000000e0: 60aa bf3d cb3e ac3c eb63 bb3d 43ca 153b
000000f0: 331d c03d d41d 9a3c 3193 36ba b43e 813d

conv1.lin.weight f4 [64, 334]
0.08298177 0.09854964 0.030428478 0.18782753 -0.005737061 0.08242713 0.09588974 0.012363789
-0.033680152 0.057044365 -0.07375984 0.08862815 0.21398678 0.029552313 -0.104993515 0.007336669
0.0069833514 -0.12030597 -0.0178865 -0.061129205 -0.022898981 0.0015787514 0.03799359 -0.017980527
-0.15784769 0.14149877 0.06402773 0.14335223 0.06796412 0.09514386 -0.09972417 0.11451749
0.13272133 0.024950815 0.036896378 0.012844177 0.0010315883 0.094924584 0.15358984 0.0071885823
0.097454935 -0.017175991 0.1473678 0.10373197 -0.08995096 -0.119071975 -0.028791329 0.03490236
-0.018456642 0.17442352 -0.0060860817 0.009715607 0.20737405 -0.09488128 0.03070964 -0.058946617
0.105426334 0.02407824 -0.019781305 -0.13939212 0.025977332 -0.02554233 -0.020572398 -0.16557318
-0.018810274 -0.120442145 -0.12713796 -0.117547326 -0.10938537 -0.029308518 -0.05156177 -0.025149122
-0.03978711 0.110591926 -0.059807383 0.037238646 -0.0327767 -0.0983682 0.025525922 -0.053784315
-0.06101566 0.0023572508 0.042909347 0.09490536 -0.016852539 -0.022973672 -0.057402335 0.06986029
-0.01262146 -0.021704905 -0.034139637 -0.046033278 -0.14416067 0.006159675 0.14834686 0.059070807
-0.013274419 0.095607825 0.10085016 -0.046577938 0.014209347 0.20882036 0.04791634 0.0069679813
0.05950036 0.09241282 0.19897492 0.06593452 0.11521855 0.0056368695 0.095021114 -0.09169759
-0.03888677 -0.16971211 -0.0447076 -0.004316383 0.010801388 0.047120616 0.000202085 0.1381326
0.06483078 0.1704931 0.022974731 0.19197513 -0.030154202 0.2063622 -0.013789511 0.03883958
0.011829968 0.08317087 0.04842376 0.04930211 0.0077208737 0.07518251 -0.020535834 0.17714578
0.09097687 -0.059890483 -0.060468644 0.10018145 0.16695291 0.018369643 0.14778718 -0.008850511
-0.12798533 -0.11518299 -0.060059465 -0.0442105 0.08894233 0.06511923 -0.047748927 0.029795038
0.109317034 0.044036306 0.028907327 0.004680771 0.018475283 -0.16103882 -0.07050734 0.1283233
-0.07391838 -0.04805762 0.030376118 0.07226969 0.17004168 0.11380292 0.12856188 -0.070467606
-0.094851285 0.039965417 0.021992713 -0.0025373362 0.1492143 -0.024333604 0.08645785 0.04131611
-0.050850946 -0.052546076 -0.0023162812 -0.11518001 -0.014347601 0.042722113 0.07548893 -0.016584355
0.02711314 0.1302874 0.117459595 -0.025332754 0.11067262 -0.11806362 0.050925303 0.053779908
0.025405703 0.059301373 0.0054519624 0.11913478 -0.055833053 -0.020743836 0.028358402 0.015374854
-0.04378498 0.06534908 -0.16216311 -0.02781559 -0.0044838055 0.04801599 0.05436355 0.07949355
0.06284642 -0.14581957 -0.038892146 0.1911358 0.007928637 0.021791417 -0.06952751 0.058268722
-0.043897625 -0.000967105 -0.11182923 0.13953477 0.08380311 0.095210426 0.13699006 -0.17746384
0.19646427 -0.024051132 0.05190053 -0.038462717 -0.0033772995 0.09125478 -0.08064049 -0.0025824374
0.09846965 0.077310085 -0.02548981 -0.06467897 0.10784976 0.0458997 0.050657444 -0.10926943
0.14539082 -0.009096512 0.111653455 0.16702326 0.1127356 -0.13288926 0.029015277 -0.058214948
-0.11944239 0.1045319 -0.08600167 -0.120117806 -0.025605878 0.19605367 0.1696381 0.10250147
00000000: 59f2 a93d 65d4 c93d 2545 f93c dc55 403e
00000010: f5fd bbbb 8ecf a83d d761 c43d 7d91 4a3c
00000020: 33f4 09bd 5aa7 693d 660f 97bd ad82 b53d
00000030: 5a1f 5b3e b117 f23c d706 d7bd 7168 f03b
00000040: 99d4 e43b fa62 f6bd b686 92bc 9e62 7abd
00000050: a596 bbbc 1bee ce3a 2b9f 1b3d e64b 93bc
00000060: d3a2 21be 0ee5 103e f820 833d edca 123e
00000070: c630 8b3d c9da c23d 303c ccbd 2588 ea3d
00000080: 1ae8 073e a765 cc3c a820 173d 6270 523c
00000090: 5c36 873a d267 c23d a846 1d3e 338e eb3b
000000a0: 7496 c73d aab4 8cbc 96e7 163e 6d71 d43d
000000b0: 3538 b8bd 02dc f3bd cbdb ebbc c7f5 0e3d
000000c0: 6232 97bc 149c 323e c16d c7bb 362e 1f3c
000000d0: dd59 543e 1e51 c2bd c892 fb3c 0272 71bd
000000e0: c3e9 d73d bb3f c53c 670c a2bc cfbc 0ebe
000000f0: 6ace d43c 263e d1bc 7287 a8bc 048c 29be
00000100: 0118 9abc 5faa f6bd 7430 02be a7bc f0bd
00000110: 7005 e0bd 6b18 f0bc 6f32 53bd 8805 cebc
00000120: cff7 22bd 057e e23d 96f8 74bd 8d87 183d
00000130: dc40 06bd 4475 c9bd bd1b d13c f14c 5cbd
00000140: 8feb 79bd 1b7c 1a3b b6c1 2f3d be5d c23d
00000150: 560e 8abc 4833 bcbc b61e 6bbd e912 8f3d
00000160: 3dca 4ebc 7cce b1bc 01d6 0bbd 648d 3cbd
00000170: db9e 13be 19d7 c93b 3de8 173e 3bf4 713d
00000180: f37c 59bc 09ce c33d 878a ce3d 82c8 3ebd
00000190: 52ce 683c 01d5 553e ed43 443d aa53 e43b
000001a0: a6b6 733d ef42 bd3d 15c0 4b3e ad08 873d
000001b0: b4f7 eb3d 7db5 b83b 6e9a c23d f2cb bbbd
000001c0: bc47 1fbd 03c9 2dbe 511f 37bd 7270 8dbb
000001d0: 4ef8 303c 8c01 413d c7e6 5339 a272 0d3e
000001e0: 00c6 843d be95 2e3e 8135 bc3c 2195 443e
000001f0: f205 f7bc 9d50 533e 67ed 61bc 4016 1f3d
00000200: 7bd2 413c 7d55 aa3d fe57 463d 02f1 493d
00000210: 62ff fc3b 4af9 993d c43a a8bc b465 353e
00000220: 1552 ba3d b94f 75bd f8ad 77bd ef2b cd3d
00000230: b4f5 2a3e ef7b 963c 8655 173e bc01 11bc
00000240: 960e 03be 0fe5 ebbd ea00 76bd 1216 35bd
00000250: 6527 b63d 3b5d 853d 6194 43bd b914 f43c
00000260: 9ce1 df3d 6a5f 343d 0fcf ec3c 2761 993b
00000270: 7a59 973c 5ce7 24be 2766 90bd 2f67 033e
00000280: 8562 97bd 11d8 44bd 56d7 f83c 2202 943d
00000290: 681f 2e3e 8111 e93d baa5 033e 5251 90bd
000002a0: 6441 c2bd c7b2 233d 102a b43c 7049 26bb
000002b0: a2cb 183e 4457 c7bc d010 b13d 153b 293d
000002c0: 1549 50bd 8e3a 57bd c0cc 17bb 7fe3 ebbd
000002d0: 3312 6bbc 62fd 2e3d f199 9a3d eadb 87bc
000002e0: 601c de3c 0f6a 053e a88e f03d a386 cfbc
000002f0: 54a8 e23d 57cb f1bd 0d97 503d 5248 5c3d
00000300: 9f1f d03c ffe5 723d 60a6 b23b effc f33d
00000310: 33b1 64bd faee a9bc e14f e83c d0e6 7b3c
00000320: e157 33bd bdd5 853d 160e 26be 85dd e3bc
00000330: e3ec 92bb 6aac 443d 50ac 5e3d 84cd a23d
00000340: a0b5 803d ba51 15be 5f4d 1fbd 1ab9 433e
00000350: 1de7 013c ea83 b23c 7064 8ebd 2fab 6e3d
00000360: ffcd 33bd 5185 7dba b906 e5bd 34e2 0e3e
00000370: f7a0 ab3d affd c23d 1f47 0c3e 15b9 35be
00000380: ee2d 493e e106 c5bc a695 543d 158b 1dbd
00000390: af55 5dbb c9e3 ba3d d726 a5bd 1c3e 29bb
000003a0: 75aa c93d c054 9e3d 02d0 d0bc 6876 84bd
000003b0: 56e0 dc3d 5301 3c3d 2e7e 4f3d a7c8 dfbd
000003c0: 55e1 143e 8909 15bc 91aa e43d 2508 2b3e
000003d0: ece1 e63d 1f14 08be 72b1 ed3c cc72 6ebd
000003e0: 369e f4bd d214 d63d a521 b0bd 5300 f6bd
000003f0: 6bc3 d1bc 4bc2 483e 9cb5 2d3e 4aec d13d

conv2.bias f4 [4]
-0.09311238 -0.09342736 0.09452567 0.09649951
00000000: b4b1 bebd d856 bfbd ad96 c13d 89a1 c53d

conv2.lin.weight f4 [4, 64]
-0.34157035 0.1461718 -0.1432425 -0.04901394 -0.10239256 0.08391686 -0.38467315 0.20598452
0.007001566 0.17709841 0.10817481 -0.3327071 -0.17322265 -0.2929901 -0.07100903 0.1576725
0.19296782 -0.09972489 -0.21751691 0.23124263 0.17470588 -0.27084628 0.026332611 0.25888124
0.20104279 -0.023064032 0.277945 0.12880653 0.025417203 0.006376142 0.28153422 0.29506826
-0.28815687 0.24766624 -0.3240808 0.024880243 0.25218138 -0.2513005 -0.116959386 0.34800208
0.15202576 0.2049297 -0.11406492 0.2969252 -0.260058 -0.19291155 0.21281907 0.18374977
-0.23411638 0.20094466 0.092954256 -0.16924138 0.35531887 -0.2628399 0.22248971 0.1477595
-0.34701347 0.1058938 -0.195967 -0.2559289 -0.13084696 0.008814148 0.32840815 -0.25790492
-0.19767563 -0.2825333 0.34507447 0.07430868 0.33765182 -0.38018903 -0.23605666 -0.12404574
0.25197697 -0.12127453 -0.32005042 0.11172217 -0.24624547 0.26718703 0.24685608 -0.010643065
0.3586943 0.26820505 0.14923188 -0.012736024 -0.20042297 0.18864672 -0.14014545 0.18840879
-0.26240477 -0.044961236 0.20098503 0.17267446 0.0781094 -0.28099492 0.37827894 0.18224834
0.17337784 -0.309244 0.3394291 0.104433715 0.18960665 0.37393165 0.2869853 0.012653229
-0.060772214 0.09901325 -0.013708317 -0.27719596 -0.2769505 0.17733103 0.12443307 -0.16987243
-0.0052348976 0.14004484 0.10886645 -0.21519622 0.037902433 -0.09066185 -0.103915244 -0.19738092
-0.022325108 0.02518863 -0.35880232 0.26199615 -0.018734671 0.2681879 -0.020295221 0.26161647
0.02515295 0.08145672 -0.37833604 0.24408868 0.15397605 0.05006284 0.34334007 -0.20783816
0.31710657 -0.07775705 0.18422326 -0.34530306 0.28721735 0.17142579 -0.27335203 -0.25488204
-0.07260245 0.34105384 -0.22662044 -0.12554768 0.21908307 -0.38233262 -0.23923685 -0.00075951975
-0.3434131 -0.21793813 -0.1764229 -0.017152462 -0.25305185 -0.24528602 -0.3776405 -0.30572534
-0.32663476 -0.24366139 0.04782227 0.3378485 -0.037030272 -0.052725524 -0.38202402 -0.0014003488
-0.03370779 0.014401926 0.34468174 0.23555668 0.08515122 -0.036742788 -0.117609434 -0.33159906
0.3471276 -0.21311767 0.098698124 0.3692397 0.24244592 0.39407623 -0.14209037 0.10475197
0.20896819 -0.25690296 -0.3013313 0.13560934 0.3067496 0.2804817 0.040970836 0.2562458
0.2715312 -0.33717182 -0.3807799 0.35454535 -0.20953742 0.07106615 -0.038742755 0.17382301
-0.06710295 0.34881833 0.042022817 0.1584647 -0.1807362 0.1748142 -0.0023334848 0.25067663
-0.3294025 -0.23096755 0.16162288 -0.36622676 -0.2432843 0.151755 -0.05494301 -0.114835285
0.078121066 0.32102045 -0.023058422 -0.12096215 -0.35881934 -0.028149407 0.18533488 -0.2820546
0.3098828 0.11444924 0.29060787 -0.07901783 -0.3749808 0.1477268 -0.3301749 -0.045427833
-0.12450203 -0.32515466 0.010454761 -0.15709446 0.23078594 -0.19464493 -0.18536973 -0.35568702
-0.2654057 0.36171138 0.38954028 0.24095489 -0.31393018 0.05216269 -0.27130717 0.1682964
0.31128943 0.13362592 0.16402803 -0.11854958 -0.2330242 -0.1811476 -0.1472783 0.072049126
00000000: 4fe2 aebe 0fae 153e 29ae 12be d7c2 48bd
00000010: 31b3 d1bd 9adc ab3d e1f3 c4be 9bed 523e
00000020: 646d e53b 4959 353e c18a dd3d 9658 aabe
00000030: 4761 31be cc02 96be 2f6d 91bd e674 213e
00000040: 5b99 453e 903c ccbd c1bc 5ebe deca 6c3e
00000050: 19e6 323e 5dac 8abe 7db7 d73c 158c 843e
00000060: 29de 4d3e c8f0 bcbc cf4e 8e3e dce5 033e
00000070: bd37 d03c f5ee d03b 4125 903e 3013 973e
00000080: 4c89 93be 389c 7d3e ebed a5be a7d1 cb3c
00000090: eb1d 813e 76aa 80be 6788 efbd 542d b23e
000000a0: a4ac 1b3e 17d9 513e de9a e9bd 9406 983e
000000b0: 5226 85be 9b8a 45be 3eed 593e e628 3c3e
000000c0: 34bc 6fbe 70c4 4d3e cd5e be3d 9d4d 2dbe
000000d0: 5bec b53e f492 86be 58d4 633e 444e 173e
000000e0: c0ab b1be d9de d83d 93ab 48be 1d09 83be
000000f0: bffc 05be 3769 103c 1d25 a83e 1d0c 84be
00000100: 7b6b 4abe 34a8 90be 9aad b03e 262f 983d
00000110: b3e0 ac3e 23a8 c2be d6b8 71be b10b febd
00000120: 2003 813e c85e f8bd a6dd a3be 98ce e43d
00000130: c627 7cbe bdcc 883e d7c7 7c3e 4060 2ebc
00000140: c7a6 b73e 2c52 893e 3ed0 183e c2aa 50bc
00000150: ae3b 4dbe 9b2c 413e 4a82 0fbe 3cee 403e
00000160: eb59 86be 4629 38bd 05cf 4d3e 93d1 303e
00000170: d2f7 9f3d 91de 8fbe c7ad c13e 4f9f 3a3e
00000180: f689 313e 3b55 9ebe a7c9 ad3e 58e1 d53d
00000190: 3f28 423e f873 bf3e bdef 923e 7d4f 4f3c
000001a0: 49ec 78bd 75c7 ca3d d998 60bc a1ec 8dbe
000001b0: 75cc 8dbe 4496 353e c4d6 fe3d 0af3 2dbe
000001c0: 8189 abbb ea67 0f3e 60f5 de3d 665c 5cbe
000001d0: 953f 1b3d ecac b9bd 84d1 d4bd 391e 4abe
000001e0: 25e3 b6bc 6358 ce3c f0b4 b7be 5c24 863e
000001f0: 7479 99bc ed4f 893e 2a42 a6bc 98f2 853e
00000200: 8f0d ce3c c8d2 a63d 43b5 c1be 62f2 793e
00000210: e6ab 1d3e b10e 4d3d 45ca af3e 87d3 54be
00000220: cb5b a23e 173f 9fbd 06a5 3c3e 90cb b0be
00000230: 270e 933e 3e8a 2f3e ccf4 8bbe e67f 82be
00000240: 98b0 94bd 9c9e ae3e 300f 68be 928f 00be
00000250: 5057 603e 1ac1 c3be 81fa 74be 821a 47ba
00000260: d8d3 afbe 2c2b 5fbe 34a8 34be 5283 8cbc
00000270: 0390 81be 422c 7bbe 185a c1be 0888 9cbe
00000280: ac3c a7be 5f82 79be 49e1 433d 7bfa ac3e
00000290: 0ead 17bd b8f6 57bd a798 c3be e98b b7ba
000002a0: 2e11 0abd 0ef6 6b3c 207a b03e c535 713e
000002b0: c363 ae3d 9b7f 16bd 37dd f0bd 5ac7 a9be
000002c0: b5ba b13e 853b 5abe 3e22 ca3d fc0c bd3e
000002d0: be43 783e 5cc4 c93e 2380 11be 3388 d63d
000002e0: c2fb 553e c988 83be 1948 9abe 2ddd 0a3e
000002f0: 490e 9d3e 4c9b 8f3e 09d1 273d a632 833e
00000300: 2306 8b3e c9a1 acbe 95f5 c2be f886 b53e
00000310: fa90 56be 218b 913d b9b0 1ebd a9fe 313e
00000320: 456d 89bd 5198 b23e 1e20 2c3d 9244 223e
00000330: e912 39be 7e02 333e 61ed 18bb b058 803e
00000340: 72a7 a8be c282 6cbe 7880 253e 1382 bbbe
00000350: 851f 79be aa65 1b3e ec0b 61bd c32e ebbd
00000360: f0fd 9f3d cb5c a43e 04e5 bcbc 01bb f7bd
00000370: 2bb7 b7be 9699 e6bc 6dc8 3d3e 7669 90be
00000380: f5a8 9e3e 5d64 ea3d 8eca 943e 1ad4 a1bd
00000390: 7cfd bfbe b245 173e af0c a9be 8912 3abd
000003a0: ecfa febd ac7a a6be 724a 2b3c 5fdd 20be
000003b0: 2653 6c3e 0051 47be 90d1 3dbe 9c1c b6be
000003c0: 42e3 87be 3c32 b93e d371 c73e e1bc 763e
000003d0: 75bb a0be 8ba8 553d c6e8 8abe e455 2c3e
000003e0: 5461 9f3e 3cd5 083e f7f6 273e 1fca f2bd
000003f0: e59d 6ebe c27e 39be 1fd0 16be 7e8e 933d
