my_gtn/experiment_logs/model_exp_180.pt (torch, 176281 bytes, 4 tensors)

conv1.bias f4 [128]
000000 bb d8 9e 3d 9e 3e 82 bc 0e 84 63 3d d5 f4 75 3d
       0.07756182 -0.015898999 0.05554586 0.060047943
000010 c9 8b 8d 3d da 10 cd 3d ff 30 7c 3d 52 dd 89 3d
       0.069114275 0.1001298 0.061570164 0.067316666
000020 7d d6 91 3d 79 88 cb 3d 43 81 c1 3d 3d 47 ce 3d
       0.071209885 0.099381395 0.09448483 0.100721814
000030 e1 e9 53 3d ee 75 d2 3d a9 1b b4 3d 28 3e a2 3c
       0.051736716 0.102763996 0.08794338 0.019805029
000040 4f 27 fa 3c 2c b9 29 3d 3c 89 8c 3d 38 f5 dc 3d
       0.030536322 0.04143636 0.06862113 0.10788959
000050 1d 04 3b 3d 54 86 4c bd 79 6c 7d 3d d3 98 18 bd
       0.04565822 -0.049932793 0.061871026 -0.03725512
000060 85 f7 69 3c 3f bd 83 3d be 47 1e 3d 8b 38 53 3c
       0.014280205 0.0643258 0.038642637 0.012891899
000070 c3 cf be 3d fd c2 8c 3c 3b 2e cf 3d 2c f7 85 3d
       0.09316971 0.017182821 0.1011624 0.06541285
000080 56 c9 3a 3d 74 eb 87 3d e0 95 c5 3d 6b a3 bf 3d
       0.045602165 0.06636706 0.09647727 0.093573414
000090 15 09 ca 3d 21 96 8d 3d 53 ba 41 3c b2 53 c1 3d
       0.098650135 0.069134004 0.011824208 0.09439792
0000a0 05 a3 4e bd 0e 54 09 3d 08 9f c9 3d 18 de 96 3d
       -0.050448436 0.033527426 0.09844786 0.0736658
0000b0 71 d6 8c 3c 43 eb 3f 3d 4e 80 d1 3c 58 0b c9 3d
       0.017192097 0.046855222 0.025573876 0.09816617
0000c0 a9 40 45 3d ae f7 d7 3c 49 80 52 3d d7 f3 4a 3d
       0.048157368 0.02636322 0.051391874 0.04954895
0000d0 5a 49 53 3d 26 6f 9e bc b4 80 e2 3d e6 c8 83 3d
       0.051583625 -0.01934011 0.110597044 0.06434803
0000e0 81 4b c3 3d 5f 2c 93 3d ef a7 7a 3d ad 5f 80 3d
       0.095358856 0.071861975 0.06119531 0.06268249
0000f0 b3 36 6f 3d 29 33 4d 3d ed da 4a 3d 97 f1 1d 3c
       0.058401775 0.05009762 0.04952519 0.009640119
000100 3f 5f 29 3d c5 c5 5f 3d 92 31 de 3d fa 9f 8b 3d
       0.0413506 0.054631967 0.108492985 0.068176225
000110 06 d3 92 3d 1d 7f c4 3d d2 54 8e 3d 61 4b 82 38
       0.07169156 0.095945574 0.06949772 6.2129235e-05
000120 b2 f7 c7 3d 0a 9c dd 3d 3a 4c f1 ba a5 7e 6f 3d
       0.09764041 0.10820778 -0.0018409558 0.058470387
000130 43 23 9f 3d fc 7e 8c 3d cd 8a 7f 3d ca 36 cf 3d
       0.077703975 0.06860158 0.06238823 0.10117872
000140 d6 e4 5d 3d 50 aa da 3d 99 95 9b 3d 18 8c d0 3d
       0.054173313 0.10677016 0.07596893 0.10182971
000150 79 80 96 3d a7 14 c4 3d e9 b1 d4 3d 54 8f 9b 3d
       0.07348723 0.095742516 0.10385496 0.07595697
000160 29 2e d1 3d f5 92 43 3c 92 3c c5 3d 1d c6 cc 3d
       0.102138825 0.011936893 0.096306935 0.099987246
000170 d2 f4 f4 3b 1b 5d a6 3d 39 e8 d4 3d 77 bc c4 3d
       0.007475474 0.08123227 0.103958555 0.09606259
000180 f6 0c c4 3d 36 8c ca 3d e7 8a c5 3b 73 8f ca 3b
       0.095727846 0.09890024 0.0060285213 0.0061816513
000190 0f 2a d4 3d e9 f4 1a 3d c9 e8 d7 3d a7 54 d0 3c
       0.103595845 0.03783122 0.10542447 0.02543099
0001a0 3a d8 9f 3d 95 f4 62 3d b7 71 72 3d e5 78 df 3d
       0.07804914 0.055409033 0.05919048 0.10911731
0001b0 f6 38 84 3d 1d 1a e2 3d 67 29 cb 3d af d2 c5 3d
       0.06456177 0.11040137 0.09920006 0.09659325
0001c0 d4 d9 92 3d 29 47 c6 3d ca e1 c2 3d f6 d5 8b 3d
       0.07170454 0.096815415 0.09515722 0.06827919
0001d0 64 b1 ce 3d 04 81 c6 3d 8e 8c 2f 3d 57 99 92 3d
       0.10092428 0.096925765 0.042858653 0.071581535
0001e0 a1 1a cd 3d 38 e0 6c 3d 7b de 7e 3d 2d e2 8a 3d
       0.10014845 0.05783102 0.062223893 0.06781421
0001f0 5b e5 98 3d 4e 8f c2 3d 8c 6a 0c 3d 0a 13 94 3d
       0.07465621 0.094999894 0.0342813 0.07230194

conv1.lin.weight f4 [128, 334]
000000 f3 ab 17 bd 96 bb 93 bc 73 74 81 3c e0 41 11 3e
       -0.037029218 -0.018033784 0.015802598 0.14185286
000010 df 8e 0a 3d 09 67 86 3d 3e 68 a3 3d 77 9f f7 3d
       0.03382766 0.06562621 0.07978867 0.120909624
000020 e5 64 d1 3b b5 13 22 3b 2a 00 84 3c c0 bf 01 bd
       0.0063902014 0.0024730985 0.01611336 -0.031677008
000030 99 57 02 bd 59 c0 f5 3c a8 4d 5c bb d3 3e 08 3d
       -0.03182182 0.029998945 -0.0033615623 0.03326304
000040 1a 97 da 3c 74 fd a9 3c b9 21 67 3d 2d 43 0a be
       0.026683379 0.020750739 0.056428645 -0.13502188
000050 b8 f1 1d 3d ef 93 2c bd 79 3f 9c bd 9a e1 9a 3d
       0.0385606 -0.042133268 -0.07629294 0.07562561
000060 75 93 0a bd 6c 55 b8 3d a1 69 07 3d f0 79 50 3a
       -0.033832032 0.09000668 0.03305972 0.00079527404
000070 ee 79 49 3d d7 63 33 3e 14 8f 36 bc 67 5b f6 3b
       0.049188547 0.17518555 -0.011142511 0.00751822
000080 49 71 9f bc 88 b8 f1 3d 37 60 3c 3c ce fb 21 3c
       -0.019463198 0.11802775 0.011497549 0.009886695
000090 02 1a 3f bd dd 79 13 3e 65 c2 ef bd 86 17 9f bc
       -0.046655662 0.14401956 -0.11707 -0.019420397
0000a0 7c 89 9e bc 37 63 8e bd 37 50 9e 3c d7 80 e4 bc
       -0.019352667 -0.069525175 0.019325359 -0.027893467
0000b0 95 1f 82 bd e0 78 db 3d 97 d9 96 bd 65 27 6b 3d
       -0.0635368 0.107164145 -0.07365721 0.057410616
0000c0 b9 d1 5c 3d de 19 1b 3e 7d dc b4 bb a1 6e 1c bd
       0.053910945 0.15146586 -0.0055194483 -0.03819144
0000d0 72 ae 0e bd 7c 24 ba 3d 98 ea dc 3c d8 7a c7 3c
       -0.034834333 0.0908899 0.026967332 0.024350569
0000e0 76 4a 0e bd 73 39 41 bd 72 b2 c4 3c 8c 99 ef 3d
       -0.03473898 -0.04717393 0.02401087 0.116992086
0000f0 06 3b 84 3d b9 5e 08 3d 2a 87 bf 3b d8 ec c8 bd
       0.0645657 0.03329346 0.0058449702 -0.09810799
000100 d5 4a e7 bd 5a 58 b9 3a 9e a2 cd ba 51 31 46 bd
       -0.1129357 0.0014140711 -0.0015688722 -0.048386876
000110 66 d5 04 3e 9d e8 95 bb d1 e0 53 3d b3 25 82 3d
       0.1297203 -0.004574849 0.051728074 0.06354847
000120 0f 46 6a 3d 7e 31 b4 3d 51 22 87 bd cc 98 89 3d
       0.05719572 0.087985024 -0.06598342 0.06718597
000130 dc 91 29 3c 9f 60 ae bd 6e e1 db bd aa 3a d9 bd
       0.010349717 -0.08514523 -0.10736357 -0.106068924
000140 65 7b 50 3d d8 89 91 3c ca 50 c3 bd 51 3b 48 3e
       0.05089893 0.017765924 -0.09536894 0.19553877
000150 b1 52 61 3d b1 7c ac 3d 55 ab c6 3c d9 c0 02 3d
       0.0550105 0.084222205 0.02425162 0.031922195
000160 be 7f 89 bd 72 e0 ba bd 1c 1a 74 3d 20 08 b7 3d
       -0.06713818 -0.09124841 0.059595212 0.089370966
000170 77 86 4f bd 5c bd 9a bb 62 12 16 bd 66 29 72 bd
       -0.050665345 -0.0047222804 -0.036638625 -0.059121512
000180 9b 24 82 bd b8 49 6b 3d 0b fb 8d 3d 05 4f 59 3d
       -0.06354638 0.05744335 0.06932648 0.053053875
000190 5d 35 02 3c 1e 37 ec bc b2 aa cf bd 1c df 94 bd
       0.007947293 -0.028834876 -0.101399794 -0.07269117
0001a0 d1 50 35 3e ef 52 ae bd 00 55 0b be b8 8e 5d 3c
       0.1770661 -0.08511912 -0.13606644 0.013522796
0001b0 42 1e ad 3d 33 40 39 bd dd 77 b9 bc 2e 6a 9a bd
       0.08453037 -0.04522724 -0.022640163 -0.075397834
0001c0 bf b0 b8 3b a1 38 20 bd 7d 85 3f 3e 66 cc 17 3d
       0.005636304 -0.039116506 0.18703265 0.037060164
0001d0 da 5c c0 3c 3b b0 a2 3d 07 89 d8 3c a9 7b ca 3d
       0.023481775 0.079437695 0.026432527 0.098868676
0001e0 6f 06 50 bd ab b3 c4 bd 4e eb bb bd 4c 33 c4 3c
       -0.050787386 -0.096045814 -0.0917574 0.023950242
0001f0 67 4f 45 bc c8 57 d9 bb 7e 3e 05 3d 35 90 5a 3e
       -0.012042857 -0.006632779 0.0325303 0.21344073
000200 6d 74 4f 3c 74 c6 11 bd 33 17 6f 3b f3 94 33 bd
       0.012662035 -0.03558965 0.0036482334 -0.04384322
000210 f8 51 10 3d 2c c8 8c 3d c3 16 1a 3e 44 ac 41 bd
       0.03523442 0.06874117 0.15047745 -0.047283426
000220 c2 71 2a bc 35 c3 14 bd f3 ff 4f 3e ca 2e 3b 3d
       -0.010403099 -0.036318976 0.2031248 0.04569892
000230 17 10 f7 3b 2a 4c 2e bd 24 33 80 3c 3e 44 94 3d
       0.00753976 -0.042553104 0.015649386 0.07239579
000240 9b 99 d6 bc 49 e6 71 bd 3f 0c a9 bd 64 c8 98 3d
       -0.026196292 -0.059057508 -0.08254289 0.074600965
000250 d0 2a 96 3d 55 d2 0e 3e 39 3e 88 3b 5b c7 1a 3d
       0.073323846 0.13947423 0.004157808 0.037787776
000260 4e ea 0c 3e 41 a8 02 3e b6 1d 38 3e e8 88 ab 3d
       0.13761255 0.12759496 0.17980084 0.08375722
000270 f9 01 80 3d 6e 7c 0f 3e 47 79 7e 3c 36 2c e5 3d
       0.06250376 0.1401231 0.015531844 0.11190073
000280 50 64 fa 3c 15 02 60 3d 42 fc 02 bd 80 fd ec 3b
       0.03056541 0.054689486 -0.031978853 0.007232368
000290 84 14 8e 3d 06 f8 51 bc be 2e 77 3c 74 8c a5 3d
       0.06937507 -0.012815481 0.015086828 0.0808343
0002a0 72 28 98 bd 4d d3 6d bd 9e b2 8a bc 48 24 aa 3d
       -0.07429589 -0.05806284 -0.016930874 0.08307701
0002b0 3c 12 b0 3c 47 92 b4 3c 49 ae 36 3c d2 58 e0 bc
       0.02149307 0.022042407 0.011149951 -0.027386103
0002c0 93 69 15 3e ce 6a 83 3c 71 a2 17 bd 87 95 c1 3b
       0.14591055 0.01604214 -0.03702015 0.0059077176
0002d0 31 7e 38 3d ed b0 b1 3d 01 15 73 bb 3f ff 86 bd
       0.04504222 0.08676324 -0.0037091377 -0.06591653
0002e0 92 5d 65 3d 28 11 11 be f0 2d dd 3c 86 96 1c bd
       0.05599744 -0.14166701 0.026999444 -0.038229488
0002f0 ec ac 9d 3d 85 5b 95 bd 2c f3 27 3e 8c e8 4f 3d
       0.07698998 -0.072928466 0.16401356 0.050758883
000300 9e d3 1a 39 dd 4e 0e 3d d3 1f a4 bd 3b 4c eb bc
       0.00014765418 0.03474318 -0.080138825 -0.028722873
000310 a3 75 ce 3b ba f5 e1 bc c3 db 56 bb e2 d0 1a 3d
       0.0063006445 -0.027582992 -0.0032784797 0.037796862
000320 69 80 20 3c 7a 9d 34 3d 7c 1c ac 3c 4f be d5 bc
       0.00979624 0.044095494 0.021009676 -0.026091723
000330 38 4c dd bd ee 8f aa 3a 4b 58 28 bc 87 5c a9 3d
       -0.10805553 0.0013012865 -0.010274957 0.08269601
000340 2d 5d 11 3d 74 02 56 bd 49 81 4d bd a0 49 be 3d
       0.03548925 -0.052248433 -0.050172124 0.092913866
000350 b2 16 e1 3c 92 b3 20 3d 72 74 85 3d 92 a8 46 bd
       0.027476642 0.03923375 0.06516351 -0.048500605
000360 4e ad 8f bb 8d 3d b4 3d 71 b1 2f 3e 17 25 3a 3e
       -0.004384673 0.088008024 0.17157532 0.18178211
000370 d4 c9 e9 bd 38 ae 1e 3d 11 f9 ae bd 4c 4e e7 3c
       -0.11415449 0.038740367 -0.085435994 0.028235577
000380 93 74 d1 bc e5 c2 b9 3c c8 e0 38 bd 5c 03 2e bd
       -0.025568282 0.02267594 -0.045136243 -0.042483672
000390 d6 32 d2 3d 8c 34 34 3d 49 15 48 3d 54 0c 37 3d
       0.102636024 0.043995425 0.048848424 0.04468949
0003a0 a9 3e 2b 3e a8 a0 f9 3d 2e 8e ca ba 5e 94 7b 3c
       0.16723122 0.12188846 -0.001545375 0.015355198
0003b0 a2 14 eb 3b fb dd 05 3e a1 95 77 bb d8 37 bc 3d
       0.0071740905 0.1307296 -0.0037778395 0.09190339
0003c0 bf 4a 66 bd 8d 4f a6 3d a6 01 11 bd cc 26 44 3e
       -0.056223627 0.08120642 -0.035401963 0.19155425
0003d0 63 cf c1 3d 81 b6 8c bb c2 44 c7 bc c2 8f 7e 3c
       0.09463384 -0.004294217 -0.024324778 0.015537204
0003e0 dd fe 55 bd 1b 35 cd 3c 84 77 47 3d 60 ac 2e bd
       -0.05224501 0.025049737 0.048697963 -0.04264486
0003f0 ac 46 82 bd e8 a7 90 bc b6 af 0c 3e d8 4f 34 3e
       -0.06361136 -0.017658189 0.13738903 0.17608583

conv2.bias f4 [4]
000000 05 7f 55 bd 10 e9 a3 bd 03 f8 7c 3d e2 47 52 3d
       -0.05212309 -0.080034375 0.06175996 0.051338084

conv2.lin.weight f4 [4, 128]
000000 85 9e 3c be 5d 07 a5 3c e8 a0 7d 3e f1 1f 4b 3e
       -0.18419845 0.020145113 0.24768412 0.19836403
000010 ff 71 4b be d1 12 25 3e a8 29 c9 3c 9a 40 61 be
       -0.19867705 0.16120459 0.024555996 -0.219973
000020 ac a5 66 bd 7e b6 31 be 6b ad 9b be ae bd a1 3d
       -0.05631034 -0.17354771 -0.30405745 0.07897507
000030 98 f3 7d be ac 65 92 3e 53 e2 90 be 31 03 08 3d
       -0.24799955 0.28593194 -0.28297672 0.03320617
000040 eb 5b 3d 3e 74 29 69 3e e6 4c 93 be 24 63 de bd
       0.18492095 0.2276972 -0.28769606 -0.10858753
000050 ef 37 37 be 28 fb 83 3d 32 ce 8d 3d 0e eb 95 bd
       -0.1789243 0.06444389 0.06924094 -0.07320224
000060 0e 09 88 bd 8b 7d 0a 3e 92 48 1b be 2e 1a d9 3c
       -0.06642352 0.13524453 -0.15164402 0.026501741
000070 d0 64 16 3e 12 cb 78 be 69 84 62 bb d6 c2 9e 3e
       0.14686894 -0.24296215 -0.0034563786 0.31008023
000080 ae 6d 8e 3e b8 19 79 be 5d 39 42 3e 10 6c fa 3c
       0.27818054 -0.24326217 0.18967195 0.030569106
000090 ed de 12 3e c4 16 1e be 92 e3 c4 bb 9b ba 8a bd
       0.14342852 -0.15438372 -0.006008574 -0.067738734
0000a0 43 bc f6 3d d5 c5 0f be 40 a2 1d bb 7f ab 04 3e
       0.12047627 -0.1404031 -0.0024053007 0.12956046
0000b0 6b 40 54 3e 41 be d2 3d 1a 83 1b be 32 5f 4c be
       0.20727699 0.10290194 -0.1518673 -0.19958189
0000c0 e3 c5 be bd a2 53 4f 3b e4 c2 2f be 1c b0 40 be
       -0.09315088 0.0031635542 -0.17164189 -0.1881718
0000d0 2a d1 24 3e 6c b2 4f 3e 93 fb 21 be 80 7d 7a be
       0.16095415 0.20282906 -0.15818624 -0.24461937
0000e0 b7 1f 15 3e 59 a5 3d be 72 df 81 3e a5 3b 92 3e
       0.1456288 -0.18520106 0.25365788 0.2856113
0000f0 d5 b2 90 3e 16 7b 06 3e 93 6a 33 be 0b f9 ea 3d
       0.28261438 0.13132891 -0.17521124 0.114732824
000100 9a 4e 38 3e 87 b6 9d 3c 06 55 d0 3d 7e af 89 3d
       0.17998734 0.019252075 0.10172467 0.067229256
000110 b7 e4 08 3e 3f 9d 3e 3e 5b f5 42 be 92 8c 97 bd
       0.13368498 0.18614672 -0.19038908 -0.073998585
000120 c5 06 41 bd 64 b8 a0 3e 63 bf 18 be c9 78 44 be
       -0.047125597 0.3139068 -0.14916758 -0.19186701
000130 2c 55 48 bd 04 71 10 be b5 90 9d 3e c6 da 8f 3e
       -0.04890935 -0.14105612 0.30774465 0.28096598
000140 e6 db 63 be d6 82 13 3e 02 9a 82 be ba af 49 be
       -0.22251853 0.14405379 -0.25508124 -0.1969594
000150 af 98 89 3e a3 1d 86 be d6 73 2d 3e 59 c5 cf bd
       0.268743 -0.26194486 0.16938719 -0.10145063
000160 85 c1 9e 3e e7 d1 5a bc 6e 5e 55 be 73 30 24 be
       0.3100702 -0.013355709 -0.20836803 -0.16034107
000170 ec e4 17 3c e9 b3 04 3e 33 68 7e 3e a5 d3 c3 bc
       0.009270888 0.12959255 0.24844436 -0.02390463
000180 2a 64 39 3e 92 e9 70 3e 84 7f 0b 3e 4d 7e 8b 3e
       0.18104616 0.235266 0.13622862 0.27244797
000190 af 9d fd 3d b9 15 89 3e 2b b5 80 be c8 2e 20 be
       0.123835914 0.26774386 -0.2513822 -0.15642846
0001a0 13 6b 83 bd c6 76 19 be 3f 83 35 be 06 b1 88 bd
       -0.06416907 -0.14986715 -0.17725848 -0.066743895
0001b0 ea e7 36 be ea 92 8a 3d b2 74 00 3d c2 ec 9b bd
       -0.17861906 0.06766303 0.03136129 -0.07613517
0001c0 40 02 4f 3e ce 6e 92 3e 49 a2 26 be 8c 3a 53 3e
       0.20215702 0.28600162 -0.16272844 0.20627803
0001d0 6e 56 8a be de 8c 87 be a0 54 49 be 0e f8 09 be
       -0.27019066 -0.2647466 -0.19661188 -0.13473532
0001e0 3d 80 3a be 4b 86 bf bc c9 87 22 3e aa d1 bf bd
       -0.18212982 -0.023379466 0.1587211 -0.09366162
0001f0 d4 9f 08 bd 0d 6b 61 3e b0 d1 4d be 71 b4 60 be
       -0.03335555 0.22013493 -0.2009952 -0.21943833
000200 26 8f 5a be 5f 0e 36 be f8 7d 8f 3e b6 7f 78 3e
       -0.2134367 -0.1777892 0.28025794 0.24267468
000210 27 25 1f 3e c8 01 86 be 1e 9e 7b be 65 89 34 3e
       0.15541516 -0.26173234 -0.24572036 0.17630537
000220 d7 4b 5a 3e 9c 51 72 bd 17 c1 3d be 58 67 8b be
       0.21317993 -0.05915986 -0.18530689 -0.27227283
000230 49 f1 b9 bd 12 49 45 be 9e 09 79 3e 39 b2 2a 3e
       -0.090792246 -0.19266155 0.24320075 0.16669549
000240 7b c0 52 3e a4 c0 cc 39 05 d1 43 3e 46 f4 88 3e
       0.20581238 0.0003905344 0.19122703 0.26748866
000250 a6 4e a0 3d 4f e9 03 3d b4 22 0e be bb 4b 0c 3e
       0.07827501 0.032204922 -0.13880426 0.13700764
000260 86 71 e7 3c 21 b3 39 3e 3b af d8 bc ac 5e 41 3e
       0.028252374 0.18134739 -0.026450744 0.1888377
000270 a7 37 7a be 51 da 49 3d fb 2d ef bd 30 3a 7a 3e
       -0.24435292 0.04928047 -0.11678692 0.2443626
000280 94 bb bb 3d 0a 14 92 3e a8 93 6b be 79 87 9a be
       0.09166637 0.28530914 -0.23005545 -0.30181482
000290 8c fb 7e be 01 95 7c be 5e 7e 54 be 0c d7 6c be
       -0.24900645 -0.24666215 -0.2075133 -0.23128909
0002a0 77 ff fb 3d e9 68 ba bc 41 ae a0 be fd 47 95 be
       0.123045854 -0.022755103 -0.31382945 -0.29156485
0002b0 ac bd 01 3e 6b 48 76 3e d8 9b a7 bc 5b 5c f4 3d
       0.1267001 0.24051063 -0.020460054 0.11931678
0002c0 c7 a3 d3 bd ac be a0 3e e3 af 24 bd 27 95 d5 3d
       -0.103339724 0.3139547 -0.0402068 0.10428839
0002d0 5d 75 1e be 0f 03 2c bd 10 00 97 3e fd 5e 97 be
       -0.15474458 -0.041995104 0.29492235 -0.29564658
0002e0 ab 33 9e be e9 49 6b be 4f 88 83 3e d8 c6 6a 3e
       -0.30898795 -0.22977413 0.25689933 0.22927415
0002f0 00 3b 52 3e ba 1b 1f 3e 3a 75 04 be 42 61 89 3e
       0.20530319 0.1553792 -0.12935343 0.26832014
000300 1b 4d a3 3e 75 e0 ba 3c 8e 76 95 be 8f 74 9d 3a
       0.31894764 0.022812108 -0.29192013 0.0012012887
000310 f2 fd 75 3e a2 2f 7d be 3d 40 43 bd 9d 8c 0d be
       0.24022654 -0.24725202 -0.047668684 -0.13823171
000320 99 80 98 be 09 58 36 be cf b6 1f 3e 44 f1 c3 3d
       -0.29785612 -0.1780702 0.1559708 0.09567502
000330 d7 1a d9 bd 0a e9 83 be 56 9e 5a 3c 0b e4 5f bd
       -0.106008224 -0.25763732 0.013343414 -0.054660838
000340 d4 0f 17 3e c3 ba c8 3d 2f 3f 13 3e d1 0c 12 3e
       0.14752132 0.09801247 0.14379571 0.14262702
000350 01 8e 3e 3e 24 23 42 be 60 a3 88 be 8d ea 8c 3e
       0.18608858 -0.18958718 -0.26687145 0.27522698
000360 f8 03 11 bd ee 98 80 bd b2 5d a5 3e a6 1e 8a 3e
       -0.035404176 -0.06279169 0.32298046 0.26976508
000370 0f 73 f0 3d 2d b8 22 be ad 7d a7 bc 00 e8 44 be
       0.11740696 -0.1589057 -0.02044567 -0.19229126
000380 ef f5 89 3e c5 89 a0 be 3a 09 4b be d5 b5 53 3d
       0.26945445 -0.3135511 -0.19827738 0.05168708
000390 47 25 bf bd 0a 98 44 3d cf a4 e2 3d da 68 8d 3e
       -0.09333282 0.04799656 0.11066591 0.27619058
0003a0 f1 e1 03 be 57 fb 95 3d 73 9d c3 bc 8c a7 1d 3e
       -0.12879159 0.0732333 -0.023878789 0.15395945
0003b0 1c 26 65 3e c4 92 78 be 8d 97 d8 bd 98 7c 8d be
       0.22377819 -0.24274737 -0.10575781 -0.2763412
0003c0 49 c7 37 3e 8a c6 87 be fd 3b 7f 3e 29 1a 87 bd
       0.17947115 -0.2651866 0.24925227 -0.065967865
0003d0 a1 1c 86 3e 8a bd 9a be b0 fb 85 3e 17 10 20 be
       0.26193717 -0.30222732 0.26168585 -0.15631138
0003e0 ac 4e bb bd 1f 31 02 be 40 4f e4 bd 8f 89 b6 bd
       -0.09145865 -0.1271405 -0.11147928 -0.08912956
0003f0 1a 76 33 3e c1 c8 3b be 79 80 b4 bd de 9b 8f 3d
       0.17525521 -0.183383 -0.08813567 0.07012151
