my_gtn/experiment_logs/model_exp_233.pt (torch, 176281 bytes, 4 tensors)

conv1.bias f4 [128]
00000000: b9d8 9e3d 9c3e 82bc 0d84 633d d7f4 753d
00000010: ca8b 8d3d db10 cd3d ff30 7c3d 52dd 893d
00000020: 7dd6 913d 7988 cb3d 4381 c13d 3d47 ce3d
00000030: e1e9 533d ee75 d23d a91b b43d 2a3e a23c
00000040: 5227 fa3c 2db9 293d 3c89 8c3d 36f5 dc3d
00000050: 1c04 3b3d 5386 4cbd 776c 7d3d d398 18bd
00000060: 85f7 693c 3fbd 833d be47 1e3d 8b38 533c
00000070: c2cf be3d fcc2 8c3c 3c2e cf3d 2bf7 853d
00000080: 57c9 3a3d 73eb 873d df95 c53d 6ba3 bf3d
00000090: 1509 ca3d 2196 8d3d 50ba 413c b253 c13d
000000a0: 05a3 4ebd 0e54 093d 089f c93d 18de 963d
000000b0: 6fd6 8c3c 42eb 3f3d 4d80 d13c 580b c93d
000000c0: a940 453d b1f7 d73c 4980 523d d4f3 4a3d
000000d0: 5a49 533d 2e6f 9ebc b580 e23d e6c8 833d
000000e0: 814b c33d 602c 933d efa7 7a3d ab5f 803d
000000f0: b536 6f3d 2733 4d3d eeda 4a3d 96f1 1d3c
00000100: 3f5f 293d c8c5 5f3d 9231 de3d fb9f 8b3d
00000110: 07d3 923d 1e7f c43d d254 8e3d 614b 8238
00000120: b2f7 c73d 0b9c dd3d 304c f1ba a57e 6f3d
00000130: 4323 9f3d fb7e 8c3d ca8a 7f3d ca36 cf3d
00000140: d7e4 5d3d 4faa da3d 9895 9b3d 1a8c d03d
00000150: 7a80 963d a714 c43d e9b1 d43d 548f 9b3d
00000160: 292e d13d f392 433c 923c c53d 1dc6 cc3d
00000170: ccf4 f43b 1b5d a63d 39e8 d43d 77bc c43d
00000180: f60c c43d 368c ca3d f58a c53b 5c8f ca3b
00000190: 0f2a d43d e8f4 1a3d c9e8 d73d a654 d03c
000001a0: 3ad8 9f3d 93f4 623d b771 723d e578 df3d
000001b0: f638 843d 1d1a e23d 6829 cb3d afd2 c53d
000001c0: d4d9 923d 2947 c63d cae1 c23d f6d5 8b3d
000001d0: 64b1 ce3d 0681 c63d 8c8c 2f3d 5699 923d
000001e0: 9f1a cd3d 37e0 6c3d 7dde 7e3d 2ee2 8a3d
000001f0: 5be5 983d 4e8f c23d 8c6a 0c3d 0913 943d
0.0775618 -0.015898995 0.055545855 0.06004795 0.06911428 0.100129806 0.061570164 0.067316666
0.071209885 0.099381395 0.09448483 0.100721814 0.051736716 0.102763996 0.08794338 0.019805033
0.030536328 0.041436363 0.06862113 0.10788958 0.045658216 -0.04993279 0.06187102 -0.03725512
0.014280205 0.0643258 0.038642637 0.012891899 0.093169704 0.01718282 0.101162404 0.06541284
0.04560217 0.06636705 0.09647726 0.093573414 0.098650135 0.069134004 0.0118242055 0.09439792
-0.050448436 0.033527426 0.09844786 0.0736658 0.017192094 0.04685522 0.025573874 0.09816617
0.048157368 0.026363226 0.051391874 0.04954894 0.051583625 -0.019340124 0.11059705 0.06434803
0.095358856 0.07186198 0.06119531 0.06268247 0.058401782 0.05009761 0.049525194 0.009640118
0.0413506 0.05463198 0.108492985 0.06817623 0.071691565 0.09594558 0.06949772 6.2129235e-05
0.09764041 0.108207785 -0.0018409546 0.058470387 0.077703975 0.06860157 0.06238822 0.10117872
0.054173317 0.10677015 0.07596892 0.10182972 0.07348724 0.095742516 0.10385496 0.07595697
0.102138825 0.011936891 0.096306935 0.099987246 0.007475471 0.08123227 0.103958555 0.09606259
0.095727846 0.09890024 0.006028528 0.0061816406 0.103595845 0.037831217 0.10542447 0.025430989
0.07804914 0.055409025 0.05919048 0.10911731 0.06456177 0.11040137 0.09920007 0.09659325
0.07170454 0.096815415 0.09515722 0.06827919 0.10092428 0.09692578 0.042858645 0.07158153
0.10014843 0.057831015 0.0622239 0.067814216 0.07465621 0.094999894 0.0342813 0.07230193

conv1.lin.weight f4 [128, 334]
00000000: f5ab 17bd 91bb 93bc 7374 813c e041 113e
00000010: df8e 0a3d 0b67 863d 3e68 a33d 779f f73d
00000020: e864 d13b 9513 223b 2a00 843c c0bf 01bd
00000030: 9957 02bd 55c0 f53c 9c4d 5cbb d33e 083d
00000040: 1897 da3c 74fd a93c bc21 673d 2d43 0abe
00000050: b8f1 1d3d f193 2cbd 793f 9cbd 9ae1 9a3d
00000060: 7793 0abd 6c55 b83d a069 073d 6179 503a
00000070: ee79 493d d863 333e 0d8f 36bc 675b f63b
00000080: 4571 9fbc 88b8 f13d 3e60 3c3c dafb 213c
00000090: 021a 3fbd dd79 133e 67c2 efbd 8517 9fbc
000000a0: 7f89 9ebc 3463 8ebd 3850 9e3c da80 e4bc
000000b0: 951f 82bd df78 db3d 96d9 96bd 6527 6b3d
000000c0: b9d1 5c3d de19 1b3e 85dc b4bb a16e 1cbd
000000d0: 6dae 0ebd 7c24 ba3d 98ea dc3c db7a c73c
000000e0: 774a 0ebd 6f39 41bd 76b2 c43c 8d99 ef3d
000000f0: 073b 843d ba5e 083d 3787 bf3b d8ec c8bd
00000100: d64a e7bd 6158 b93a b1a2 cdba 5231 46bd
00000110: 66d5 043e a1e8 95bb d2e0 533d b325 823d
00000120: 1046 6a3d 7e31 b43d 5022 87bd cc98 893d
00000130: e291 293c 9f60 aebd 6ee1 dbbd aa3a d9bd
00000140: 687b 503d e289 913c ca50 c3bd 513b 483e
00000150: b152 613d b07c ac3d 54ab c63c d9c0 023d
00000160: be7f 89bd 72e0 babd 1b1a 743d 2008 b73d
00000170: 7986 4fbd 4dbd 9abb 6512 16bd 6529 72bd
00000180: 9b24 82bd b749 6b3d 0bfb 8d3d 044f 593d
00000190: 5735 023c 1e37 ecbc b7aa cfbd 1cdf 94bd
000001a0: d150 353e ed52 aebd ff54 0bbe bb8e 5d3c
000001b0: 401e ad3d 3240 39bd db77 b9bc 2f6a 9abd
000001c0: c4b0 b83b a438 20bd 7d85 3f3e 66cc 173d
000001d0: db5c c03c 3bb0 a23d 0989 d83c aa7b ca3d
000001e0: 6e06 50bd aab3 c4bd 4eeb bbbd 4b33 c43c
000001f0: 5f4f 45bc b857 d9bb 7e3e 053d 3590 5a3e
00000200: 6d74 4f3c 74c6 11bd 1617 6f3b f494 33bd
00000210: f951 103d 2bc8 8c3d c316 1a3e 44ac 41bd
00000220: ca71 2abc 35c3 14bd f3ff 4f3e cb2e 3b3d
00000230: 1810 f73b 2c4c 2ebd 2333 803c 3e44 943d
00000240: 9f99 d6bc 49e6 71bd 3f0c a9bd 65c8 983d
00000250: d02a 963d 55d2 0e3e 493e 883b 5bc7 1a3d
00000260: 4fea 0c3e 40a8 023e b61d 383e e888 ab3d
00000270: f901 803d 6e7c 0f3e 4379 7e3c 362c e53d
00000280: 5164 fa3c 1402 603d 41fc 02bd 98fd ec3b
00000290: 8414 8e3d 07f8 51bc bc2e 773c 738c a53d
000002a0: 7228 98bd 4cd3 6dbd 9eb2 8abc 4624 aa3d
000002b0: 3c12 b03c 4492 b43c 4bae 363c d258 e0bc
000002c0: 9369 153e c96a 833c 72a2 17bd 8095 c13b
000002d0: 327e 383d eeb0 b13d fd14 73bb 40ff 86bd
000002e0: 965d 653d 2811 11be f52d dd3c 8796 1cbd
000002f0: ebac 9d3d 855b 95bd 2cf3 273e 8ee8 4f3d
00000300: bed3 1a39 dc4e 0e3d d11f a4bd 394c ebbc
00000310: 9e75 ce3b b8f5 e1bc c7db 56bb e1d0 1a3d
00000320: 5f80 203c 799d 343d 7c1c ac3c 4fbe d5bc
00000330: 384c ddbd 1190 aa3a 4958 28bc 865c a93d
00000340: 2f5d 113d 7402 56bd 4a81 4dbd a049 be3d
00000350: b216 e13c 92b3 203d 7274 853d 92a8 46bd
00000360: 56ad 8fbb 8d3d b43d 71b1 2f3e 1725 3a3e
00000370: d3c9 e9bd 39ae 1e3d 12f9 aebd 484e e73c
00000380: 9074 d1bc e5c2 b93c c7e0 38bd 5a03 2ebd
00000390: d632 d23d 8e34 343d 4915 483d 530c 373d
000003a0: a93e 2b3e a8a0 f93d 1a8e caba 6194 7b3c
000003b0: c214 eb3b fadd 053e 8e95 77bb d837 bc3d
000003c0: c14a 66bd 8f4f a63d a101 11bd cc26 443e
000003d0: 63cf c13d 86b6 8cbb c344 c7bc bb8f 7e3c
000003e0: dbfe 55bd 2135 cd3c 8677 473d 60ac 2ebd
000003f0: ac46 82bd e9a7 90bc b6af 0c3e d84f 343e
-0.037029225 -0.018033775 0.015802598 0.14185286 0.03382766 0.06562623 0.07978867 0.120909624
0.006390203 0.002473091 0.01611336 -0.031677008 -0.03182182 0.029998938 -0.0033615595 0.03326304
0.026683375 0.020750739 0.056428656 -0.13502188 0.0385606 -0.042133275 -0.07629294 0.07562561
-0.03383204 0.09000668 0.033059716 0.0007952657 0.049188547 0.17518556 -0.011142504 0.00751822
-0.01946319 0.11802775 0.011497555 0.009886706 -0.046655662 0.14401956 -0.11707001 -0.019420395
-0.019352673 -0.06952515 0.01932536 -0.027893472 -0.0635368 0.10716414 -0.0736572 0.057410616
0.053910945 0.15146586 -0.005519452 -0.03819144 -0.034834314 0.0908899 0.026967332 0.024350574
-0.034738984 -0.047173914 0.024010878 0.11699209 0.06456571 0.033293463 0.0058449763 -0.09810799
-0.11293571 0.0014140719 -0.0015688745 -0.04838688 0.1297203 -0.0045748507 0.051728077 0.06354847
0.057195723 0.087985024 -0.065983415 0.06718597 0.010349723 -0.08514523 -0.10736357 -0.106068924
0.05089894 0.017765943 -0.09536894 0.19553877 0.0550105 0.0842222 0.024251617 0.031922195
-0.06713818 -0.09124841 0.05959521 0.089370966 -0.050665352 -0.0047222734 -0.036638636 -0.05912151
-0.06354638 0.057443347 0.06932648 0.05305387 0.0079472875 -0.028834876 -0.10139983 -0.07269117
0.1770661 -0.085119106 -0.13606642 0.013522799 0.08453035 -0.045227237 -0.02264016 -0.07539784
0.0056363065 -0.039116517 0.18703265 0.037060164 0.023481777 0.079437695 0.026432531 0.09886868
-0.05078738 -0.09604581 -0.0917574 0.02395024 -0.012042849 -0.0066327713 0.0325303 0.21344073
0.012662035 -0.03558965 0.0036482266 -0.043843225 0.035234425 0.068741165 0.15047745 -0.047283426
-0.010403106 -0.036318976 0.2031248 0.045698922 0.0075397603 -0.042553112 0.015649384 0.07239579
-0.0261963 -0.059057508 -0.08254289 0.07460097 0.073323846 0.13947423 0.0041578156 0.037787776
0.13761257 0.12759495 0.17980084 0.08375722 0.06250376 0.1401231 0.015531841 0.11190073
0.030565413 0.05468948 -0.03197885 0.007232379 0.06937507 -0.012815482 0.015086826 0.08083429
-0.07429589 -0.058062837 -0.016930874 0.083077 0.02149307 0.022042401 0.011149953 -0.027386103
0.14591055 0.01604213 -0.037020154 0.0059077144 0.045042224 0.08676325 -0.0037091367 -0.06591654
0.055997454 -0.14166701 0.026999453 -0.03822949 0.07698997 -0.072928466 0.16401356 0.05075889
0.00014765465 0.034743175 -0.08013881 -0.02872287 0.006300642 -0.027582988 -0.0032784806 0.03779686
0.009796231 0.04409549 0.021009676 -0.026091723 -0.10805553 0.0013012906 -0.010274955 0.082696006
0.035489257 -0.052248433 -0.050172128 0.092913866 0.027476642 0.03923375 0.06516351 -0.048500605
-0.004384677 0.088008024 0.17157532 0.18178211 -0.11415448 0.03874037 -0.085436 0.02823557
-0.025568277 0.02267594 -0.04513624 -0.042483665 0.102636024 0.043995433 0.048848424 0.044689488
0.16723122 0.12188846 -0.0015453727 0.0153552005 0.0071741054 0.13072959 -0.003777835 0.09190339
-0.056223635 0.08120643 -0.035401944 0.19155425 0.09463384 -0.0042942194 -0.02432478 0.015537198
-0.052245002 0.025049748 0.04869797 -0.04264486 -0.06361136 -0.01765819 0.13738903 0.17608583

conv2.bias f4 [4]
00000000: 057f 55bd 11e9 a3bd 01f8 7c3d e147 523d
-0.05212309 -0.08003438 0.061759952 0.05133808

conv2.lin.weight f4 [4, 128]
00000000: 859e 3cbe 5907 a53c e8a0 7d3e f11f 4b3e
00000010: ff71 4bbe d012 253e aa29 c93c 9940 61be
00000020: aca5 66bd 7eb6 31be 6bad 9bbe aebd a13d
00000030: 99f3 7dbe ac65 923e 53e2 90be 3303 083d
00000040: ea5b 3d3e 7429 693e e64c 93be 2463 debd
00000050: ef37 37be 29fb 833d 33ce 8d3d 0feb 95bd
00000060: 0f09 88bd 8b7d 0a3e 9248 1bbe 2c1a d93c
00000070: d064 163e 12cb 78be 8884 62bb d6c2 9e3e
00000080: ae6d 8e3e b819 79be 5d39 423e 0f6c fa3c
00000090: ecde 123e c416 1ebe 7ae3 c4bb 9bba 8abd
000000a0: 43bc f63d d4c5 0fbe 33a2 1dbb 7fab 043e
000000b0: 6b40 543e 42be d23d 1a83 1bbe 325f 4cbe
000000c0: e2c5 bebd b053 4f3b e4c2 2fbe 1cb0 40be
000000d0: 2ad1 243e 6cb2 4f3e 93fb 21be 807d 7abe
000000e0: b71f 153e 59a5 3dbe 72df 813e a53b 923e
000000f0: d5b2 903e 167b 063e 936a 33be 0af9 ea3d
00000100: 9a4e 383e 83b6 9d3c 0655 d03d 7eaf 893d
00000110: b7e4 083e 3e9d 3e3e 5bf5 42be 918c 97bd
00000120: c306 41bd 64b8 a03e 64bf 18be c978 44be
00000130: 2d55 48bd 0471 10be b590 9d3e c6da 8f3e
00000140: e7db 63be d682 133e 029a 82be baaf 49be
00000150: af98 893e a31d 86be d773 2d3e 59c5 cfbd
00000160: 85c1 9e3e ebd1 5abc 6e5e 55be 7230 24be
00000170: ede4 173c e9b3 043e 3368 7e3e a5d3 c3bc
00000180: 2a64 393e 92e9 703e 857f 0b3e 4d7e 8b3e
00000190: af9d fd3d b915 893e 2bb5 80be c82e 20be
000001a0: 166b 83bd c676 19be 3f83 35be 05b1 88bd
000001b0: eae7 36be ea92 8a3d b374 003d c3ec 9bbd
000001c0: 3f02 4f3e ce6e 923e 49a2 26be 8c3a 533e
000001d0: 6e56 8abe de8c 87be a054 49be 0ef8 09be
000001e0: 3e80 3abe 4886 bfbc c987 223e aad1 bfbd
000001f0: d39f 08bd 0d6b 613e b0d1 4dbe 71b4 60be
00000200: 268f 5abe 5f0e 36be f87d 8f3e b67f 783e
00000210: 2725 1f3e c901 86be 1f9e 7bbe 6589 343e
00000220: d84b 5a3e 9a51 72bd 17c1 3dbe 5867 8bbe
00000230: 4af1 b9bd 1249 45be 9e09 793e 39b2 2a3e
00000240: 7bc0 523e 6ec0 cc39 05d1 433e 46f4 883e
00000250: a64e a03d 4be9 033d b422 0ebe bc4b 0c3e
00000260: 8671 e73c 21b3 393e 3eaf d8bc ab5e 413e
00000270: a637 7abe 51da 493d fb2d efbd 303a 7a3e
00000280: 94bb bb3d 0a14 923e a893 6bbe 7987 9abe
00000290: 8cfb 7ebe 0195 7cbe 5e7e 54be 0cd7 6cbe
000002a0: 75ff fb3d e968 babc 3fae a0be fd47 95be
000002b0: adbd 013e 6b48 763e d89b a7bc 5b5c f43d
000002c0: c7a3 d3bd acbe a03e e4af 24bd 2995 d53d
000002d0: 5d75 1ebe 0d03 2cbd 1000 973e fd5e 97be
000002e0: ab33 9ebe e949 6bbe 4f88 833e d8c6 6a3e
000002f0: ff3a 523e ba1b 1f3e 3a75 04be 4261 893e
00000300: 1c4d a33e 74e0 ba3c 8f76 95be bf74 9d3a
00000310: f2fd 753e a32f 7dbe 3c40 43bd 9d8c 0dbe
00000320: 9980 98be 0958 36be cfb6 1f3e 44f1 c33d
00000330: d71a d9bd 0ae9 83be 439e 5a3c 0de4 5fbd
00000340: d40f 173e c3ba c83d 2f3f 133e d10c 123e
00000350: 008e 3e3e 2423 42be 60a3 88be 8dea 8c3e
00000360: fb03 11bd ee98 80bd b25d a53e a61e 8a3e
00000370: 0f73 f03d 2cb8 22be ae7d a7bc 00e8 44be
00000380: eff5 893e c589 a0be 3909 4bbe d1b5 533d
00000390: 4725 bfbd 0a98 443d cfa4 e23d d968 8d3e
000003a0: f1e1 03be 56fb 953d 729d c3bc 8ca7 1d3e
000003b0: 1c26 653e c492 78be 8e97 d8bd 987c 8dbe
000003c0: 48c7 373e 8ac6 87be fd3b 7f3e 281a 87bd
000003d0: a11c 863e 8abd 9abe b0fb 853e 1710 20be
000003e0: ac4e bbbd 1f31 02be 434f e4bd 8d89 b6bd
000003f0: 1b76 333e c1c8 3bbe 7980 b4bd e09b 8f3d
-0.18419845 0.020145105 0.24768412 0.19836403 -0.19867705 0.16120458 0.024556 -0.21997298
-0.05631034 -0.17354771 -0.30405745 0.07897507 -0.24799956 0.28593194 -0.28297672 0.033206176
0.18492094 0.2276972 -0.28769606 -0.10858753 -0.1789243 0.064443894 0.06924095 -0.073202245
-0.06642353 0.13524453 -0.15164402 0.026501738 0.14686894 -0.24296215 -0.0034563858 0.31008023
0.27818054 -0.24326217 0.18967195 0.030569104 0.1434285 -0.15438372 -0.0060085626 -0.067738734
0.12047627 -0.14040309 -0.0024052977 0.12956046 0.20727699 0.10290195 -0.1518673 -0.19958189
-0.09315087 0.0031635575 -0.17164189 -0.1881718 0.16095415 0.20282906 -0.15818624 -0.24461937
0.1456288 -0.18520106 0.25365788 0.2856113 0.28261438 0.13132891 -0.17521124 0.11473282
0.17998734 0.019252067 0.10172467 0.067229256 0.13368498 0.1861467 -0.19038908 -0.07399858
-0.04712559 0.3139068 -0.1491676 -0.19186701 -0.048909355 -0.14105612 0.30774465 0.28096598
-0.22251855 0.14405379 -0.25508124 -0.1969594 0.268743 -0.26194486 0.1693872 -0.10145063
0.3100702 -0.013355712 -0.20836803 -0.16034105 0.009270889 0.12959255 0.24844436 -0.02390463
0.18104616 0.235266 0.13622864 0.27244797 0.123835914 0.26774386 -0.2513822 -0.15642846
-0.064169094 -0.14986715 -0.17725848 -0.06674389 -0.17861906 0.06766303 0.031361293 -0.07613518
0.202157 0.28600162 -0.16272844 0.20627803 -0.27019066 -0.2647466 -0.19661188 -0.13473532
-0.18212983 -0.02337946 0.1587211 -0.09366162 -0.033355545 0.22013493 -0.2009952 -0.21943833
-0.2134367 -0.1777892 0.28025794 0.24267468 0.15541516 -0.26173237 -0.24572037 0.17630537
0.21317995 -0.059159853 -0.18530689 -0.27227283 -0.09079225 -0.19266155 0.24320075 0.16669549
0.20581238 0.00039053283 0.19122703 0.26748866 0.07827501 0.032204907 -0.13880426 0.13700765
0.028252374 0.18134739 -0.02645075 0.18883769 -0.2443529 0.04928047 -0.11678692 0.2443626
0.09166637 0.28530914 -0.23005545 -0.30181482 -0.24900645 -0.24666215 -0.2075133 -0.23128909
0.12304584 -0.022755103 -0.3138294 -0.29156485 0.12670012 0.24051063 -0.020460054 0.11931678
-0.103339724 0.3139547 -0.040206805 0.10428841 -0.15474458 -0.041995097 0.29492235 -0.29564658
-0.30898795 -0.22977413 0.25689933 0.22927415 0.20530318 0.1553792 -0.12935343 0.26832014
0.31894767 0.022812106 -0.29192016 0.0012012942 0.24022654 -0.24725203 -0.04766868 -0.13823171
-0.29785612 -0.1780702 0.1559708 0.09567502 -0.106008224 -0.25763732 0.013343397 -0.054660846
0.14752132 0.09801247 0.14379571 0.14262702 0.18608856 -0.18958718 -0.26687145 0.27522698
-0.035404187 -0.06279169 0.32298046 0.26976508 0.11740696 -0.15890568 -0.020445671 -0.19229126
0.26945445 -0.3135511 -0.19827737 0.051687066 -0.09333282 0.04799656 0.11066591 0.27619055
-0.12879159 0.07323329 -0.023878787 0.15395945 0.22377819 -0.24274737 -0.10575782 -0.2763412
0.17947114 -0.2651866 0.24925227 -0.06596786 0.26193717 -0.30222732 0.26168585 -0.15631138
-0.09145865 -0.1271405 -0.111479305 -0.089129545 0.17525522 -0.183383 -0.08813567 0.07012153
