my_gtn/experiment_logs/model_exp_189.pt (torch, 176281 bytes, 4 tensors)

conv1.bias f4 [128]
0	0x3e037eff	0.12841414
1	0xbdfea3e3	-0.12433603
2	0x3dc1f719	0.09470958
3	0x3df8d01d	0.121490695
4	0x3e373918	0.17892873
5	0x3e2191a4	0.15778214
6	0x3d0375d0	0.032094777
7	0x3e019037	0.1265267
8	0x3e258ae8	0.1616627
9	0x3e45a9ca	0.1930305
10	0x3e832fb3	0.2562233
11	0x3e687b4c	0.22703284
12	0x3de7b8f3	0.11314573
13	0x3cad14dc	0.02112811
14	0x3e4c4474	0.19947988
15	0x3dd25241	0.10269595
16	0x3d0b4032	0.03399677
17	0x3e81a343	0.2531987
18	0x3e669323	0.22517066
19	0x3e09e2ae	0.13465378
20	0xbd9b7e2a	-0.07592423
21	0xbe3ebc7b	-0.18626587
22	0x3b7a4261	0.0038186538
23	0x3c640b90	0.013918772
24	0x3b5d7268	0.0033790115
25	0x3e00320f	0.12519096
26	0x3d870fd6	0.06594817
27	0x3cff839c	0.031190686
28	0x3d8f9039	0.0700993
29	0x3d84c4b0	0.06482828
30	0x3e5d6ccf	0.21623538
31	0x3e1d480c	0.15359515
32	0xbe075f37	-0.13219915
33	0x3e583e92	0.21117619
34	0x3e8575ed	0.26066533
35	0x3e81e42d	0.25369397
36	0x3e842351	0.25808194
37	0x3d93d2a0	0.07217908
38	0x3ac16643	0.0014755208
39	0x3e85bc5a	0.26120263
40	0xbe0956ca	-0.13412014
41	0xbdba482f	-0.09095799
42	0x3e2b6f8c	0.1674177
43	0x3ddb92c9	0.107213564
44	0x3b90c031	0.0044174423
45	0x3d2d97b3	0.042381
46	0xbdcde80a	-0.100540236
47	0x3e0d9aa0	0.13828516
48	0x3c9c4719	0.01907687
49	0x3d609a48	0.054834634
50	0x3d92a4bb	0.07160326
51	0x3db2359c	0.087016314
52	0x3ce8c803	0.028415686
53	0x3cbca250	0.023026615
54	0x3e03ff24	0.12890297
55	0x3df4a763	0.11945989
56	0x3e3c78ad	0.18405409
57	0x3deb2c5f	0.114830725
58	0x3e11ad75	0.14226325
59	0x3d370837	0.04468557
60	0x3c610ac1	0.013735474
61	0x3d45fd8d	0.048337508
62	0x3dde7377	0.10861867
63	0x3e04229d	0.12903829
64	0x3db5ce33	0.0887722
65	0x3da18697	0.07886999
66	0x3e4d404e	0.20044062
67	0xbdd9f5a3	-0.106425546
68	0x3e09bbef	0.13450597
69	0x3dcd9a65	0.10039214
70	0x3e6cbf5a	0.2311987
71	0xbdeb8697	-0.1150028
72	0x3e2e23fa	0.17005911
73	0x3e544b5f	0.20731877
74	0xbe0ca9d6	-0.13736662
75	0x3dd17394	0.10227123
76	0x3e2d7e5a	0.1694273
77	0x3dc912d7	0.098180465
78	0x3ca866df	0.020556865
79	0x3e59e616	0.21279177
80	0x3e390356	0.18067679
81	0x3e165e9e	0.14684531
82	0x3d9dd65b	0.07706901
83	0x3dae31b1	0.08505572
84	0x3e42cd53	0.19023637
85	0x3ddec5d2	0.10877575
86	0x3e901376	0.28139848
87	0x3dcbf2ff	0.09958457
88	0x3e166d20	0.14690065
89	0xbe372696	-0.17885813
90	0x3e03640d	0.12831135
91	0x3e03a72e	0.12856743
92	0x3ce22ae0	0.027608335
93	0x3bd044ed	0.006355873
94	0x3e101369	0.14069904
95	0x3dd57514	0.104227215
96	0x3dbed62c	0.09318194
97	0x3e184a32	0.14872053
98	0xbc99e115	-0.018784085
99	0xbbadf252	-0.005308428
100	0x3e7b617b	0.24548905
101	0x3bed481e	0.007241263
102	0x3e19da05	0.15024574
103	0x3d999466	0.07499008
104	0x3e557857	0.20846687
105	0x3dcd1cdf	0.10015272
106	0x3dbe666d	0.0929688
107	0x3e21ce84	0.15801436
108	0x3e63c419	0.22242774
109	0x3e55be9a	0.2087349
110	0x3e626b39	0.22111215
111	0x3e0b4618	0.13600957
112	0x3e1a29c6	0.15054998
113	0x3ddc6fff	0.10763549
114	0x3e1688ed	0.1470067
115	0x3d65b58f	0.05608135
116	0x3e3824e2	0.1798282
117	0x3e58d23f	0.21173953
118	0x3d722d40	0.059125185
119	0x3e640f81	0.2227154
120	0x3e00aa9d	0.12565084
121	0x3d60ae8c	0.05485396
122	0xbd25786b	-0.040398043
123	0x3e052492	0.13002232
124	0x3dc20072	0.09472741
125	0x3cbb436d	0.0228593
126	0x3bb19ca1	0.005420283
127	0x3dee3e97	0.11633032

conv1.lin.weight f4 [128, 334]
0	0x3b80ff16	0.0039366586
1	0xbdbc29d6	-0.09187667
2	0x3cc2ab9b	0.023763468
3	0x3da77f6b	0.081786
4	0xbc9e468b	-0.019320747
5	0xbd44a2db	-0.048006874
6	0x3e490f90	0.19634843
7	0x3d232b21	0.039836053
8	0x3b23cf2a	0.0024995306
9	0x3cfdd350	0.03098455
10	0x3dd828fe	0.10554694
11	0x3d8e6b2b	0.069540344
12	0xbd83bfb8	-0.06433052
13	0xbd8dda33	-0.06926384
14	0xbdb54c7b	-0.08852478
15	0x3cf40ea7	0.029792143
16	0x3d48468d	0.048895407
17	0x3cb0751b	0.021540215
18	0x3db99980	0.09062481
19	0x3d018810	0.0316239
20	0x3d809ab5	0.06279508
21	0xbcc8c1e5	-0.024506519
22	0xbce1ad48	-0.027548447
23	0x3ccd8c31	0.025091263
24	0xbd5be627	-0.053686287
25	0x3dcb6aff	0.09932517
26	0x3a9f0cc7	0.0012134545
27	0x3ca9c95d	0.0207259
28	0x3d538ac0	0.051645994
29	0x3d201cfd	0.039090145
30	0x3c5aee62	0.013362499
31	0x3da3c4d1	0.07996524
32	0xbbfab377	-0.0076507884
33	0x3dd4105a	0.10354681
34	0xbda73f08	-0.08166319
35	0xbd13c4b7	-0.036076274
36	0x3daafe21	0.083492525
37	0x3d46404c	0.048401162
38	0xbd575934	-0.052575305
39	0xbd8a7841	-0.06761218
40	0xbd1efdcb	-0.038816255
41	0xbd326426	-0.04355254
42	0xbbb5b3da	-0.0055451216
43	0xbd137326	-0.035998486
44	0xbe2256a3	-0.15853362
45	0xb96dcff0	-0.00022679544
46	0x3cb24660	0.021762073
47	0x3d0c9842	0.034324892
48	0x3d258c86	0.040417217
49	0x3d498a24	0.049204007
50	0xbd399c8d	-0.045315314
51	0x3ba3a757	0.0049943137
52	0xbbddb30b	-0.0067657284
53	0x3d85919f	0.06521916
54	0x3d812bf2	0.0630721
55	0x3e0e03f3	0.13868694
56	0xbb05e09b	-0.0020428065
57	0xbd8434fe	-0.0645542
58	0x3df889eb	0.12135681
59	0x3d24d02d	0.040237594
60	0x3ce011fd	0.027352327
61	0xbd06e75e	-0.032935493
62	0xbcd1377f	-0.025539158
63	0xbe29d97f	-0.16586874
64	0xbe07941f	-0.13240097
65	0xbdfb7fae	-0.12280212
66	0x3b5a13e4	0.0033276016
67	0xbe0cde15	-0.13756593
68	0x3c9bc940	0.019016862
69	0xbe120aa5	-0.14261873
70	0x3d1f6e49	0.038923535
71	0x3de0a453	0.10968842
72	0x3cdc0cfc	0.02686166
73	0xbd398259	-0.045290325
74	0x3c569701	0.013097526
75	0x3d014e6a	0.031568922
76	0x39ea7513	0.00044719185
77	0xbdf1ed5b	-0.1181285
78	0xbd56f89d	-0.05248319
79	0xbc973315	-0.018456975
80	0xbd77cbf1	-0.060497228
81	0xbe31469e	-0.17312095
82	0xbd120dba	-0.035657622
83	0x39786cb2	0.00023691615
84	0x3cf94cfc	0.030432217
85	0x3ddd506a	0.108063534
86	0xbdd78a37	-0.10524409
87	0xbc97c4e0	-0.018526495
88	0xbd7f7797	-0.06236991
89	0xba2cc85c	-0.0006591135
90	0x3d914ca8	0.07094699
91	0xbdc9ecf8	-0.09859651
92	0xbd8dac1f	-0.06917595
93	0xbd812629	-0.063061066
94	0xbe3f9b3e	-0.18711564
95	0x3cc6f5c1	0.024287106
96	0xbd2b93c5	-0.04188897
97	0xbd07bbea	-0.033138193
98	0x3ddaf1cf	0.106906526
99	0xbd52b3f2	-0.05144114
100	0x38fd699a	0.0001208365
101	0xbd7a6270	-0.061129034
102	0xbba0d5ad	-0.0049082846
103	0xbd07ed56	-0.033185326
104	0x3d66ac50	0.056316674
105	0xbdaafb5d	-0.08348725
106	0xbd494c47	-0.04914501
107	0xbd14bfd5	-0.036315758
108	0xb8fd231d	-0.000120705205
109	0xbba19e51	-0.004932203
110	0xbdd3425f	-0.10315394
111	0xbda23af5	-0.079214014
112	0x3c978407	0.018495573
113	0xbd856502	-0.06513406
114	0xbdab3025	-0.08358792
115	0xbbac6fb1	-0.005262338
116	0xbd859435	-0.06522409
117	0xbd964f22	-0.07339312
118	0xbd380009	-0.04492191
119	0x3d9d8a6b	0.07692417
120	0xbc59d88d	-0.013296259
121	0x3d6e2840	0.058143854
122	0xbd8ab14c	-0.06772098
123	0x3cdfb0ca	0.02730598
124	0xbd1bb117	-0.038010683
125	0x3d9efddf	0.07763266
126	0x3d2a94c7	0.04164579
127	0x3da599b5	0.08085958
128	0x3dfe7213	0.12424102
129	0xbd561fc9	-0.052276406
130	0x3c7857ba	0.015157634
131	0x3c44b14e	0.012005163
132	0xbdb0327b	-0.086033784
133	0xbca1127f	-0.01966214
134	0x3e6a13a3	0.22859053
135	0xbd125df2	-0.035734124
136	0xbd3e156c	-0.04640715
137	0xbc8a556d	-0.016886437
138	0x3e5f31ab	0.2179629
139	0x3e645f6b	0.22302024
140	0x3dd517c9	0.10404927
141	0xbcec3f1e	-0.02883869
142	0xbca2af85	-0.019859085
143	0x3d3408ba	0.043953635
144	0x3c264dca	0.010150382
145	0xbd6381f9	-0.055543873
146	0xbcad32d9	-0.02114241
147	0x3c722011	0.014778153
148	0xbc824b5a	-0.015905071
149	0x3dbdf0a5	0.09274415
150	0xbd650981	-0.055917267
151	0xbd2feae6	-0.042948626
152	0x3da412c2	0.0801139
153	0x3d58dd59	0.05294547
154	0x3c0d3a40	0.008619845
155	0x3da8fd81	0.08251477
156	0x3de8655a	0.11347456
157	0xbdcd6597	-0.10029142
158	0x3d79cd1c	0.060986623
159	0x3d3bce94	0.045851305
160	0xbd30bc8a	-0.043148555
161	0x3d261043	0.040542852
162	0x3c8637e0	0.016384065
163	0xbddcba9e	-0.10777782
164	0xbc590187	-0.013244993
165	0x3c2c5c5f	0.01052007
166	0xbd9ca8cd	-0.07649384
167	0x3d7629fc	0.060098633
168	0x3d623da5	0.05523457
169	0xbd51a5b6	-0.051183425
170	0xbe216abe	-0.15763375
171	0xbc75933c	-0.014988717
172	0x3d1836b1	0.037161533
173	0x3b55cee8	0.0032624546
174	0xbd8a5eaf	-0.06756341
175	0x3c501f13	0.012702721
176	0x3e038558	0.12843835
177	0x3cb9603d	0.022628898
178	0xbcc9a86b	-0.02461644
179	0x3c129c56	0.008948406
180	0x3c986969	0.018604951
181	0xbd6c9e4d	-0.057768155
182	0x3cb86b51	0.02251211
183	0x3c9bc06b	0.01901265
184	0xbcba6ba5	-0.022756407
185	0x3decb1a2	0.11557318
186	0xbcec4a6d	-0.028844083
187	0xbd4a28d3	-0.04935534
188	0xbdae4ecc	-0.08511123
189	0xbde61707	-0.11234861
190	0x3d913c64	0.07091597
191	0x3da1bd21	0.078974016
192	0x3cb262b8	0.021775588
193	0xbd44479f	-0.047919866
194	0x3da7ae73	0.081875704
195	0x3d04fbac	0.032466576
196	0x3d400bf5	0.046886403
197	0xbdfd57a1	-0.123702295
198	0x3ca4f1be	0.020134803
199	0x3d6efc4f	0.05834609
200	0x3d8c31f3	0.068454646
201	0xbd8182fe	-0.06323813
202	0x3cfc0817	0.030765576
203	0x3d5ee766	0.054419897
204	0xbd7e740e	-0.062122397
205	0xbb3cc779	-0.0028805418
206	0xbd8b234e	-0.06793843
207	0x3d6258ed	0.055260587
208	0xbcdd5c39	-0.027021514
209	0xbdca0bd3	-0.098655365
210	0xbdcfcee4	-0.10146883
211	0xbbee2335	-0.0072673806
212	0x3e301c9f	0.17198418
213	0xbc86902a	-0.016426165
214	0x3d2e0cfb	0.042492848
215	0xbe087200	-0.13324738
216	0x3d0925c5	0.033483285
217	0x3db57241	0.08859683
218	0xbc7db9e4	-0.015486214
219	0x3daa4496	0.08313863
220	0xbd4bc548	-0.04974869
221	0xbde3752c	-0.11106333
222	0xbe6a4a8b	-0.22879998
223	0xbd8b8669	-0.06812746
224	0x3cdcac87	0.026937736
225	0x3be37cc5	0.006942364
226	0xbd87c743	-0.06629803
227	0xbda6d669	-0.08146364
228	0x3e6be835	0.23037799
229	0xbbdc83bc	-0.006729571
230	0x3daa473d	0.08314369
231	0x3cd09f0f	0.02546647
232	0xbd100e64	-0.035169974
233	0x3d7187b1	0.058967296
234	0x3c07743c	0.0082674585
235	0xbdc644ec	-0.096811146
236	0xbd42bca7	-0.047543194
237	0x3dbb8de9	0.091579266
238	0x3d783908	0.060601264
239	0xbcc797dc	-0.024364404
240	0x3dbace2d	0.09121356
241	0x3d135cdd	0.035977233
242	0xbd857f53	-0.06518426
243	0x3d2f7abc	0.042841658
244	0xbda4f153	-0.080538414
245	0xbba1a3c5	-0.004932853
246	0xbd2d3ebe	-0.042296164
247	0xbc9322bc	-0.017960899
248	0xbd867b37	-0.0656647
249	0x3c6eaf79	0.014568203
250	0x3d116002	0.03549195
251	0xbd8c7302	-0.068578735
252	0xbd2c7159	-0.042100284
253	0xbe0f2c61	-0.13981773
254	0x3d07ba82	0.033136852
255	0x3d60e3dd	0.054904807

conv2.bias f4 [4]
0	0xbe0de07c	-0.13855165
1	0xbd5dc39b	-0.054141622
2	0xbdf6d46c	-0.12052235
3	0x3e6924ef	0.22767995

conv2.lin.weight f4 [4, 128]
0	0xbe468c84	-0.1938954
1	0x3c365bb0	0.011130258
2	0x3e8c4510	0.2739644
3	0x3dd3295e	0.103106245
4	0xbf072e29	-0.5280481
5	0x3ee093df	0.43862817
6	0x3e251b69	0.16123737
7	0xbea60681	-0.32426837
8	0xbe958d45	-0.29209343
9	0xbe42aaea	-0.19010511
10	0xbf4a547d	-0.7903517
11	0x3e7da52d	0.24770041
12	0xbeb17150	-0.34656763
13	0x3ee8fe1e	0.45506376
14	0xbec92706	-0.39287585
15	0x3c9202cf	0.017823605
16	0x3e5e3db8	0.21703231
17	0x3ebff63f	0.37492558
18	0xbf41763f	-0.75571054
19	0xbe772ddb	-0.24138586
20	0xbd7c0846	-0.061531328
21	0x3e005538	0.12532508
22	0xbe45a9ab	-0.19303004
23	0xbf1b6e83	-0.607155
24	0xbd619834	-0.055076793
25	0x3e0e979e	0.13925025
26	0xbdf11923	-0.117723726
27	0x3d424d26	0.047436856
28	0x3e7bbd48	0.24583924
29	0xbeb9c894	-0.3628584
30	0x3dfa3f30	0.12219083
31	0x3e92109c	0.28528297
32	0x3ea3be80	0.31981277
33	0xbf4aab05	-0.79167205
34	0x3ed485fa	0.41508466
35	0x3bf040cd	0.0073319436
36	0x3ecd4486	0.40091342
37	0xbe4f31a6	-0.20233783
38	0x3d6c77ca	0.057731427
39	0xbef701f9	-0.48243693
40	0xbcd27873	-0.0256922
41	0x3d5e6c1e	0.054302327
42	0x3d2a6507	0.041600253
43	0x3ead3359	0.33828238
44	0x3e93834b	0.28811106
45	0x3e7aaefa	0.24480811
46	0x3d79de48	0.061003
47	0xbe96404e	-0.29345936
48	0xbece9d9c	-0.4035462
49	0xbdbe8569	-0.0930279
50	0xbef366c3	-0.47539338
51	0xbe7fb535	-0.24971469
52	0x3e03b87e	0.12863347
53	0x3e36302c	0.17791814
54	0xbe67050e	-0.22560522
55	0xbe358148	-0.17725098
56	0x3e7cc83d	0.2468576
57	0xbf1747d8	-0.59094
58	0x3e5dfa84	0.21677595
59	0x3e9e49ff	0.3091583
60	0x3eb71921	0.3576136
61	0x3e3eb244	0.1862269
62	0xbe929236	-0.28627175
63	0x3df8bd5a	0.12145491
64	0x3e3c4f06	0.1838952
65	0x3db7ca43	0.08974125
66	0x3e3b351b	0.18281977
67	0x3d752868	0.059852988
68	0x3e34cbd3	0.17655878
69	0x3ed15e71	0.40892366
70	0xbf3db068	-0.740973
71	0xbc2a224a	-0.010384152
72	0x3d4340f2	0.04766936
73	0x3f1f3f20	0.62205696
74	0xbc27202f	-0.010200544
75	0xbeba40df	-0.36377618
76	0xbea20a73	-0.31648597
77	0x3e1758c4	0.14779955
78	0x3e9746e8	0.29546285
79	0x3e60d7e6	0.21957359
80	0xbf23e7f2	-0.64025795
81	0x3dda3917	0.1065542
82	0xbeccb438	-0.39981246
83	0xbe97ca87	-0.29646704
84	0x3e9dc0cb	0.30811152
85	0xbefe2b83	-0.49642572
86	0x3edc7114	0.43055022
87	0xbd41c55e	-0.047307365
88	0x3e90368c	0.28166616
89	0xbcc962dd	-0.024583274
90	0xbe8bd8bd	-0.27313796
91	0xbe4c6b23	-0.19962744
92	0x3e35be55	0.17748387
93	0x3e946209	0.28981045
94	0x3f0edd7a	0.55806696
95	0xbcac159b	-0.021006396
96	0x3e00c94f	0.12576793
97	0x3e6fe0fe	0.23425671
98	0x3ebdb640	0.37053108
99	0x3ec571aa	0.3856328
100	0x3ec036ea	0.37541896
101	0x3ed49bd1	0.41525128
102	0xbe9d8fa6	-0.30773658
103	0xbef82a78	-0.484699
104	0xbea12430	-0.3147292
105	0xbf29b68e	-0.6629418
106	0xbef43958	-0.477
107	0xbde4d990	-0.11174309
108	0xbf0e162a	-0.5550257
109	0x3e8122bf	0.25221822
110	0x3c367044	0.011135165
111	0xbb6704f5	-0.0035250757
112	0x3e33ab35	0.17545779
113	0x3ea16a1a	0.31526262
114	0xbe9166fd	-0.28398886
115	0x3ed147e3	0.40875158
116	0xbed8a9ac	-0.4231695
117	0xbeeeaed0	-0.46617746
118	0xbe63beb2	-0.22240713
119	0xbf0a6a52	-0.5406848
120	0xbecf4ae6	-0.4048683
121	0xbc13aa81	-0.009012819
122	0x398a3608	0.00026361668
123	0xbeade1fc	-0.33961475
124	0xbe97c8c8	-0.2964537
125	0x3ec19936	0.37812203
126	0xbe0b605f	-0.13610981
127	0xbe88e580	-0.26737595
128	0xbe84ed71	-0.25962403
129	0x3c3e5cb7	0.011618785
130	0x3ee5b112	0.44861656
131	0x3ebb2e91	0.36558965
132	0x3e904835	0.2818009
133	0xbf32bcae	-0.6981915
134	0x3c8aecb9	0.016958581
135	0x3e36e931	0.17862393
136	0x3e836b87	0.25667974
137	0xbdd5a5e1	-0.104320295
138	0xbe91b2c1	-0.2845669
139	0xbef80839	-0.48443773
140	0x3e60e15c	0.21960968
141	0xbefc9ffa	-0.49340802
142	0x3dd0caeb	0.101949535
143	0x3e8ee38b	0.27907977
144	0x3e97fcef	0.2968516
145	0xbcba03ca	-0.022706885
146	0x3ea2c868	0.31793523
147	0x3ef48fb0	0.47765875
148	0xbe75affc	-0.23992914
149	0x3d267769	0.040641222
150	0xbecde532	-0.40213925
151	0x3e746e2b	0.2387015
152	0xbcef4f35	-0.029212574
153	0x3e349c9f	0.17637871
154	0xbec863bc	-0.3913859
155	0x3e70d53c	0.23518842
156	0xbf1bb0ac	-0.60816455
157	0x3f21181c	0.62927413
158	0xbe789d4d	-0.24278755
159	0x3f01111f	0.5041675
160	0x3de10dce	0.10988961
161	0x3ed325f4	0.41239893
162	0xbf2d4c2b	-0.6769435
163	0xbf10c8e3	-0.5655653
164	0xbf4787b2	-0.7794143
165	0xbec95de8	-0.39329457
166	0x3cb8d277	0.022561295
167	0xbee1b67e	-0.44084543
168	0xbcbbc324	-0.022920199
169	0x3df940cc	0.12170562
170	0xbed6e1d6	-0.41969174
171	0xbf2061fc	-0.6264951
172	0xbd378531	-0.044804756
173	0x3df7c622	0.12098338
174	0xbe869e2d	-0.26292554
175	0x3d769288	0.060198337
176	0xbe22d354	-0.15900928
177	0x3f1344c8	0.57526827
178	0xbd11096b	-0.035409372
179	0x3e03c910	0.12869668
180	0xbe5dd636	-0.21663746
181	0x3e111252	0.14167145
182	0x3ea9ac4b	0.33139262
183	0xbf4132ed	-0.7546833
184	0xbf35024e	-0.7070664
185	0xbebf44db	-0.3735722
186	0x3eb19330	0.34682608
187	0x3eb04362	0.3442641
188	0x3e15f1f4	0.14643079
189	0x3e8f33e9	0.27969292
190	0xbd4ac95a	-0.04950843
191	0x3eb82613	0.35966548
192	0x3ecfd18a	0.40589553
193	0xbcb8bf0c	-0.022552036
194	0xbe711288	-0.23542225
195	0xbe0ae3e1	-0.13563491
196	0x3e662d55	0.2247823
197	0xbe1bc1c8	-0.1521064
198	0x3ba70d82	0.005098046
199	0x3cf564d4	0.029955305
200	0xbef66ef3	-0.48131523
201	0xbf148a5f	-0.5802364
202	0x3de3a3fd	0.11115263
203	0x3de4b1c6	0.1116672
204	0xbe3e617d	-0.18591876
205	0xbf3e3bfd	-0.74310285
206	0xbd938f48	-0.07205063
207	0xbcd7c33d	-0.026338214
208	0x3e74064b	0.23830526
209	0x3e9751da	0.29554635
210	0x3df401e6	0.119144246
211	0x3efae40d	0.49002114
212	0x3e7e236d	0.24818201
213	0xbea43eba	-0.32079107
214	0xbf316dfb	-0.6930844
215	0x3ed59706	0.41716784
216	0xbe987af3	-0.29781303
217	0x3d4a427e	0.04937982
218	0x3edfed24	0.4373561
219	0x3ed05abe	0.4069423
220	0x3dd3b256	0.10336749
221	0xbe55c01c	-0.20874065
222	0xbed7e94d	-0.42170182
223	0xbee7f011	-0.45300344
224	0x3ecef6ee	0.40422767
225	0xbf138029	-0.5761743
226	0xbe4409bc	-0.19144338
227	0x3e0922fc	0.13392252
228	0xbf278fe1	-0.65453917
229	0x3da3d88e	0.08000289
230	0x3df68da3	0.12038734
231	0x3efabe24	0.4897319
232	0xbf121077	-0.57056373
233	0x3c372ab4	0.011179615
234	0xbe110194	-0.14160758
235	0x3e982d98	0.29722285
236	0x3ebcf7e5	0.3690788
237	0xbf50e7cc	-0.81603694
238	0xbf0da619	-0.5533157
239	0xbed8e518	-0.42362285
240	0x3e2b8cd9	0.16752948
241	0xbf0c9890	-0.5492029
242	0x3ecb181d	0.39666834
243	0xbe156e14	-0.14592773
244	0x3ebbb404	0.3666078
245	0xbefa1b2e	-0.4884886
246	0x3e7fa99a	0.24967042
247	0xbf0e1588	-0.55501604
248	0xbd0edb02	-0.03487683
249	0xbe846110	-0.25855303
250	0xbdf58f19	-0.11990184
251	0xbec8ea68	-0.39241338
252	0x3e84348a	0.25821334
253	0xbe47a1fb	-0.19495384
254	0xbe30e782	-0.17275813
255	0x3e13362d	0.14376135
