my_gtn/experiment_logs/model_exp_243.pt (torch, 176281 bytes, 4 tensors)

conv1.bias f4 [128]
000000 fd 7e 03 3e e3 a3 fe bd 14 f7 c1 3d 17 d0 f8 3d
       0.12841411 -0.12433603 0.094709545 0.12149065
000010 17 39 37 3e a6 91 21 3e d1 75 03 3d 33 90 01 3e
       0.17892872 0.15778217 0.03209478 0.12652664
000020 e6 8a 25 3e cd a9 45 3e b3 2f 83 3e 4d 7b 68 3e
       0.16166267 0.19303055 0.2562233 0.22703286
000030 f3 b8 e7 3d de 14 ad 3c 73 44 4c 3e 40 52 d2 3d
       0.11314573 0.021128114 0.19947986 0.10269594
000040 37 40 0b 3d 43 a3 81 3e 21 93 66 3e b0 e2 09 3e
       0.033996787 0.2531987 0.22517063 0.1346538
000050 28 7e 9b bd 7a bc 3e be c0 42 7a 3b 76 0b 64 3c
       -0.07592422 -0.18626586 0.0038186759 0.013918748
000060 ae 71 5d 3b 0d 32 00 3e d3 0f 87 3d a6 83 ff 3c
       0.0033789682 0.12519093 0.06594815 0.031190705
000070 37 90 8f 3d aa c4 84 3d d1 6c 5d 3e 09 48 1d 3e
       0.07009929 0.06482823 0.21623541 0.1535951
000080 35 5f 07 be 93 3e 58 3e ed 75 85 3e 2f e4 81 3e
       -0.13219912 0.2111762 0.26066533 0.25369403
000090 54 23 84 3e 9c d2 93 3d 91 66 c1 3a 5a bc 85 3e
       0.25808203 0.07217905 0.0014755299 0.26120263
0000a0 ca 56 09 be 31 48 ba bd 8a 6f 2b 3e ca 92 db 3d
       -0.13412014 -0.09095801 0.16741768 0.10721357
0000b0 8a c0 90 3b c8 97 2d 3d 10 e8 cd bd a3 9a 0d 3e
       0.0044174837 0.042381078 -0.10054028 0.1382852
0000c0 10 47 9c 3c 44 9a 60 3d b3 a4 92 3d 9e 35 b2 3d
       0.019076854 0.05483462 0.0716032 0.08701633
0000d0 09 c8 e8 3c 53 a2 bc 3c 22 ff 03 3e 65 a7 f4 3d
       0.028415697 0.023026621 0.12890294 0.119459905
0000e0 ad 78 3c 3e 60 2c eb 3d 78 ad 11 3e 39 08 37 3d
       0.18405409 0.11483073 0.1422633 0.044685576
0000f0 f5 0a 61 3c 12 fd 45 3d 79 73 de 3d a1 22 04 3e
       0.0137355225 0.04833705 0.108618684 0.12903835
000100 35 ce b5 3d 98 86 a1 3d 49 40 4d 3e 9d f5 d9 bd
       0.088772215 0.07887 0.20044054 -0.1064255
000110 f0 bb 09 3e 66 9a cd 3d 57 bf 6c 3e 97 86 eb bd
       0.13450599 0.10039215 0.23119865 -0.1150028
000120 fb 23 2e 3e 61 4b 54 3e d5 a9 0c be 94 73 d1 3d
       0.17005913 0.2073188 -0.13736661 0.10227123
000130 5a 7e 2d 3e d6 12 c9 3d e5 66 a8 3c 16 e6 59 3e
       0.1694273 0.09818046 0.020556876 0.21279177
000140 58 03 39 3e 9a 5e 16 3e 5a d6 9d 3d b1 31 ae 3d
       0.18067682 0.14684525 0.077069 0.08505572
000150 51 cd 42 3e d5 c5 de 3d 75 13 90 3e fe f2 cb 3d
       0.19023634 0.10877577 0.28139845 0.099584565
000160 21 6d 16 3e 96 26 37 be 0d 64 03 3e 2f a7 03 3e
       0.14690067 -0.17885813 0.12831135 0.12856744
000170 d8 2a e2 3c fc 44 d0 3b 66 13 10 3e 11 75 d5 3d
       0.02760832 0.00635588 0.140699 0.10422719
000180 31 d6 be 3d 31 4a 18 3e 37 e1 99 bc 50 f2 ad bb
       0.093181975 0.14872052 -0.018784149 -0.005308427
000190 7b 61 7b 3e af 47 ed 3b 08 da 19 3e 64 94 99 3d
       0.24548905 0.0072412114 0.15024579 0.074990064
0001a0 5b 78 55 3e db 1c cd 3d 70 66 be 3d 84 ce 21 3e
       0.20846693 0.10015269 0.09296882 0.15801436
0001b0 16 c4 63 3e 9e be 55 3e 36 6b 62 3e 19 46 0b 3e
       0.2224277 0.20873496 0.2211121 0.13600959
0001c0 c8 29 1a 3e fc 6f dc 3d e9 88 16 3e 92 b5 65 3d
       0.15055001 0.10763547 0.14700665 0.056081362
0001d0 e2 24 38 3e 41 d2 58 3e 47 2d 72 3d 80 0f 64 3e
       0.1798282 0.21173956 0.05912521 0.22271538
0001e0 99 aa 00 3e 8b ae 60 3d 6b 78 25 bd 93 24 05 3e
       0.12565078 0.054853957 -0.040398043 0.13002233
0001f0 72 00 c2 3d 7c 43 bb 3c a4 9c b1 3b 92 3e ee 3d
       0.09472741 0.022859327 0.0054202843 0.11633028

conv1.lin.weight f4 [128, 334]
000000 5c fe 80 3b ce 29 bc bd 83 ab c2 3c 6f 7f a7 3d
       0.003936572 -0.09187661 0.023763424 0.08178603
000010 82 46 9e bc e3 a2 44 bd 8f 0f 49 3e 1c 2b 23 3d
       -0.01932073 -0.048006903 0.19634841 0.039836034
000020 b7 cf 23 3b 3c d3 fd 3c fe 28 d8 3d 28 6b 8e 3d
       0.0024995634 0.030984513 0.10554694 0.06954032
000030 b6 bf 83 bd 32 da 8d bd 7b 4c b5 bd 92 0e f4 3c
       -0.0643305 -0.06926383 -0.08852478 0.029792104
000040 a5 46 48 3d 0a 75 b0 3c 84 99 b9 3d 15 88 01 3d
       0.048895497 0.021540184 0.09062484 0.03162392
000050 b1 9a 80 3d e6 c1 c8 bc 4f ad e1 bc 2e 8c cd 3c
       0.06279505 -0.02450652 -0.02754846 0.025091257
000060 27 e6 5b bd fe 6a cb 3d c2 11 9f 3a 82 c9 a9 3c
       -0.053686287 0.099325165 0.001213603 0.02072597
000070 c5 8a 53 3d fc 1c 20 3d ca ee 5a 3c d1 c4 a3 3d
       0.051646013 0.03909014 0.013362596 0.07996524
000080 30 b3 fa bb 4d 10 d4 3d 03 3f a7 bd b6 c4 13 bd
       -0.0076507553 0.103546716 -0.081663154 -0.03607627
000090 21 fe aa 3d 55 40 46 3d 3f 59 57 bd 43 78 8a bd
       0.083492525 0.048401196 -0.052575346 -0.06761219
0000a0 e4 fd 1e bd 24 64 32 bd e3 b3 b5 bb 30 73 13 bd
       -0.038816348 -0.043552533 -0.005545126 -0.035998523
0000b0 a0 56 22 be bd ca 6d b9 53 46 b2 3c 43 98 0c 3d
       -0.15853357 -0.00022677607 0.021762049 0.034324896
0000c0 8b 8c 25 3d 22 8a 49 3d 82 9c 39 bd 7c a7 a3 3b
       0.040417235 0.049204 -0.045315273 0.004994331
0000d0 08 b3 dd bb 99 91 85 3d f5 2b 81 3d ef 03 0e 3e
       -0.006765727 0.06521911 0.06307212 0.13868688
0000e0 96 e0 05 bb fd 34 84 bd e3 89 f8 3d 3f d0 24 3d
       -0.0020428053 -0.06455419 0.12135675 0.04023766
0000f0 0b 12 e0 3c 5c e7 06 bd 81 37 d1 bc 7d d9 29 be
       0.027352354 -0.032935485 -0.025539162 -0.16586871
000100 1d 94 07 be b2 7f fb bd a3 14 5a 3b 15 de 0c be
       -0.13240094 -0.12280215 0.003327646 -0.13756593
000110 c4 c8 9b 3c 9f 0a 12 be 55 6e 1f 3d 58 a4 e0 3d
       0.019016631 -0.14261864 0.03892358 0.10968846
000120 14 0d dc 3c 54 82 39 bd 09 97 56 3c 67 4e 01 3d
       0.026861705 -0.045290306 0.013097533 0.03156891
000130 28 6f ea 39 5c ed f1 bd 9c f8 56 bd 16 33 97 bc
       0.00044714776 -0.11812851 -0.052483186 -0.018456977
000140 f3 cb 77 bd 9d 46 31 be c3 0d 12 bd dd 67 78 39
       -0.060497236 -0.17312093 -0.035657655 0.00023689815
000150 42 4d f9 3c 66 50 dd 3d 2a 8a d7 bd d0 c4 97 bc
       0.030432347 0.108063504 -0.105243996 -0.018526465
000160 8d 77 7f bd b2 c6 2c ba ac 4c 91 3d f5 ec c9 bd
       -0.062369872 -0.0006590887 0.07094702 -0.09859649
000170 21 ac 8d bd 31 26 81 bd 3c 9b 3f be b5 f5 c6 3c
       -0.069175966 -0.063061126 -0.18711561 0.024287084
000180 c6 93 2b bd e7 bb 07 bd cd f1 da 3d d9 b3 52 bd
       -0.041888975 -0.033138182 0.10690651 -0.051441047
000190 b9 40 fd 38 74 62 7a bd eb d5 a0 bb 5d ed 07 bd
       0.00012076036 -0.06112905 -0.0049083135 -0.03318535
0001a0 43 ac 66 3d 5b fb aa bd 57 4c 49 bd ce bf 14 bd
       0.056316625 -0.083487235 -0.04914507 -0.03631573
0001b0 51 0c fd b8 47 9e a1 bb 63 42 d3 bd ff 3a a2 bd
       -0.00012066274 -0.004932198 -0.10315397 -0.07921409
0001c0 30 84 97 3c 00 65 85 bd 1a 30 ab bd e0 6f ac bb
       0.01849565 -0.06513405 -0.08358784 -0.00526236
0001d0 2f 94 85 bd 21 4f 96 bd 20 00 38 bd 73 8a 9d 3d
       -0.065224044 -0.073393114 -0.044921994 0.07692423
0001e0 a9 d8 59 bc 44 28 6e 3d 48 b1 8a bd dd b0 df 3c
       -0.013296285 0.05814387 -0.06772095 0.027306015
0001f0 19 b1 1b bd dc fd 9e 3d cb 94 2a 3d b2 99 a5 3d
       -0.03801069 0.077632636 0.041645806 0.08085956
000200 14 72 fe 3d bf 1f 56 bd d7 57 78 3c 54 b1 44 3c
       0.124241024 -0.05227637 0.015157661 0.012005169
000210 7b 32 b0 bd 75 12 a1 bc a0 13 6a 3e f6 5d 12 bd
       -0.086033784 -0.019662121 0.22859049 -0.03573414
000220 73 15 3e bd 4a 55 8a bc a9 31 5f 3e 62 5f 64 3e
       -0.046407174 -0.016886372 0.21796288 0.2230201
000230 d5 17 d5 3d 17 3f ec bc 96 af a2 bc bc 08 34 3d
       0.10404936 -0.028838677 -0.019859117 0.043953642
000240 a8 4d 26 3c f3 81 63 bd e0 32 ad bc 19 20 72 3c
       0.010150351 -0.05554385 -0.021142423 0.0147781605
000250 8e 4b 82 bc a5 f0 bd 3d 7e 09 65 bd e9 ea 2f bd
       -0.015905168 0.09274415 -0.055917256 -0.042948637
000260 c0 12 a4 3d 4e dd 58 3d 22 3a 0d 3c 7f fd a8 3d
       0.08011389 0.052945428 0.008619817 0.082514755
000270 51 65 e8 3d 94 65 cd bd 19 cd 79 3d 99 ce 3b 3d
       0.113474496 -0.1002914 0.060986612 0.045851324
000280 76 bc 30 bd 42 10 26 3d d5 37 86 3c a0 ba dc bd
       -0.04314848 0.04054285 0.016384045 -0.107777834
000290 51 01 59 bc 6c 5c 2c 3c d2 a8 9c bd 0c 2a 76 3d
       -0.013244943 0.010520082 -0.076493874 0.060098693
0002a0 a0 3d 62 3d bc a5 51 bd bf 6a 21 be 21 93 75 bc
       0.05523455 -0.051183447 -0.15763377 -0.014988692
0002b0 a6 36 18 3d d0 ce 55 3b a9 5e 8a bd e2 1e 50 3c
       0.03716149 0.003262449 -0.06756336 0.012702676
0002c0 59 85 03 3e 6b 60 b9 3c 63 a8 c9 bc 64 9c 12 3c
       0.12843837 0.022628983 -0.024616426 0.008948419
0002d0 6a 69 98 3c 5b 9e 6c bd 59 6b b8 3c 71 c0 9b 3c
       0.018604953 -0.057768207 0.022512125 0.019012662
0002e0 8d 6b ba bc 9b b1 ec 3d 70 4a ec bc c8 28 4a bd
       -0.022756362 0.11557313 -0.028844088 -0.0493553
0002f0 cc 4e ae bd 03 17 e6 bd 65 3c 91 3d 1b bd a1 3d
       -0.08511123 -0.11234858 0.070915975 0.07897397
000300 ba 62 b2 3c 91 47 44 bd 75 ae a7 3d b3 fb 04 3d
       0.021775592 -0.047919814 0.08187572 0.0324666
000310 a3 0b 40 3d 9c 57 fd bd c3 f1 a4 3c 5c fc 6e 3d
       0.046886098 -0.12370226 0.020134812 0.058346137
000320 f0 31 8c 3d ff 82 81 bd 1c 08 fc 3c 6e e7 5e 3d
       0.06845462 -0.06323814 0.030765586 0.054419927
000330 05 74 7e bd c1 c7 3c bb 52 23 8b bd f1 58 62 3d
       -0.062122364 -0.0028805586 -0.06793846 0.055260602
000340 7b 5c dd bc cf 0b ca bd e5 ce cf bd 34 23 ee bb
       -0.027021637 -0.098655336 -0.10146884 -0.00726738
000350 9d 1c 30 3e 22 90 86 bc f8 0c 2e 3d 00 72 08 be
       0.17198415 -0.01642615 0.042492837 -0.13324738
000360 c2 25 09 3d 4d 72 b5 3d e8 b9 7d bc 88 44 aa 3d
       0.033483274 0.08859692 -0.015486218 0.083138525
000370 3d c5 4b bd 28 75 e3 bd 8a 4a 6a be 66 86 8b bd
       -0.049748648 -0.1110633 -0.22879997 -0.06812744
000380 ac ac dc 3c df 7c e3 3b 40 c7 87 bd 67 d6 a6 bd
       0.026937805 0.006942376 -0.06629801 -0.08146363
000390 31 e8 6b 3e 71 83 dc bb 37 47 aa 3d 0b 9f d0 3c
       0.23037793 -0.006729536 0.083143644 0.025466463
0003a0 57 0e 10 bd bc 87 71 3d 4e 74 07 3c f5 44 c6 bd
       -0.035169926 0.058967337 0.008267475 -0.09681121
0003b0 96 bc 42 bd d9 8d bb 3d 0f 39 78 3d 1e 98 c7 bc
       -0.04754313 0.09157915 0.06060129 -0.024364527
0003c0 34 ce ba 3d e2 5c 13 3d 4f 7f 85 bd c8 7a 2f 3d
       0.091213614 0.03597725 -0.06518423 0.042841703
0003d0 52 f1 a4 bd 8d a3 a1 bb b6 3e 2d bd b5 22 93 bc
       -0.08053841 -0.004932827 -0.042296134 -0.017960886
0003e0 3d 7b 86 bd 9e af 6e 3c 00 60 11 3d 03 73 8c bd
       -0.065664746 0.014568238 0.035491943 -0.06857874
0003f0 56 71 2c bd 62 2c 0f be 79 ba 07 3d d5 e3 60 3d
       -0.042100273 -0.13981774 0.03313682 0.054904778

conv2.bias f4 [4]
000000 7c e0 0d be 99 c3 5d bd 6e d4 f6 bd ed 24 69 3e
       -0.13855165 -0.054141615 -0.120522365 0.22767992

conv2.lin.weight f4 [4, 128]
000000 7d 8c 46 be a8 5b 36 3c 0f 45 8c 3e 5d 29 d3 3d
       -0.1938953 0.011130251 0.27396438 0.10310624
000010 2b 2e 07 bf dd 93 e0 3e 69 1b 25 3e 80 06 a6 be
       -0.5280482 0.4386281 0.16123737 -0.32426834
000020 49 8d 95 be eb aa 42 be 7f 54 4a bf 2b a5 7d 3e
       -0.29209355 -0.19010513 -0.7903518 0.24770038
000030 4f 71 b1 be 1e fe e8 3e 06 27 c9 be ca 02 92 3c
       -0.3465676 0.45506376 -0.39287585 0.017823596
000040 ba 3d 5e 3e 40 f6 bf 3e 3f 76 41 bf dd 2d 77 be
       0.21703234 0.3749256 -0.75571054 -0.24138589
000050 3d 08 7c bd 39 55 00 3e a5 a9 45 be 80 6e 1b bf
       -0.061531294 0.1253251 -0.19302996 -0.60715485
000060 2c 98 61 bd 9d 97 0e 3e 23 19 f1 bd 20 4d 42 3d
       -0.055076763 0.13925023 -0.117723726 0.047436833
000070 49 bd 7b 3e 8e c8 b9 be 48 3f fa 3d 89 10 92 3e
       0.24583925 -0.36285824 0.12219101 0.2852824
000080 80 be a3 3e 05 ab 4a bf f9 85 d4 3e c8 40 f0 3b
       0.31981277 -0.79167205 0.41508463 0.0073319413
000090 84 44 cd 3e a3 31 4f be ca 77 6c 3d f7 01 f7 be
       0.40091336 -0.20233779 0.057731427 -0.48243687
0000a0 6e 78 d2 bc 0b 6c 5e 3d 10 65 2a 3d 57 33 ad 3e
       -0.025692191 0.054302257 0.041600287 0.33828232
0000b0 49 83 93 3e fa ae 7a 3e 49 de 79 3d 4f 40 96 be
       0.288111 0.24480811 0.061003003 -0.2934594
0000c0 99 9d ce be 69 85 be bd c3 66 f3 be 34 b5 7f be
       -0.40354612 -0.0930279 -0.47539338 -0.24971467
0000d0 7d b8 03 3e 2d 30 36 3e 0e 05 67 be 47 81 35 be
       0.12863345 0.17791815 -0.22560522 -0.17725097
0000e0 3c c8 7c 3e d7 47 17 bf 82 fa 5d 3e 00 4a 9e 3e
       0.24685758 -0.59093994 0.21677592 0.30915833
0000f0 20 19 b7 3e 40 b2 3e 3e 37 92 92 be 50 bd f8 3d
       0.35761356 0.18622684 -0.28627178 0.121454835
000100 07 4f 3c 3e 48 ca b7 3d 1f 35 3b 3e 5e 28 75 3d
       0.18389522 0.08974129 0.18281983 0.05985295
000110 d5 cb 34 3e 73 5e d1 3e 68 b0 3d bf 46 22 2a bc
       0.17655881 0.40892372 -0.740973 -0.010384148
000120 fb 40 43 3d 21 3f 1f 3f 35 20 27 bc de 40 ba be
       0.047669392 0.622057 -0.01020055 -0.36377615
000130 74 0a a2 be c5 58 17 3e e7 46 97 3e e4 d7 60 3e
       -0.316486 0.14779957 0.29546282 0.21957356
000140 f2 e7 23 bf 20 39 da 3d 3a b4 cc be 87 ca 97 be
       -0.64025795 0.10655427 -0.39981252 -0.29646704
000150 cc c0 9d 3e 83 2b fe be 13 71 dc 3e 4b c5 41 bd
       0.30811155 -0.49642572 0.4305502 -0.047307294
000160 88 36 90 3e d7 62 c9 bc be d8 8b be 22 6b 4c be
       0.28166604 -0.024583263 -0.273138 -0.19962743
000170 55 be 35 3e 07 62 94 3e 7a dd 0e 3f 9d 15 ac bc
       0.17748387 0.2898104 0.55806696 -0.0210064
000180 4d c9 00 3e 00 e1 6f 3e 3d b6 bd 3e a8 71 c5 3e
       0.1257679 0.23425674 0.370531 0.38563275
000190 ea 36 c0 3e c8 9b d4 3e a8 8f 9d be 75 2a f8 be
       0.37541896 0.41525102 -0.30773664 -0.48469892
0001a0 2c 24 a1 be 8e b6 29 bf 58 39 f4 be 8e d9 e4 bd
       -0.3147291 -0.6629418 -0.477 -0.11174308
0001b0 2b 16 0e bf c4 22 81 3e 1b 70 36 3c 36 05 67 bb
       -0.55502576 0.25221837 0.011135126 -0.0035250909
0001c0 36 ab 33 3e 19 6a a1 3e fd 66 91 be e5 47 d1 3e
       0.1754578 0.3152626 -0.28398886 0.40875164
0001d0 ac a9 d8 be d1 ae ee be b4 be 63 be 52 6a 0a bf
       -0.4231695 -0.4661775 -0.22240716 -0.5406848
0001e0 e6 4a cf be 7e aa 13 bc e7 37 8a 39 fa e1 ad be
       -0.4048683 -0.0090128165 0.00026363062 -0.3396147
0001f0 c7 c8 97 be 35 99 c1 3e 60 60 0b be 7c e5 88 be
       -0.29645368 0.378122 -0.13610983 -0.26737583
000200 72 ed 84 be c7 5c 3e 3c 0f b1 e5 3e 91 2e bb 3e
       -0.25962406 0.0116187995 0.44861647 0.36558965
000210 35 48 90 3e af bc 32 bf c2 ec 8a 3c 2f e9 36 3e
       0.2818009 -0.6981916 0.016958598 0.1786239
000220 87 6b 83 3e df a5 d5 bd c2 b2 91 be 3a 08 f8 be
       0.25667974 -0.10432028 -0.28456694 -0.48443776
000230 5f e1 60 3e f3 9f fc be ea ca d0 3d 88 e3 8e 3e
       0.21960972 -0.49340782 0.10194953 0.27907968
000240 f1 fc 97 3e 10 04 ba bc 6c c8 a2 3e af 8f f4 3e
       0.29685166 -0.022707015 0.31793535 0.47765872
000250 fb af 75 be 63 77 26 3d 33 e5 cd be 23 6e 74 3e
       -0.23992912 0.0406412 -0.40213928 0.23870139
000260 57 4f ef bc a0 9c 34 3e bb 63 c8 be 40 d5 70 3e
       -0.029212637 0.17637873 -0.39138588 0.23518848
000270 ab b0 1b bf 1d 18 21 3f 43 9d 78 be 2a 11 01 3f
       -0.6081645 0.6292742 -0.2427874 0.50416815
000280 ce 0d e1 3d f3 25 d3 3e 2c 4c 2d bf e3 c8 10 bf
       0.10988961 0.4123989 -0.67694354 -0.5655653
000290 b1 87 47 bf e8 5d c9 be 81 d2 b8 3c 82 b6 e1 be
       -0.77941424 -0.39329457 0.022561314 -0.44084555
0002a0 26 c3 bb bc cd 40 f9 3d d7 e1 d6 be fb 61 20 bf
       -0.022920202 0.12170563 -0.41969177 -0.62649506
0002b0 3c 85 37 bd 22 c6 f7 3d 2c 9e 86 be 8b 92 76 3d
       -0.044804797 0.12098338 -0.2629255 0.060198348
0002c0 59 d3 22 be c9 44 13 3f 7e 09 11 bd 0f c9 03 3e
       -0.15900935 0.5752683 -0.035409443 0.12869667
0002d0 31 d6 5d be 52 12 11 3e 4b ac a9 3e ec 32 41 bf
       -0.21663739 0.14167145 0.33139262 -0.75468326
0002e0 4e 02 35 bf db 44 bf be 31 93 b1 3e 63 43 b0 3e
       -0.7070664 -0.3735722 0.3468261 0.34426412
0002f0 f7 f1 15 3e ed 33 8f 3e 43 c9 4a bd 15 26 b8 3e
       0.14643084 0.27969304 -0.049508344 0.35966554
000300 88 d1 cf 3e 19 bf b8 bc 88 12 71 be e0 e3 0a be
       0.40589547 -0.02255206 -0.23542225 -0.1356349
000310 55 2d 66 3e c8 c1 1b be c0 0d a7 3b da 64 f5 3c
       0.2247823 -0.1521064 0.0050980747 0.029955316
000320 f5 6e f6 be 5e 8a 14 bf 04 a4 e3 3d c3 b1 e4 3d
       -0.48131528 -0.5802363 0.11115268 0.11166718
000330 82 61 3e be fc 3b 3e bf 4c 8f 93 bd 53 c3 d7 bc
       -0.18591884 -0.7431028 -0.07205066 -0.026338255
000340 4e 06 74 3e d5 51 97 3e f0 01 f4 3d 0d e4 fa 3e
       0.2383053 0.2955462 0.11914432 0.49002114
000350 6f 23 7e 3e ba 3e a4 be fa 6d 31 bf 02 97 d5 3e
       0.24818204 -0.32079107 -0.69308436 0.41716772
000360 f2 7a 98 be 7a 42 4a 3d 23 ed df 3e c1 5a d0 3e
       -0.297813 0.049379803 0.43735608 0.4069424
000370 5f b2 d3 3d 1b c0 55 be 4f e9 d7 be 15 f0 e7 be
       0.10336756 -0.20874064 -0.42170188 -0.45300356
000380 ee f6 ce 3e 29 80 13 bf b6 09 44 be f3 22 09 3e
       0.40422767 -0.5761743 -0.1914433 0.13392238
000390 e2 8f 27 bf 7e d8 a3 3d a5 8d f6 3d 27 be fa 3e
       -0.6545392 0.08000277 0.12038735 0.489732
0003a0 77 10 12 bf a0 2a 37 3c 97 01 11 be 95 2d 98 3e
       -0.57056373 0.011179596 -0.14160763 0.29722276
0003b0 e5 f7 bc 3e cc e7 50 bf 1a a6 0d bf 19 e5 d8 be
       0.3690788 -0.81603694 -0.55331576 -0.42362288
0003c0 d9 8c 2b 3e 90 98 0c bf 1c 18 cb 3e 14 6e 15 be
       0.16752948 -0.5492029 0.39666831 -0.14592773
0003d0 04 b4 bb 3e 2e 1b fa be 93 a9 7f 3e 86 15 0e bf
       0.3666078 -0.4884886 0.24967031 -0.5550159
0003e0 f7 da 0e bd 10 61 84 be 1b 8f f5 bd 67 ea c8 be
       -0.03487679 -0.25855303 -0.11990186 -0.39241335
0003f0 8c 34 84 3e fd a1 47 be 83 e7 30 be 2c 36 13 3e
       0.2582134 -0.19495387 -0.17275815 0.14376134
